results/weights/weights_sequence_adamm_0.1111111119389534_conv2.weight_8.npy (npy, 33176 bytes, 1 tensors)

array f8 [51, 81]
0	0x3f8c245200000000	0.013741150498390198
1	0xbfdb46ec20000000	-0.42620375752449036
2	0xbfaf75bde0000000	-0.061445172876119614
3	0x3f81dda6c0000000	0.0087235476821661
4	0xbfc33f90a0000000	-0.15037734806537628
5	0x3fc6da2460000000	0.1785321682691574
6	0x3f906963a0000000	0.016027027741074562
7	0xbfb28b18c0000000	-0.07243494689464569
8	0xbfbf41e7e0000000	-0.1220993921160698
9	0xbfc12f5ae0000000	-0.13425765931606293
10	0xbfc778bdc0000000	-0.18337222933769226
11	0xbfd282ca20000000	-0.2892327606678009
12	0xbfcee687c0000000	-0.24141022562980652
13	0xbfc2dd8160000000	-0.14738480746746063
14	0xbfba36b800000000	-0.10239744186401367
15	0x3fd1c86f60000000	0.27785858511924744
16	0x3fd1f431c0000000	0.2805294394493103
17	0xbfc6c1cc40000000	-0.17778924107551575
18	0xbfc6ac7ea0000000	-0.17713911831378937
19	0xbfb73ab460000000	-0.09073951095342636
20	0xbf905c1640000000	-0.015976283699274063
21	0x3fb4bbe5e0000000	0.08099209517240524
22	0x3fb2a76ca0000000	0.07286719232797623
23	0x3fcf503b20000000	0.2446359544992447
24	0x3fc1e58320000000	0.13981665670871735
25	0x3f8624ff80000000	0.010812755674123764
26	0x3fc8da7a40000000	0.19416740536689758
27	0xbfd66e4200000000	-0.3504796028137207
28	0xbfc7f62f80000000	-0.18720048666000366
29	0x3fbcc24e80000000	0.11233988404273987
30	0xbfc4f82500000000	-0.16382277011871338
31	0x3fb12e01a0000000	0.06710825115442276
32	0x3f97dccb80000000	0.023303203284740448
33	0x3f8f0dc7c0000000	0.015163002535700798
34	0xbfd1d127c0000000	-0.2783908247947693
35	0xbfc86113e0000000	-0.19046257436275482
36	0x3fcbb075c0000000	0.2163226306438446
37	0x3fa9443ce0000000	0.04934873804450035
38	0x3fa98973c0000000	0.049876801669597626
39	0x3fba502660000000	0.10278549045324326
40	0xbfc6c576a0000000	-0.17790110409259796
41	0xbfca5c21c0000000	-0.20593664050102234
42	0x3fc2f91e80000000	0.1482275128364563
43	0x3f94302580000000	0.01971491426229477
44	0x3fb40d77a0000000	0.07833049446344376
45	0xbfd167c680000000	-0.27195894718170166
46	0xbfa12f4240000000	-0.033563680946826935
47	0xbf92daf260000000	-0.01841334067285061
48	0xbfc34cd120000000	-0.1507817655801773
49	0x3fc57dec20000000	0.16790534555912018
50	0xbfcc3faea0000000	-0.2206934243440628
51	0x3fabbf1520000000	0.05419221892952919
52	0x3fd1ee56e0000000	0.28017207980155945
53	0xbfc4821820000000	-0.1602201610803604
54	0x3f9d3d13a0000000	0.028553301468491554
55	0xbfa6136ca0000000	-0.04311694577336311
56	0xbfcbeb0200000000	-0.2181093692779541
57	0xbfa4f82b40000000	-0.04095587879419327
58	0xbfa69b9f40000000	-0.04415605217218399
59	0xbfbeb33680000000	-0.11992207169532776
60	0x3f82930d40000000	0.009069541469216347
61	0xbfbad220e0000000	-0.10476880520582199
62	0xbfd02f13a0000000	-0.25287333130836487
63	0xbfb2b55dc0000000	-0.07307992875576019
64	0xbfce55e260000000	-0.23699598014354706
65	0xbfc654afa0000000	-0.17445941269397736
66	0xbf958f30a0000000	-0.021054038777947426
67	0xbfa085e220000000	-0.03227144852280617
68	0xbfd22932c0000000	-0.2837645411491394
69	0xbfa55df540000000	-0.04173246771097183
70	0xbfd2ade1c0000000	-0.2918629050254822
71	0x3fd7ccfa80000000	0.37188589572906494
72	0x3f731d5b40000000	0.004666668362915516
73	0xbfd13db080000000	-0.2693902254104614
74	0x3fac27b9a0000000	0.054990578442811966
75	0x3fcec6fde0000000	0.2404477447271347
76	0xbf901fa720000000	-0.015745745971798897
77	0x3fc0519920000000	0.12749017775058746
78	0xbfc05d9540000000	-0.12785592675209045
79	0x3fd4815f20000000	0.32039621472358704
80	0xbfa1c33da0000000	-0.03469269350171089
81	0x3fa5cce720000000	0.042578909546136856
82	0xbfda12b980000000	-0.40739285945892334
83	0xbfc38e1760000000	-0.15277378261089325
84	0x3fc492c7a0000000	0.16072936356067657
85	0xbfc1de1f60000000	-0.13959114253520966
86	0x3fbfcef860000000	0.12425186485052109
87	0x3fcdadd580000000	0.2318674921989441
88	0xbfc3912f00000000	-0.1528681516647339
89	0xbfc9922f00000000	-0.1997736692428589
90	0xbfc4205740000000	-0.1572369635105133
91	0xbfd6e8c020000000	-0.3579559624195099
92	0xbfcd375440000000	-0.22825101017951965
93	0xbfcb32c460000000	-0.21248678863048553
94	0xbfcee17ea0000000	-0.24125654995441437
95	0x3f95389ae0000000	0.020723743364214897
96	0x3fda0bae80000000	0.4069629907608032
97	0x3fd45b8d80000000	0.31808793544769287
98	0xbfa5df1880000000	-0.04271771013736725
99	0xbfb3748260000000	-0.07599654048681259
100	0xbfc320d140000000	-0.1494390070438385
101	0x3fb2cbf3a0000000	0.0734245553612709
102	0x3fd10b0400000000	0.2662973403930664
103	0x3fc80839c0000000	0.18775102496147156
104	0x3fd6f02fe0000000	0.3584098517894745
105	0x3fd83b6c20000000	0.37862685322761536
106	0x3fc7a50500000000	0.18472349643707275
107	0x3fd3f563a0000000	0.311852365732193
108	0xbfd4c66020000000	-0.32460787892341614
109	0xbfa254cfa0000000	-0.035803306847810745
110	0x3fd24cf5a0000000	0.2859472334384918
111	0xbfc4acd4e0000000	-0.16152440011501312
112	0x3fc197d5e0000000	0.13744615018367767
113	0x3fb3881340000000	0.07629509270191193
114	0xbf99811520000000	-0.024906473234295845
115	0xbfde4a8b20000000	-0.4732997715473175
116	0xbfd8ff51e0000000	-0.39058348536491394
117	0x3fcc827660000000	0.22273139655590057
118	0x3fb5c1c720000000	0.0849880650639534
119	0x3fa5cdeec0000000	0.04258676618337631
120	0x3f886b7940000000	0.011923739686608315
121	0xbfccb19fa0000000	-0.22417064011096954
122	0xbfd00e0780000000	-0.25085628032684326
123	0x3fd1f578a0000000	0.2806073725223541
124	0x3fcb0127a0000000	0.21097274124622345
125	0x3fccdb2720000000	0.22543801367282867
126	0xbfd3d66480000000	-0.3099604845046997
127	0xbfb509c660000000	-0.08218040317296982
128	0xbfacd20a20000000	-0.056289974600076675
129	0xbfb90d6b00000000	-0.09786099195480347
130	0x3fbe4ac6c0000000	0.11832849681377411
131	0xbfc7646680000000	-0.18275147676467896
132	0x3fd183d9c0000000	0.27367252111434937
133	0x3fdf65aae0000000	0.490580290555954
134	0x3fb1f46ce0000000	0.07013588398694992
135	0x3f778237c0000000	0.005739419721066952
136	0xbfc1821aa0000000	-0.1367829591035843
137	0xbfd8016980000000	-0.3750861883163452
138	0x3fad602600000000	0.05737417936325073
139	0xbf9b3dbac0000000	-0.026602666825056076
140	0xbfc2682760000000	-0.14380352199077606
141	0x3fc92c1a20000000	0.19665838778018951
142	0xbfc4431d80000000	-0.15829819440841675
143	0xbfdb1b0bc0000000	-0.42352575063705444
144	0x3f9b094fa0000000	0.026402706280350685
145	0xbfd22db2a0000000	-0.284039169549942
146	0xbf91f9f9c0000000	-0.01755514368414879
147	0x3fb4f78600000000	0.0819019079208374
148	0xbfabd6ddc0000000	-0.05437367409467697
149	0xbfb91a1920000000	-0.09805447608232498
150	0x3faa5da7e0000000	0.051495786756277084
151	0xbfcd4dd040000000	-0.22893717885017395
152	0x3fe35db5c0000000	0.6051892042160034
153	0x3fc53706a0000000	0.16574175655841827
154	0xbfc3fd64e0000000	-0.15617047250270844
155	0x3fcd8a9d60000000	0.23079268634319305
156	0x3fd77395e0000000	0.36642977595329285
157	0x3fa79c5a20000000	0.04611474648118019
158	0x3fcf3561c0000000	0.2438165843486786
159	0xbf7e193960000000	-0.0073482743464410305
160	0x3fdea21040000000	0.4786415696144104
161	0x3fc587af20000000	0.16820324957370758
162	0x3f9f2f14a0000000	0.030453035607933998
163	0xbfda04ae20000000	-0.40653565526008606
164	0xbfc2a91e20000000	-0.14578606188297272
165	0x3fc6dd5ac0000000	0.17863020300865173
166	0xbfc0569da0000000	-0.12764330208301544
167	0x3fc2716120000000	0.14408506453037262
168	0x3fd0eee140000000	0.2645800709724426
169	0xbfbab73ce0000000	-0.1043584868311882
170	0xbfc4e3ccc0000000	-0.16320189833641052
171	0xbfc6963380000000	-0.17645877599716187
172	0xbfd9d17680000000	-0.40340960025787354
173	0xbfd1bf4080000000	-0.27729809284210205
174	0xbfc95cc520000000	-0.1981436163187027
175	0xbfcfd1ae80000000	-0.2485864758491516
176	0x3f988a8440000000	0.023965898901224136
177	0x3fd9887660000000	0.39895400404930115
178	0x3fd1d8b000000000	0.2788505554199219
179	0xbfb13e90e0000000	-0.06736093014478683
180	0xbfb325a2e0000000	-0.07479303330183029
181	0xbfc6d72e60000000	-0.17844180762767792
182	0x3fad412240000000	0.05713755637407303
183	0x3fd298a940000000	0.29056769609451294
184	0x3fc8a39cc0000000	0.19249305129051208
185	0x3fd78fd5e0000000	0.36815401911735535
186	0x3fd9ef6420000000	0.40523627400398254
187	0x3fc4f112c0000000	0.16360697150230408
188	0x3fd23e7720000000	0.2850625813007355
189	0xbfd4511520000000	-0.3174488842487335
190	0x3f54cfa9c0000000	0.0012702138628810644
191	0x3fd7980b80000000	0.36865508556365967
192	0xbfc52db940000000	-0.16545787453651428
193	0x3fc2783200000000	0.14429306983947754
194	0x3fbe126f80000000	0.11746880412101746
195	0xbf7b89f400000000	-0.006723359227180481
196	0xbfdf57b320000000	-0.48972776532173157
197	0xbfd9302640000000	-0.39356380701065063
198	0x3fca604aa0000000	0.20606358349323273
199	0x3faeaadd80000000	0.059897348284721375
200	0x3fa6c4d340000000	0.0444704070687294
201	0xbf914cef40000000	-0.016895044595003128
202	0xbfd1780580000000	-0.27295053005218506
203	0xbfd3340820000000	-0.3000507652759552
204	0x3fd0b5d300000000	0.26109766960144043
205	0x3fc8dd8d60000000	0.19426123797893524
206	0x3fcb348f20000000	0.21254147589206696
207	0xbfd46c2dc0000000	-0.3191027045249939
208	0xbfb74981c0000000	-0.0909653753042221
209	0xbfb4e87960000000	-0.08167227357625961
210	0xbfb0fed680000000	-0.06638851761817932
211	0x3fb968afc0000000	0.09925363957881927
212	0xbfc9346fe0000000	-0.1969127506017685
213	0x3fd470a3a0000000	0.3193749487400055
214	0x3fe0302da0000000	0.505881130695343
215	0x3fbcb7e460000000	0.11218097060918808
216	0xbfa0175fa0000000	-0.03142832592129707
217	0xbfc49f96a0000000	-0.1611202508211136
218	0xbfdcd1f380000000	-0.45031440258026123
219	0x3faee61fc0000000	0.06034945696592331
220	0x3f7913fb00000000	0.006122570484876633
221	0xbfc24465c0000000	-0.1427123248577118
222	0x3fc93815a0000000	0.19702406227588654
223	0xbfcd13cce0000000	-0.22716675698757172
224	0xbfe09ba060000000	-0.5189973711967468
225	0x3fb65f8380000000	0.08739492297172546
226	0xbfd01203c0000000	-0.25109952688217163
227	0x3fa1200240000000	0.03344733268022537
228	0x3fbec81aa0000000	0.12024084478616714
229	0xbfaf4bf8e0000000	-0.06112649664282799
230	0xbfa761b500000000	-0.04566732048988342
231	0x3fa8e27020000000	0.04860258474946022
232	0xbfd0acffc0000000	-0.2605590224266052
233	0x3fe437b020000000	0.6317978501319885
234	0x3fca263c00000000	0.20429182052612305
235	0xbfbc747a00000000	-0.1111522912979126
236	0x3fd20473c0000000	0.281521737575531
237	0x3fd6daba60000000	0.35710009932518005
238	0x3f93f73360000000	0.01949768327176571
239	0x3fcd8930a0000000	0.2307492047548294
240	0xbf73bce760000000	-0.004818824585527182
241	0x3fde820960000000	0.4766868054866791
242	0x3fc4349ec0000000	0.1578558385372162
243	0x3f9963fa40000000	0.024795446544885635
244	0xbfda116160000000	-0.40731081366539
245	0xbfc0247dc0000000	-0.126113623380661
246	0x3fc5951a40000000	0.1686127483844757
247	0xbfc2b8a580000000	-0.14625996351242065
248	0x3fc257fea0000000	0.14331038296222687
249	0x3fd1cd8780000000	0.27816951274871826
250	0xbfa5b238e0000000	-0.0423753522336483
251	0xbfbade38e0000000	-0.1049533411860466
252	0xbfc9f80dc0000000	-0.20288249850273132
253	0xbfdc4fb820000000	-0.4423656761646271
254	0xbfd3d42540000000	-0.30982333421707153
255	0xbfc89b2d40000000	-0.19223561882972717
