results/weights/weights_sequence_adamm_0.1111111119389534_fc3.bias_7.npy (npy, 4208 bytes, 1 tensors)

array f8 [51, 10]
0	0x3f847ae140000000	0.009999999776482582
1	0x3f847ae140000000	0.009999999776482582
2	0x3f847ae140000000	0.009999999776482582
3	0x3f847ae140000000	0.009999999776482582
4	0x3f847ae140000000	0.009999999776482582
5	0x3f847ae140000000	0.009999999776482582
6	0x3f847ae140000000	0.009999999776482582
7	0x3f847ae140000000	0.009999999776482582
8	0x3f847ae140000000	0.009999999776482582
9	0x3f847ae140000000	0.009999999776482582
10	0xbfb50ae760000000	-0.0821976289153099
11	0x3fae9752e0000000	0.05974825844168663
12	0x3fc288ef80000000	0.1448039412498474
13	0xbfa936d140000000	-0.049246348440647125
14	0x3fd0a46de0000000	0.2600359618663788
15	0xbfca725e60000000	-0.20661525428295135
16	0xbfc5241620000000	-0.1651637703180313
17	0xbfbc5eefc0000000	-0.1108236163854599
18	0x3fba0ec440000000	0.10178782045841217
19	0x3faf9eea20000000	0.06175929680466652
20	0xbfb4a65e00000000	-0.08066356182098389
21	0x3fab2fc040000000	0.053098686039447784
22	0x3fcc01ca40000000	0.21880462765693665
23	0xbfbf8604c0000000	-0.12313871085643768
24	0x3fd2b0f160000000	0.29204973578453064
25	0xbfcdfc5500000000	-0.23426306247711182
26	0xbfc7716240000000	-0.18314769864082336
27	0xbfb4711560000000	-0.07985051721334457
28	0x3fb0dcbc60000000	0.06586816161870956
29	0x3fb5bdf9c0000000	0.08493004739284515
30	0xbfb229e080000000	-0.07095149159431458
31	0x3fa81c7e40000000	0.04709238559007645
32	0x3fd15a8320000000	0.2711494266986847
33	0xbfc7086400000000	-0.17994356155395508
34	0x3fd40b1680000000	0.3131767511367798
35	0xbfd06e3da0000000	-0.25672855973243713
36	0xbfc8e74b80000000	-0.19455856084823608
37	0xbfb0f18000000000	-0.06618499755859375
38	0x3fa4e3b000000000	0.040799617767333984
39	0x3fbceda800000000	0.11300134658813477
40	0xbfad16ec20000000	-0.056815508753061295
41	0x3fa20796e0000000	0.035214152187108994
42	0x3fd42529e0000000	0.3147682845592499
43	0xbfcd12a740000000	-0.22713175415992737
44	0x3fd5192620000000	0.32965996861457825
45	0xbfd1c6a260000000	-0.2777486741542816
46	0xbfc9d4e2e0000000	-0.20180927217006683
47	0xbfae72aac0000000	-0.0594685897231102
48	0x3f96a6d360000000	0.0221207644790411
49	0x3fc2162bc0000000	0.14130160212516785
50	0xbfa4b766e0000000	-0.040461745113134384
51	0x3f9536f5e0000000	0.020717469975352287
52	0x3fd68a4fe0000000	0.35219189524650574
53	0xbfd1221d40000000	-0.2677071690559387
54	0x3fd5f40960000000	0.3430198132991791
55	0xbfd316cfa0000000	-0.29826727509498596
56	0xbfca5e8fe0000000	-0.20601080358028412
57	0xbfadd50ce0000000	-0.05826606974005699
58	0x3f80091c20000000	0.007829875685274601
59	0x3fc5d2e240000000	0.17049816250801086
60	0xbf96893e00000000	-0.022007912397384644
61	0x3f61f2aa60000000	0.0021909072529524565
62	0x3fd8c6b960000000	0.38712915778160095
63	0xbfd36d9ae0000000	-0.30356475710868835
64	0x3fd6abe4a0000000	0.3542415201663971
65	0xbfd454bfa0000000	-0.31767264008522034
66	0xbfca7ea6c0000000	-0.2069900929927826
67	0xbfae9e5f40000000	-0.05980203300714493
68	0xbf75a24560000000	-0.005281706806272268
69	0x3fc9691d80000000	0.19852036237716675
70	0xbf62b4d100000000	-0.0022834856063127518
71	0xbf912dda40000000	-0.016776476055383682
72	0x3fdac1cee0000000	0.41807910799980164
73	0xbfd58d3b80000000	-0.33674514293670654
74	0x3fd74dd740000000	0.3641260266304016
75	0xbfd5798440000000	-0.3355417847633362
76	0xbfca69c640000000	-0.20635297894477844
77	0xbfb04c99c0000000	-0.06366883218288422
78	0xbf910a8d40000000	-0.01664181426167488
79	0x3fcce0be40000000	0.22560861706733704
80	0x3f92f8a0a0000000	0.018526563420891762
81	0xbfa2793740000000	-0.03608105331659317
82	0x3fdc9708e0000000	0.4467184245586395
83	0xbfd78c9f60000000	-0.3679579198360443
84	0x3fd7de77c0000000	0.3729533553123474
85	0xbfd6a43cc0000000	-0.3537742495536804
86	0xbfca4911c0000000	-0.20535489916801453
87	0xbfb1405fc0000000	-0.06738851964473724
88	0xbf9b14c2c0000000	-0.026446383446455002
89	0x3fd02243a0000000	0.25209131836891174
90	0x3fa3f5b0e0000000	0.038983847945928574
91	0xbfacece7e0000000	-0.05649494752287865
92	0x3fde5a30a0000000	0.4742547571659088
93	0xbfd9685700000000	-0.39699339866638184
94	0x3fd8613540000000	0.38093310594558716
95	0xbfd7c5f780000000	-0.37145793437957764
96	0xbfca3273c0000000	-0.2046646773815155
97	0xbfb247f820000000	-0.0714106634259224
98	0xbfa18852c0000000	-0.03424318879842758
99	0x3fd1c4caa0000000	0.27763620018959045
100	0x3faeac2500000000	0.059907108545303345
101	0xbfb3ad5140000000	-0.0768633633852005
102	0x3fdfe8f980000000	0.49859464168548584
103	0xbfdb2c1120000000	-0.4245646297931671
104	0x3fd8d9aee0000000	0.3882863223552704
105	0xbfd8e6d600000000	-0.38908910751342773
106	0xbfca145140000000	-0.203745037317276
107	0xbfb31209e0000000	-0.07449399679899216
108	0xbfa4cb6f40000000	-0.04061458259820938
109	0x3fd359e6e0000000	0.3023621737957001
110	0x3fb4bf8700000000	0.08104747533798218
111	0xbfb8fab980000000	-0.09757575392723083
112	0x3fe0a793e0000000	0.5204562544822693
113	0xbfdce10580000000	-0.45123422145843506
114	0x3fd9513da0000000	0.39558354020118713
115	0xbfd9fc9780000000	-0.4060419797897339
116	0xbfc9e69ea0000000	-0.202350452542305
117	0xbfb3c9c740000000	-0.077297642827034
118	0xbfa7a390c0000000	-0.04616978019475937
119	0x3fd4dcbf60000000	0.32597336173057556
120	0x3fba1ae700000000	0.10197299718856812
121	0xbfbe5b6460000000	-0.11858203262090683
122	0x3fe157e480000000	0.5419790744781494
123	0xbfde87fc40000000	-0.47704988718032837
124	0x3fd9c66780000000	0.402734637260437
125	0xbfdb1b3b00000000	-0.423537015914917
126	0xbfc9c47940000000	-0.20130839943885803
127	0xbfb4524ae0000000	-0.07938068360090256
128	0xbfaa507aa0000000	-0.05139525607228279
129	0x3fd6605880000000	0.3496304750442505
130	0x3fbf6b89a0000000	0.12273464351892471
131	0xbfc1d3b1c0000000	-0.13927289843559265
132	0x3fe202e5e0000000	0.5628537535667419
133	0xbfe01893a0000000	-0.5030000805854797
134	0x3fda37a020000000	0.40964511036872864
135	0xbfdc31e2c0000000	-0.4405447840690613
136	0xbfc9a80d60000000	-0.20044104754924774
137	0xbfb4a74e80000000	-0.08067789673805237
138	0xbfad02f780000000	-0.056663259863853455
139	0x3fd7e31e00000000	0.37323713302612305
140	0x3fc259fba0000000	0.14337106049060822
141	0xbfc4753220000000	-0.15982653200626373
142	0x3fe29909a0000000	0.5811813473701477
143	0xbfe0e32f80000000	-0.5277326107025146
144	0x3fdaaafbe0000000	0.4166860282421112
145	0xbfdd4738a0000000	-0.4574719965457916
146	0xbfc97d1580000000	-0.19912976026535034
147	0xbfb4be7420000000	-0.08103109151124954
148	0xbfaf712f80000000	-0.061410412192344666
149	0x3fd94ec1c0000000	0.3954319357872009
150	0x3fc4ec36a0000000	0.1634586602449417
151	0xbfc719ed60000000	-0.18047873675823212
152	0x3fe325d0e0000000	0.5983662009239197
153	0xbfe1a2ca60000000	-0.5511218905448914
154	0x3fdb1f3880000000	0.42378056049346924
155	0xbfde5ff020000000	-0.47460559010505676
156	0xbfc95a69a0000000	-0.1980716735124588
157	0xbfb4cd84e0000000	-0.08126097172498703
158	0xbfb0c6ee40000000	-0.06553544104099274
159	0x3fdab5f960000000	0.41735681891441345
160	0x3fc7770ca0000000	0.18332059681415558
161	0xbfc9c81040000000	-0.2014179527759552
162	0x3fe3ab6e80000000	0.6146767139434814
163	0xbfe259b040000000	-0.5734483003616333
164	0x3fdb940c00000000	0.4309110641479492
165	0xbfdf78cbe0000000	-0.49174782633781433
166	0xbfc934ede0000000	-0.1969277709722519
167	0xbfb4ae55e0000000	-0.08078514784574509
168	0xbfb1bb0b80000000	-0.06926032900810242
169	0x3fdc080700000000	0.4379899501800537
170	0x3fc9e7a060000000	0.2023811787366867
171	0xbfcc7b5ce0000000	-0.22251473367214203
172	0x3fe42b6400000000	0.6302967071533203
173	0xbfe305c860000000	-0.594455897808075
174	0x3fdc0c1340000000	0.4382370114326477
175	0xbfe0474bc0000000	-0.5087031126022339
176	0xbfc916e720000000	-0.19601143896579742
177	0xbfb47be080000000	-0.08001521229743958
178	0xbfb2988000000000	-0.07263946533203125
179	0x3fdd48b8c0000000	0.457563579082489
180	0x3fcc5db5a0000000	0.22160978615283966
181	0xbfcf3106e0000000	-0.24368368089199066
182	0x3fe49fb1c0000000	0.6444939374923706
183	0xbfe3aaeda0000000	-0.614615261554718
184	0x3fdc7d0ba0000000	0.44513216614723206
185	0xbfe0ce6940000000	-0.5251966714859009
186	0xbfc8f39a40000000	-0.1949341595172882
187	0xbfb41c79c0000000	-0.0785595029592514
188	0xbfb359f020000000	-0.07559109479188919
189	0x3fde7b97e0000000	0.47629353404045105
190	0x3fceccb1a0000000	0.24062176048755646
191	0xbfd0eb33c0000000	-0.2643555998802185
192	0x3fe50e6140000000	0.6580053567886353
193	0xbfe44f8c80000000	-0.6347105503082275
194	0x3fdcee1060000000	0.4520302712917328
195	0xbfe153b900000000	-0.5414700508117676
196	0xbfc8cc31c0000000	-0.19373151659965515
197	0xbfb38610a0000000	-0.07626441866159439
198	0xbfb42394e0000000	-0.07866793125867844
199	0x3fdfa176e0000000	0.4942300021648407
200	0x3fd099ae60000000	0.25937995314598083
201	0xbfd2407fa0000000	-0.28518667817115784
202	0x3fe57335a0000000	0.6703136563301086
203	0xbfe4ede760000000	-0.6540409922599792
204	0x3fdd54fc20000000	0.458312064409256
205	0xbfe1d460e0000000	-0.5571750998497009
206	0xbfc89db900000000	-0.1923133134841919
207	0xbfb2cfc720000000	-0.0734829381108284
208	0xbfb4c2c660000000	-0.08109702914953232
209	0x3fe0603dc0000000	0.511748194694519
210	0x3fd1c31340000000	0.2775314450263977
211	0xbfd38f0500000000	-0.3056042194366455
212	0x3fe5d18d60000000	0.681830108165741
213	0xbfe589a8e0000000	-0.6730541586875916
214	0x3fddba99c0000000	0.46451419591903687
215	0xbfe2535860000000	-0.5726739764213562
216	0xbfc87619e0000000	-0.19110415875911713
217	0xbfb1ea3fe0000000	-0.06998061388731003
218	0xbfb536d0c0000000	-0.08286766707897186
219	0x3fe0e93b20000000	0.5284705758094788
220	0x3fd2e26680000000	0.2950683832168579
221	0xbfd4d86980000000	-0.3257087469100952
222	0x3fe62c8020000000	0.6929321885108948
223	0xbfe6209c20000000	-0.6914806962013245
224	0x3fde1c7040000000	0.47048574686050415
225	0xbfe2d0dea0000000	-0.587996780872345
226	0xbfc84fc140000000	-0.1899339258670807
227	0xbfb0f500a0000000	-0.06623844057321548
228	0xbfb57c7560000000	-0.08393033593893051
229	0x3fe16b8d80000000	0.5443789958953857
230	0x3fd3f5f9a0000000	0.3118881285190582
231	0xbfd61fcd20000000	-0.3456909954547882
232	0x3fe680df20000000	0.7032313942909241
233	0xbfe6b5e340000000	-0.7097030878067017
234	0x3fde7f5660000000	0.4765220582485199
235	0xbfe34a9100000000	-0.6028523445129395
236	0xbfc8282900000000	-0.18872559070587158
237	0xbfaf77e200000000	-0.06146150827407837
238	0xbfb5bc9f00000000	-0.08490937948226929
239	0x3fe1e6cb00000000	0.5594229698181152
240	0x3fd4f844c0000000	0.32765311002731323
241	0xbfd7582900000000	-0.36475586891174316
242	0x3fe6d005c0000000	0.7128933668136597
243	0xbfe7494040000000	-0.7276917695999146
244	0x3fdee11b60000000	0.4824894368648529
245	0xbfe3c0ef80000000	-0.6173017024993896
246	0xbfc8030c40000000	-0.187593013048172
247	0xbfacca63e0000000	-0.05623161420226097
248	0xbfb5e29800000000	-0.08548879623413086
249	0x3fe25bff80000000	0.5737302303314209
250	0x3fd5f58d20000000	0.3431122601032257
251	0xbfd892d880000000	-0.3839627504348755
252	0x3fe720ac20000000	0.7227383255958557
253	0xbfe7d685a0000000	-0.7449367642402649
254	0x3fdf440d60000000	0.4885285794734955
255	0xbfe43414a0000000	-0.6313574910163879
