results/weights/weights_sequence_zo_adamm_0.1111111119389534_fc3.bias_6.npy (npy, 4208 bytes, 1 tensors)

array f8 [51, 10]
00000000: 0000 0040 e17a 843f 0000 0040 e17a 843f
00000010: 0000 0040 e17a 843f 0000 0040 e17a 843f
00000020: 0000 0040 e17a 843f 0000 0040 e17a 843f
00000030: 0000 0040 e17a 843f 0000 0040 e17a 843f
00000040: 0000 0040 e17a 843f 0000 0040 e17a 843f
00000050: 0000 0060 3f66 a7bf 0000 0000 fb61 90bf
00000060: 0000 00c0 ab27 733f 0000 0000 ff7f c13f
00000070: 0000 00c0 8c60 a7bf 0000 0000 79d5 7b3f
00000080: 0000 0000 73cb 9dbf 0000 00e0 7dab 82bf
00000090: 0000 00e0 9380 71bf 0000 00c0 a4d7 a03f
000000a0: 0000 0020 a7c4 b3bf 0000 0040 06f3 71bf
000000b0: 0000 00e0 c940 65bf 0000 0040 aecb c53f
000000c0: 0000 0000 63c5 a13f 0000 00a0 9809 98bf
000000d0: 0000 00c0 0ae6 aabf 0000 0000 7ba1 98bf
000000e0: 0000 00a0 0301 80bf 0000 0060 3140 b43f
000000f0: 0000 0020 e8cc c1bf 0000 0040 4585 b3bf
00000100: 0000 00e0 2156 8c3f 0000 0060 4c5b bf3f
00000110: 0000 00c0 d4ed a83f 0000 0000 3554 91bf
00000120: 0000 00e0 92e2 a9bf 0000 00a0 2654 8ebf
00000130: 0000 0080 80d1 99bf 0000 0000 ff10 b83f
00000140: 0000 00c0 8e8b c8bf 0000 00c0 a7fc b2bf
00000150: 0000 0000 a9a4 a03f 0000 00e0 adab c43f
00000160: 0000 0020 b56b b43f 0000 00c0 1220 85bf
00000170: 0000 0060 e3ea adbf 0000 0000 d575 7fbf
00000180: 0000 0020 d503 723f 0000 0040 5604 b43f
00000190: 0000 00e0 7363 cdbf 0000 0000 5c1d aabf
000001a0: 0000 0020 d637 983f 0000 00a0 99af ca3f
000001b0: 0000 00a0 61ff ba3f 0000 0020 b6d6 7bbf
000001c0: 0000 00a0 14ca b1bf 0000 00e0 c593 a0bf
000001d0: 0000 00a0 f062 7dbf 0000 0080 48b0 ba3f
000001e0: 0000 00c0 3e6f d1bf 0000 0080 f302 aebf
000001f0: 0000 0000 d7c6 86bf 0000 00c0 da15 ca3f
00000200: 0000 0000 7ee1 c03f 0000 0020 9515 98bf
00000210: 0000 0080 3de8 b0bf 0000 0020 2a8f 99bf
00000220: 0000 00a0 1dba 9c3f 0000 0020 b62c be3f
00000230: 0000 00a0 4902 d2bf 0000 0060 d876 b0bf
00000240: 0000 00a0 d115 9abf 0000 0040 7b78 ca3f
00000250: 0000 0000 4df5 c43f 0000 0020 1360 9e3f
00000260: 0000 00a0 30ff b6bf 0000 0000 8677 a1bf
00000270: 0000 0020 5745 943f 0000 00c0 24ce c33f
00000280: 0000 00e0 58ff d5bf 0000 00a0 4034 aebf
00000290: 0000 0040 2f9c abbf 0000 00e0 f11a cc3f
000002a0: 0000 00c0 1ce3 c73f 0000 00e0 6f36 a53f
000002b0: 0000 0000 c716 babf 0000 0060 f8e5 a4bf
000002c0: 0000 0060 4f09 a83f 0000 0080 7209 c53f
000002d0: 0000 0080 7db5 d8bf 0000 0000 a551 aebf
000002e0: 0000 00c0 f738 b3bf 0000 0020 fe5a ca3f
000002f0: 0000 00c0 b3a1 c53f 0000 0020 889d a23f
00000300: 0000 00e0 3b98 c0bf 0000 00c0 6775 b1bf
00000310: 0000 0060 1300 a03f 0000 0080 28cb c63f
00000320: 0000 0060 c099 dcbf 0000 0000 7f03 93bf
00000330: 0000 0060 5545 c0bf 0000 00c0 706f ce3f
00000340: 0000 0040 50bc c23f 0000 0080 39da 9b3f
00000350: 0000 00a0 d0aa c7bf 0000 0020 f8a3 a1bf
00000360: 0000 00a0 bbd7 9b3f 0000 00c0 2789 c33f
00000370: 0000 0000 9f5b debf 0000 0020 1905 913f
00000380: 0000 00e0 9789 c1bf 0000 0020 d7b3 cc3f
00000390: 0000 0080 a348 c33f 0000 0020 e713 a03f
000003a0: 0000 0000 1ec3 cabf 0000 0040 ef57 7b3f
000003b0: 0000 0060 16e2 433f 0000 0080 91a8 c53f
000003c0: 0000 00a0 1111 e0bf 0000 00e0 c851 823f
000003d0: 0000 0020 efe7 c6bf 0000 0060 5154 d23f
000003e0: 0000 0040 0e46 ca3f 0000 00c0 2a5a 5bbf
000003f0: 0000 0080 fd21 c7bf 0000 0060 b4e1 483f
00000400: 0000 0000 d067 923f 0000 0080 64e3 c53f
00000410: 0000 0000 111a debf 0000 0000 c614 8bbf
00000420: 0000 00a0 c9e9 c7bf 0000 0040 267d d33f
00000430: 0000 0000 ca98 cb3f 0000 0060 dc79 943f
00000440: 0000 0000 5143 c5bf 0000 0040 4b51 a13f
00000450: 0000 0040 d638 83bf 0000 0000 bc96 c33f
00000460: 0000 00a0 8e5e ddbf 0000 0060 2622 a2bf
00000470: 0000 00a0 9896 c7bf 0000 00e0 2d1e d43f
00000480: 0000 00e0 5465 cc3f 0000 00c0 61d8 953f
00000490: 0000 00e0 16da cabf 0000 0000 1c9f b13f
000004a0: 0000 00e0 42c7 83bf 0000 0000 32db c33f
000004b0: 0000 00a0 ba6e dcbf 0000 0060 4a5d 88bf
000004c0: 0000 0000 8181 c7bf 0000 0000 1646 d33f
000004d0: 0000 00c0 dfd9 cc3f 0000 00a0 9976 6abf
000004e0: 0000 00c0 1a84 c5bf 0000 00a0 cb68 b53f
000004f0: 0000 0080 d764 51bf 0000 00e0 f331 c23f
00000500: 0000 00e0 81c0 dcbf 0000 00a0 1a93 9cbf
00000510: 0000 00a0 40a6 c8bf 0000 0020 e7f5 d43f
00000520: 0000 0060 07cf c93f 0000 00e0 11ef 853f
00000530: 0000 0040 9618 c7bf 0000 00a0 d397 b13f
00000540: 0000 0020 f581 973f 0000 00a0 9484 c43f
00000550: 0000 00e0 8be1 dcbf 0000 00e0 d791 8a3f
00000560: 0000 0000 903f c5bf 0000 0040 1318 d53f
00000570: 0000 0000 4dda c83f 0000 0060 f482 a13f
00000580: 0000 0040 7bde c7bf 0000 0000 3166 b13f
00000590: 0000 00a0 0b8f 9e3f 0000 0060 f914 c53f
000005a0: 0000 0040 9ad6 dbbf 0000 0020 3bc3 873f
000005b0: 0000 00e0 9142 c2bf 0000 00c0 520a d53f
000005c0: 0000 00c0 9e98 c43f 0000 00c0 5e67 983f
000005d0: 0000 00c0 7276 c7bf 0000 0020 b647 b33f
000005e0: 0000 00c0 9c8c a93f 0000 00c0 fb17 c43f
000005f0: 0000 0060 55bd dabf 0000 0040 abde 8d3f
00000600: 0000 00e0 7a6d c3bf 0000 0060 ca18 d63f
00000610: 0000 0040 169f c93f 0000 0020 aee3 903f
00000620: 0000 0020 2317 c5bf 0000 0000 a5f3 b63f
00000630: 0000 00a0 1423 9f3f 0000 00c0 593b c23f
00000640: 0000 00a0 dd35 d9bf 0000 00c0 051f 923f
00000650: 0000 0000 ada1 c0bf 0000 00c0 be9b d53f
00000660: 0000 0080 b271 cb3f 0000 0060 5f29 ad3f
00000670: 0000 00c0 fa4e c7bf 0000 00e0 3feb b13f
00000680: 0000 0080 debf ae3f 0000 0000 9458 c03f
00000690: 0000 0080 c22d dabf 0000 0060 2858 993f
000006a0: 0000 0040 d9c3 c4bf 0000 00a0 2970 d63f
000006b0: 0000 0000 ba8d d03f 0000 00c0 9b27 9d3f
000006c0: 0000 00e0 4565 c4bf 0000 0060 326e b13f
000006d0: 0000 0060 209b a33f 0000 00a0 b71c c03f
000006e0: 0000 0040 4335 d9bf 0000 0000 9073 95bf
000006f0: 0000 0080 eb96 c7bf 0000 00c0 0ec8 d63f
00000700: 0000 0080 033f d13f 0000 00c0 8f72 983f
00000710: 0000 0080 3089 c0bf 0000 0060 36df 973f
00000720: 0000 0000 29b6 aa3f 0000 0000 197d c03f
00000730: 0000 00c0 9adb dabf 0000 00c0 ca17 8a3f
00000740: 0000 0020 3885 c6bf 0000 0060 851f d93f
00000750: 0000 0080 3aaf d23f 0000 0020 643f a93f
00000760: 0000 0020 d338 b8bf 0000 00e0 7a96 813f
00000770: 0000 0020 117a a43f 0000 0060 30ee b33f
00000780: 0000 00e0 6141 dbbf 0000 0020 4371 52bf
00000790: 0000 0080 2079 c7bf 0000 0060 b881 d93f
000007a0: 0000 0060 7e5c d03f 0000 00e0 aa11 b23f
000007b0: 0000 00c0 3ad5 bcbf 0000 0060 c058 923f
000007c0: 0000 00c0 e0b7 773f 0000 00a0 d728 b43f
000007d0: 0000 0060 9a4d dabf 0000 0080 dd05 95bf
000007e0: 0000 00e0 f0dd c5bf 0000 0000 ae35 d83f
000007f0: 0000 00c0 8394 d03f 0000 0000 1f5c bb3f
0.009999999776482582 0.009999999776482582 0.009999999776482582 0.009999999776482582 0.009999999776482582 0.009999999776482582 0.009999999776482582 0.009999999776482582
0.009999999776482582 0.009999999776482582 -0.04570196196436882 -0.01599876582622528 0.004676504991948605 0.13671863079071045 -0.04565849155187607 0.006795380264520645
-0.029096409678459167 -0.009116156958043575 -0.004273011814802885 0.03289522975683212 -0.07721943408250809 -0.004382156766951084 -0.002594370162114501 0.17027834057807922
0.03470906615257263 -0.023474106565117836 -0.05253633111715317 -0.024053499102592468 -0.007814434356987476 0.07910450547933578 -0.13906575739383698 -0.0762522965669632
0.013836159370839596 0.12248685210943222 0.04868950694799423 -0.016922786831855774 -0.05055674538016319 -0.014808942563831806 -0.025213249027729034 0.09400933980941772
-0.19175896048545837 -0.07416771352291107 0.03250625729560852 0.16148923337459564 0.07976848632097244 -0.010315081104636192 -0.0584326796233654 -0.007680732756853104
0.0043981862254440784 0.07819117605686188 -0.2295975536108017 -0.05100524425506592 0.023650499060750008 0.20848388969898224 0.1054593101143837 -0.006796561647206545
-0.06948975473642349 -0.032377418130636215 -0.00717443460598588 0.10425236821174622 -0.2724148631095886 -0.058616265654563904 -0.011121444404125214 0.20379194617271423
0.1318814754486084 -0.023519830778241158 -0.06604370474815369 -0.024960191920399666 0.028053725138306618 0.11786974221467972 -0.28138962388038635 -0.06431343406438828
-0.025473857298493385 0.20680180191993713 0.1637359857559204 0.029663370922207832 -0.0898313894867897 -0.0341150164604187 0.01979576237499714 0.154728502035141
-0.34371015429496765 -0.058992404490709305 -0.05392596870660782 0.2195722907781601 0.18661841750144958 0.04143094643950462 -0.1019100546836853 -0.040817033499479294
0.04694603011012077 0.16435080766677856 -0.38607728481292725 -0.05921664834022522 -0.0750880092382431 0.2059018760919571 0.16899725794792175 0.036358121782541275
-0.12964580953121185 -0.06819771230220795 0.03125057741999626 0.1780748963356018 -0.44688424468040466 -0.018568024039268494 -0.1271158903837204 0.23777589201927185
0.14637187123298645 0.027199648320674896 -0.18490035831928253 -0.0344541110098362 0.02719014324247837 0.15262314677238464 -0.47434210777282715 0.01662101037800312
-0.13701151311397552 0.2242382913827896 0.15065425634384155 0.031401846557855606 -0.20907950401306152 0.006675657816231251 0.0006067857029847801 0.16920679807662964
-0.5020835995674133 0.00894505437463522 -0.17895306646823883 0.2863963544368744 0.2052629292011261 -0.0016694467049092054 -0.18072479963302612 0.0007593279588036239
0.017974138259887695 0.17100197076797485 -0.4703409671783447 -0.013223215937614441 -0.18682213127613068 0.30451351404190063 0.21560025215148926 0.01999611221253872
-0.1661168336868286 0.033823348581790924 -0.009385751560330391 0.15303754806518555 -0.45889630913734436 -0.03541679307818413 -0.1842833310365677 0.3143419921398163
0.22184239327907562 0.0213332436978817 -0.20978055894374847 0.06883406639099121 -0.009657404385507107 0.15512681007385254 -0.44425836205482483 -0.011896687559783459
-0.18363964557647705 0.30115270614624023 0.225398987531662 -0.0032303810585290194 -0.16809400916099548 0.08363030105829239 -0.0010616402141749859 0.1421494334936142
-0.4492497146129608 -0.02790490724146366 -0.19257362186908722 0.32750871777534485 0.20163051784038544 0.010709895752370358 -0.180437833070755 0.06872294098138809
0.022956686094403267 0.16029603779315948 -0.45126625895500183 0.012973486445844173 -0.1660022735595703 0.3295944333076477 0.1941620111465454 0.03420222923159599
-0.18647709488868713 0.067965567111969 0.029842549934983253 0.16470257937908173 -0.4349732995033264 0.01160284224897623 -0.14265654981136322 0.32875508069992065
0.1609075963497162 0.023831825703382492 -0.18330225348472595 0.07531297951936722 0.04990091174840927 0.1569819152355194 -0.4178059995174408 0.014584863558411598
-0.15177856385707855 0.3452630937099457 0.2001674473285675 0.016493530943989754 -0.16476859152317047 0.08965522050857544 0.030407259240746498 0.14243623614311218
-0.3939127027988434 0.01769646629691124 -0.12993395328521729 0.3376309275627136 0.21440726518630981 0.056956272572278976 -0.18209776282310486 0.06999587267637253
0.06005759537220001 0.12770318984985352 -0.40904295444488525 0.0247503574937582 -0.1622268259525299 0.3505958616733551 0.2586503028869629 0.028471406549215317
-0.15934060513973236 0.06808771938085556 0.03829289600253105 0.12587638199329376 -0.3938758969306946 -0.02094864845275879 -0.1842932105064392 0.35596054792404175
0.26947104930877686 0.023874517530202866 -0.1291866898536682 0.02331242524087429 0.052171021699905396 0.12881767749786377 -0.41965359449386597 0.012740692123770714
-0.17594052851200104 0.39254888892173767 0.29194509983062744 0.04931176081299782 -0.0946170762181282 0.008587799035012722 0.03999379649758339 0.07785322517156601
-0.42586562037467957 -0.0011256366269662976 -0.1833840012550354 0.39854249358177185 0.25564536452293396 0.0705820843577385 -0.11262862384319305 0.017916684970259666
0.005790594033896923 0.0787482038140297 -0.4109865128993988 -0.020530186593532562 -0.17083559930324554 0.37827634811401367 0.25906461477279663 0.10687440633773804
