results/weights/weights_sequence_zo_adamm_0.1111111119389534_fc2.weight_0.npy (npy, 53168 bytes, 1 tensors)

array f8 [51, 130]
00000000: 0000 0080 a78d d8bf 0000 0060 68b8 d83f
00000010: 0000 00e0 c420 b4bf 0000 0000 6ebd ad3f
00000020: 0000 0060 5664 cabf 0000 0080 6d2f c63f
00000030: 0000 0000 66f0 ccbf 0000 0000 0dac a53f
00000040: 0000 0080 fac4 ba3f 0000 0060 b8fe bfbf
00000050: 0000 0000 4137 d43f 0000 0080 8198 e93f
00000060: 0000 0000 1238 adbf 0000 0000 f108 c6bf
00000070: 0000 00e0 05ba cabf 0000 0000 2b27 d6bf
00000080: 0000 00e0 321a ce3f 0000 0060 0f02 cdbf
00000090: 0000 00a0 8f04 dd3f 0000 0020 f3c4 e0bf
000000a0: 0000 0020 8b17 d4bf 0000 0060 e2c8 bfbf
000000b0: 0000 00a0 1a0d c9bf 0000 0060 658d db3f
000000c0: 0000 0000 8181 d4bf 0000 00a0 b148 e43f
000000d0: 0000 0040 ee7a d1bf 0000 0040 ab43 d0bf
000000e0: 0000 0060 070c 70bf 0000 0020 834c 8fbf
000000f0: 0000 00e0 e910 bf3f 0000 0080 f664 b6bf
00000100: 0000 0000 bae7 d63f 0000 0020 fb10 e1bf
00000110: 0000 00e0 3c54 ad3f 0000 00a0 4436 c93f
00000120: 0000 0040 f0de d5bf 0000 0040 855f d03f
00000130: 0000 00e0 7c99 dd3f 0000 0020 aeb0 ab3f
00000140: 0000 0080 29aa 8b3f 0000 00a0 5d25 a0bf
00000150: 0000 0040 8ea7 ba3f 0000 00a0 a6ec b83f
00000160: 0000 0060 0e0a c4bf 0000 0060 427c e23f
00000170: 0000 0060 14ad c1bf 0000 0060 3a25 d93f
00000180: 0000 0060 262b b7bf 0000 0040 04c7 da3f
00000190: 0000 0080 3c3c c1bf 0000 00c0 a526 debf
000001a0: 0000 00a0 a132 cd3f 0000 00a0 42f7 9abf
000001b0: 0000 0060 d0c8 eabf 0000 0040 df31 c13f
000001c0: 0000 0040 5327 db3f 0000 00a0 152a d4bf
000001d0: 0000 0000 4e1d a9bf 0000 00e0 8d89 c33f
000001e0: 0000 00e0 38a6 cbbf 0000 00e0 ffcb df3f
000001f0: 0000 00c0 f5c0 c03f 0000 0060 ead7 c9bf
00000200: 0000 00a0 b361 dcbf 0000 00a0 ffed c0bf
00000210: 0000 0000 04d8 c33f 0000 0000 63c5 b33f
00000220: 0000 00e0 5c0d cb3f 0000 00e0 f61c d8bf
00000230: 0000 0000 23cb bf3f 0000 00c0 0683 cbbf
00000240: 0000 00a0 f2b4 b9bf 0000 0040 5857 c0bf
00000250: 0000 0020 54b1 d83f 0000 0020 5134 c03f
00000260: 0000 0080 1282 953f 0000 0020 016b d9bf
00000270: 0000 00a0 f131 d03f 0000 00e0 bddc aabf
00000280: 0000 0080 e460 ca3f 0000 00e0 ab42 c6bf
00000290: 0000 0060 4eda a8bf 0000 00e0 aa9c c2bf
000002a0: 0000 00a0 da06 c33f 0000 0060 34d8 d23f
000002b0: 0000 00e0 0431 863f 0000 0040 8558 b13f
000002c0: 0000 00e0 de88 cabf 0000 0080 ec1d abbf
000002d0: 0000 00a0 9bef d03f 0000 0020 1538 8f3f
000002e0: 0000 00e0 1610 c4bf 0000 00e0 e59c c53f
000002f0: 0000 00c0 682a bd3f 0000 0000 1c8d b43f
00000300: 0000 0060 d188 d1bf 0000 00a0 9716 aebf
00000310: 0000 0000 96ac c13f 0000 00e0 ab80 d43f
00000320: 0000 0080 ae76 c2bf 0000 00e0 4788 e03f
00000330: 0000 00e0 4143 bcbf 0000 0080 b0f1 d13f
00000340: 0000 0060 c159 c7bf 0000 0080 c157 d53f
00000350: 0000 00e0 913c a2bf 0000 00e0 c948 de3f
00000360: 0000 00e0 f2fb 993f 0000 00c0 f640 e23f
00000370: 0000 00c0 2dd2 c0bf 0000 0000 88eb c1bf
00000380: 0000 00c0 0fee e43f 0000 00c0 a767 d73f
00000390: 0000 00e0 6c00 c83f 0000 00e0 e8fd cfbf
000003a0: 0000 00e0 461f 9cbf 0000 0080 98cd d6bf
000003b0: 0000 00e0 2ee6 ed3f 0000 0020 11ae e53f
000003c0: 0000 0020 5555 a5bf 0000 0020 2bd4 e2bf
000003d0: 0000 0000 fbc6 90bf 0000 0060 04c2 d3bf
000003e0: 0000 0000 2163 a8bf 0000 0040 cbbd c3bf
000003f0: 0000 0000 6e86 d6bf 0000 0040 3e90 d4bf
00000400: 0000 00c0 7475 dc3f 0000 0040 0c90 b33f
00000410: 0000 0080 b964 d7bf 0000 00a0 3e40 e13f
00000420: 0000 00e0 160a a7bf 0000 00c0 d590 743f
00000430: 0000 00c0 0398 cebf 0000 0080 93a7 cd3f
00000440: 0000 0000 5066 cdbf 0000 00a0 73fb b03f
00000450: 0000 00c0 01b4 cb3f 0000 0000 b014 c8bf
00000460: 0000 00a0 7f0d d63f 0000 0080 3fcb eb3f
00000470: 0000 0000 9015 a7bf 0000 0020 1c26 a6bf
00000480: 0000 0000 e43d cdbf 0000 0060 e669 d5bf
00000490: 0000 00e0 d453 c73f 0000 00a0 000f 8c3f
000004a0: 0000 0080 1c15 d93f 0000 0040 d6e3 e1bf
000004b0: 0000 0000 540b d1bf 0000 00e0 6ad4 81bf
000004c0: 0000 00e0 a97e c8bf 0000 0020 7b15 d83f
000004d0: 0000 0020 42cb d6bf 0000 0080 d8ce e03f
000004e0: 0000 0060 31af c4bf 0000 0040 830c d4bf
000004f0: 0000 0060 8496 a0bf 0000 00c0 5135 733f
00000500: 0000 0060 67b0 b93f 0000 0000 b9de cebf
00000510: 0000 0000 d2a9 d73f 0000 00c0 eb07 e2bf
00000520: 0000 0020 8618 5bbf 0000 00e0 cdb4 d13f
00000530: 0000 00a0 8ad3 d2bf 0000 00e0 4589 c53f
00000540: 0000 00c0 8766 e03f 0000 0080 42fb a53f
00000550: 0000 0020 343b b5bf 0000 0080 306c 7dbf
00000560: 0000 00e0 0bc3 cb3f 0000 0020 591b cb3f
00000570: 0000 0020 56cb cabf 0000 00a0 fd8c e23f
00000580: 0000 0000 2b58 bdbf 0000 00a0 15da d83f
00000590: 0000 0080 895d bdbf 0000 0000 fa24 db3f
000005a0: 0000 00e0 b0f7 afbf 0000 0080 21ba e0bf
000005b0: 0000 0080 89b3 d53f 0000 00e0 975a a53f
000005c0: 0000 00c0 21d5 e9bf 0000 00c0 d207 cc3f
000005d0: 0000 0060 ebc4 db3f 0000 00e0 025a d3bf
000005e0: 0000 00e0 ac9d 99bf 0000 0000 77a4 c23f
000005f0: 0000 0060 ad4c d0bf 0000 00a0 bbd4 e03f
00000600: 0000 0000 5575 af3f 0000 00e0 eb27 cdbf
00000610: 0000 00e0 4c8e d9bf 0000 00e0 a9e3 c7bf
00000620: 0000 0000 0b5d c23f 0000 0080 0946 bc3f
00000630: 0000 00a0 16a7 c83f 0000 00e0 8a8a dbbf
00000640: 0000 00a0 2bef c23f 0000 00c0 ca94 d1bf
00000650: 0000 0040 ba3c c7bf 0000 0000 a2bd ccbf
00000660: 0000 00a0 46a2 d73f 0000 00e0 19fd b53f
00000670: 0000 00c0 321d c0bf 0000 00e0 4091 d9bf
00000680: 0000 0000 49f9 d43f 0000 0080 0968 b0bf
00000690: 0000 00c0 6baa c93f 0000 00c0 1501 c1bf
000006a0: 0000 00a0 b0cf a7bf 0000 0080 f32b cbbf
000006b0: 0000 0060 9650 cf3f 0000 0080 a5d0 d93f
000006c0: 0000 00a0 ac75 a63f 0000 00e0 4ad3 c23f
000006d0: 0000 00e0 0998 cdbf 0000 0080 a97f b5bf
000006e0: 0000 00e0 57e0 d53f 0000 00a0 5685 a0bf
000006f0: 0000 0040 dfa2 c1bf 0000 00c0 6cd9 c63f
00000700: 0000 0040 a48d a1bf 0000 00a0 2359 d03f
00000710: 0000 0020 81d6 dabf 0000 0000 6f00 bebf
00000720: 0000 00c0 5b11 d63f 0000 0040 6b8e d13f
00000730: 0000 0000 123e b3bf 0000 0040 d97b d93f
00000740: 0000 00c0 c88a bbbf 0000 0040 4fb0 d43f
00000750: 0000 0020 a902 c0bf 0000 0020 cef9 da3f
00000760: 0000 00a0 eb23 c3bf 0000 00a0 f219 d73f
00000770: 0000 0020 75a9 8ebf 0000 0020 1e69 e23f
00000780: 0000 0080 6222 8abf 0000 0040 cac0 cbbf
00000790: 0000 0040 425e e73f 0000 00c0 af8a d53f
000007a0: 0000 0020 af2c cc3f 0000 00e0 9a15 c9bf
000007b0: 0000 0060 77f4 be3f 0000 0000 6edb d4bf
000007c0: 0000 00a0 531b ec3f 0000 0080 64c4 e63f
000007d0: 0000 00e0 b048 b53f 0000 00a0 c90e e1bf
000007e0: 0000 00e0 8e1d 923f 0000 0020 a061 d2bf
000007f0: 0000 0060 368a 973f 0000 0000 1ada bfbf
-0.3836458921432495 0.3862553536891937 -0.07862501591444016 0.058085858821868896 -0.20618705451488495 0.1733223795890808 -0.22608637809753418 0.04232826828956604
0.10456815361976624 -0.12498047202825546 0.3158724308013916 0.7998664379119873 -0.05706840753555298 -0.17214787006378174 -0.2088019698858261 -0.34614062309265137
0.2351745218038559 -0.22662536799907684 0.45340338349342346 -0.5240417122840881 -0.3139369785785675 -0.12415900081396103 -0.1957124024629593 0.4305051267147064
-0.3204042911529541 0.6338737607002258 -0.27312809228897095 -0.25413018465042114 -0.003917721565812826 -0.015282654203474522 0.12135183066129684 -0.08747807145118713
0.3578934669494629 -0.5333228707313538 0.05728330835700035 0.19696862995624542 -0.34173208475112915 0.2558301091194153 0.4624931514263153 0.05408233776688576
0.013508152216672897 -0.0315350778400898 0.1041191965341568 0.0973610058426857 -0.1565568894147873 0.5776683688163757 -0.1380944699048996 0.39289721846580505
-0.09050216525793076 0.4183970093727112 -0.13465076684951782 -0.4711088538169861 0.22810764610767365 -0.026333848014473915 -0.8370134234428406 0.1343344748020172
0.4242752194404602 -0.31506863236427307 -0.04905170202255249 0.15263532102108002 -0.2160101979970932 0.4968261420726776 0.1308886706829071 -0.20190171897411346
-0.4434632360935211 -0.13226313889026642 0.1550297737121582 0.07723063230514526 0.21134530007839203 -0.3767678439617157 0.12419337034225464 -0.21493610739707947
-0.10041729360818863 -0.12766554951667786 0.3858232796192169 0.1265965849161148 0.021003998816013336 -0.3971560299396515 0.2530483305454254 -0.052465375512838364
0.20608192682266235 -0.17390964925289154 -0.048540543764829636 -0.145406112074852 0.14864666759967804 0.29444608092308044 0.010835683904588223 0.06775696575641632
-0.20730195939540863 -0.05296267569065094 0.2646245062351227 0.01524368766695261 -0.15674100816249847 0.16885064542293549 0.11392836272716522 0.08027815818786621
-0.2739757001399994 -0.058766115456819534 0.13807940483093262 0.3203534781932831 -0.1442468762397766 0.5166358351707458 -0.11040126532316208 0.2803765535354614
-0.18242661654949188 0.33348119258880615 -0.035618361085653305 0.47319266200065613 0.02537517063319683 0.5704301595687866 -0.13141414523124695 -0.1400003433227539
0.6540602445602417 0.3657016158103943 0.18751297891139984 -0.24993620812892914 -0.02746306173503399 -0.356298565864563 0.9343485236167908 0.6774984002113342
-0.0416666604578495 -0.5883994698524475 -0.016384050250053406 -0.30871686339378357 -0.047631293535232544 -0.1542295515537262 -0.35195493698120117 -0.3213039040565491
0.4446689486503601 0.0764167457818985 -0.36552274227142334 0.5390923619270325 -0.04499885067343712 0.005020937882363796 -0.23901411890983582 0.23167651891708374
-0.22968482971191406 0.06633684784173965 0.2164308726787567 -0.18813133239746094 0.34457388520240784 0.8685605525970459 -0.04508638381958008 -0.043259505182504654
-0.22845125198364258 -0.3345886170864105 0.18224583566188812 0.01370048988610506 0.3919135332107544 -0.559062123298645 -0.26631641387939453 -0.008705935440957546
-0.19136546552181244 0.3763110935688019 -0.3561559021472931 0.525249719619751 -0.16159646213054657 -0.3132637143135071 -0.03239835426211357 0.0046895211562514305
0.10034795850515366 -0.2411719560623169 0.36974000930786133 -0.5634669065475464 -0.0016537961782887578 0.27666041254997253 -0.29416146874427795 0.16825173795223236
0.5125159025192261 0.04293258488178253 -0.08293462544679642 -0.00718325562775135 0.21688984334468842 0.2117720991373062 -0.20933033525943756 0.5797107815742493
-0.11462658643722534 0.38831081986427307 -0.11470851302146912 0.4241318702697754 -0.062436606734991074 -0.5227210521697998 0.33908307552337646 0.04170679673552513
-0.8072670698165894 0.21898874640464783 0.43389400839805603 -0.3023688495159149 -0.02501554600894451 0.14564406871795654 -0.25468000769615173 0.5259683728218079
0.061442047357559204 -0.2277808040380478 -0.39931032061576843 -0.18663524091243744 0.14346444606781006 0.11044368147850037 0.1925991326570511 -0.43033096194267273
0.14792390167713165 -0.27470654249191284 -0.18154075741767883 -0.22453713417053223 0.36927953362464905 0.08589326590299606 -0.1258910596370697 -0.3994905650615692
0.3277151584625244 -0.06408748030662537 0.2005133330821991 -0.13284561038017273 -0.04650642350316048 -0.21227878332138062 0.2446468323469162 0.4033597707748413
0.043866533786058426 0.14707313477993011 -0.23120234906673431 -0.08397921919822693 0.34181782603263855 -0.032267291098833084 -0.1377829611301422 0.17851027846336365
-0.03428376466035843 0.2554406225681305 -0.4193423092365265 -0.11719411611557007 0.34480947256088257 0.27431756258010864 -0.07516586780548096 0.3981841206550598
-0.10758642852306366 0.3232610821723938 -0.12508119642734528 0.4214968979358673 -0.1495337039232254 0.3609587252140045 -0.014971652068197727 0.5753317475318909
-0.012760896235704422 -0.21682098507881165 0.730256199836731 0.3365897536277771 0.22011364996433258 -0.19597183167934418 0.12091775983572006 -0.32589292526245117
0.8783357739448547 0.7114737033843994 0.08314042538404465 -0.5330551266670227 0.017690880224108696 -0.28720858693122864 0.022988175973296165 -0.12442171573638916
