results/weights/weights_sequence_adamm_0.1111111119389534_conv2.weight_0.npy (npy, 33176 bytes, 1 tensors)

array f8 [51, 81]
000000 00 00 00 40 1a 05 c1 3f 00 00 00 60 44 b2 c1 3f
       0.1329682171344757 0.13825277984142303
000010 00 00 00 c0 72 2d bc bf 00 00 00 20 60 fd b6 bf
       -0.11006848514080048 -0.08980370312929153
000020 00 00 00 e0 07 0e 94 3f 00 00 00 e0 9c 88 97 bf
       0.01958477310836315 -0.022982073947787285
000030 00 00 00 80 33 3c d1 3f 00 00 00 a0 65 aa 9f bf
       0.26929938793182373 -0.030923450365662575
000040 00 00 00 e0 31 7c 9a bf 00 00 00 e0 4f c8 b1 bf
       -0.025864390656352043 -0.06946276873350143
000050 00 00 00 20 69 9e 94 3f 00 00 00 00 08 0e b0 bf
       0.020135538652539253 -0.0627140998840332
000060 00 00 00 c0 b4 6c af 3f 00 00 00 80 86 98 af bf
       0.061376236379146576 -0.061710551381111145
000070 00 00 00 c0 bf ed a1 3f 00 00 00 60 29 2e d6 bf
       0.03501700609922409 -0.3465674817562103
000080 00 00 00 00 56 ce b9 3f 00 00 00 e0 01 8d c2 3f
       0.10080468654632568 0.1449282020330429
000090 00 00 00 00 ef dd a5 bf 00 00 00 e0 49 ab bc 3f
       -0.04270884394645691 0.11198865622282028
0000a0 00 00 00 00 41 db d7 bf 00 00 00 c0 9b 2a c3 3f
       -0.3727571964263916 0.14973780512809753
0000b0 00 00 00 a0 29 54 d1 bf 00 00 00 00 87 fe b3 3f
       -0.2707618772983551 0.07810252904891968
0000c0 00 00 00 a0 99 57 ce bf 00 00 00 c0 0b b4 ce bf
       -0.23704834282398224 -0.23986956477165222
0000d0 00 00 00 40 86 78 d2 bf 00 00 00 e0 b4 9f ba bf
       -0.2886062264442444 -0.10399942845106125
0000e0 00 00 00 20 ef 91 ce 3f 00 00 00 a0 88 c1 d1 bf
       0.23882855474948883 -0.27743735909461975
0000f0 00 00 00 20 cd a1 ce bf 00 00 00 20 1a 38 ce bf
       -0.2393127828836441 -0.23608709871768951
000100 00 00 00 00 ef 9b c6 3f 00 00 00 60 09 3a b9 3f
       0.17663371562957764 0.09854181855916977
000110 00 00 00 c0 da b4 c4 bf 00 00 00 80 f6 ba c9 bf
       -0.16176924109458923 -0.20101815462112427
000120 00 00 00 60 04 55 bb 3f 00 00 00 80 b9 45 cd bf
       0.10676600784063339 -0.22869032621383667
000130 00 00 00 60 03 af ba bf 00 00 00 a0 86 38 95 3f
       -0.10423298925161362 0.020723441615700722
000140 00 00 00 60 38 3f e1 bf 00 00 00 80 fd 85 cf 3f
       -0.5389673113822937 0.24627655744552612
000150 00 00 00 60 6c ad a5 3f 00 00 00 60 e4 01 b0 3f
       0.042338740080595016 0.06252887099981308
000160 00 00 00 20 f7 3e d0 3f 00 00 00 c0 42 e0 bc bf
       0.2538430988788605 -0.11279694736003876
000170 00 00 00 e0 07 3d c3 3f 00 00 00 c0 67 f0 d9 3f
       0.1503000110387802 0.4052981734275818
000180 00 00 00 00 32 3e c3 bf 00 00 00 80 14 ee c0 3f
       -0.15033555030822754 0.1322656273841858
000190 00 00 00 20 7a 4d c3 3f 00 00 00 e0 64 5d cb bf
       0.1508019119501114 -0.21378766000270844
0001a0 00 00 00 00 49 21 e3 bf 00 00 00 c0 a8 7e ba bf
       -0.5978131294250488 -0.10349516570568085
0001b0 00 00 00 20 54 fe b7 bf 00 00 00 e0 65 ae ce 3f
       -0.09372449666261673 0.23969720304012299
0001c0 00 00 00 e0 19 07 b7 bf 00 00 00 40 bb 2a bb 3f
       -0.08995210379362106 0.10612078011035919
0001d0 00 00 00 e0 a6 59 e0 3f 00 00 00 c0 82 11 ca 3f
       0.5109438300132751 0.20365938544273376
0001e0 00 00 00 80 d2 ee 9c bf 00 00 00 60 e2 3c d0 bf
       -0.028254784643650055 -0.2537160813808441
0001f0 00 00 00 60 56 c3 cf bf 00 00 00 c0 96 4a c7 bf
       -0.24814872443675995 -0.18196377158164978
000200 00 00 00 c0 dd 3c c2 bf 00 00 00 40 d1 3a 82 bf
       -0.14248248934745789 -0.008901247754693031
000210 00 00 00 a0 1b 4c be bf 00 00 00 20 d9 76 ce 3f
       -0.11834881454706192 0.2380019575357437
000220 00 00 00 20 7f 0f c4 bf 00 00 00 80 66 ab c3 bf
       -0.15672291815280914 -0.15366822481155396
000230 00 00 00 80 30 88 b9 3f 00 00 00 00 62 98 cc bf
       0.0997343361377716 -0.22340035438537598
000240 00 00 00 00 0c 31 c9 bf 00 00 00 c0 61 c4 c6 3f
       -0.1968092918395996 0.1778680980205536
000250 00 00 00 80 87 93 aa 3f 00 00 00 00 5e f7 be 3f
       0.05190680921077728 0.12096202373504639
000260 00 00 00 40 15 68 c1 bf 00 00 00 60 3c b2 7d bf
       -0.13598886132240295 -0.007250057067722082
000270 00 00 00 60 4c 4c d2 bf 00 00 00 e0 b6 86 a7 bf
       -0.2859068810939789 -0.04594966396689415
000280 00 00 00 e0 35 db a9 bf 00 00 00 e0 7e 5c 9d 3f
       -0.05050056800246239 0.02867315523326397
000290 00 00 00 60 5c b3 bf 3f 00 00 00 20 1d 28 9d bf
       0.12383057922124863 -0.02847333438694477
0002a0 00 00 00 40 8d 2d 8e bf 00 00 00 a0 d9 31 c6 3f
       -0.014735320582985878 0.1733963042497635
0002b0 00 00 00 a0 a5 d1 cf 3f 00 00 00 a0 31 52 d9 3f
       0.24858541786670685 0.3956417143344879
0002c0 00 00 00 e0 b8 f9 c9 3f 00 00 00 40 0c 64 d5 3f
       0.2029334157705307 0.334231436252594
0002d0 00 00 00 40 98 c5 b0 bf 00 00 00 a0 2d 9c b6 3f
       -0.06551505625247955 0.08832059055566788
0002e0 00 00 00 60 8b fc bb 3f 00 00 00 c0 f9 e1 c6 bf
       0.10932227224111557 -0.1787712275981903
0002f0 00 00 00 e0 7c cd 98 bf 00 00 00 e0 52 bc cb 3f
       -0.024221373721957207 0.21668468415737152
000300 00 00 00 00 58 e3 e1 bf 00 00 00 60 18 26 ce 3f
       -0.5590019226074219 0.2355375736951828
000310 00 00 00 e0 48 19 d5 3f 00 00 00 40 8f 54 c9 3f
       0.329668253660202 0.19789305329322815
000320 00 00 00 60 b7 02 d3 3f 00 00 00 a0 43 b2 d5 bf
       0.29704079031944275 -0.33900538086891174
000330 00 00 00 c0 5c b0 d1 3f 00 00 00 c0 9d 6d c2 bf
       0.27638930082321167 -0.14397022128105164
000340 00 00 00 a0 ee 00 bb 3f 00 00 00 80 ad cf cd bf
       0.10548297315835953 -0.23290032148361206
000350 00 00 00 e0 3b e8 a5 bf 00 00 00 e0 2c c2 d8 bf
       -0.04278742894530296 -0.3868515193462372
000360 00 00 00 20 6c 8e c2 3f 00 00 00 40 fb 1f cf 3f
       0.14497138559818268 0.24316349625587463
000370 00 00 00 20 ce cf a7 bf 00 00 00 e0 70 d2 c5 bf
       -0.046507302671670914 -0.17048464715480804
000380 00 00 00 00 3a 22 d0 bf 00 00 00 e0 a8 bf d7 3f
       -0.2520890235900879 0.3710729777812958
000390 00 00 00 a0 50 82 b8 3f 00 00 00 80 12 b6 ab bf
       0.09573844820261002 -0.05412347614765167
0003a0 00 00 00 20 2c 2d 87 bf 00 00 00 20 d6 bb 3c bf
       -0.011316628195345402 -0.00043844201718457043
0003b0 00 00 00 e0 d8 26 d3 bf 00 00 00 a0 83 0f 95 3f
       -0.29924604296684265 0.020566994324326515
0003c0 00 00 00 e0 f9 e9 b7 bf 00 00 00 60 05 d3 dc bf
       -0.09341394156217575 -0.45037969946861267
0003d0 00 00 00 80 30 5e de 3f 00 00 00 00 5c 07 c2 3f
       0.4744988679885864 0.14084959030151367
0003e0 00 00 00 20 c6 33 d3 3f 00 00 00 c0 5e a4 e0 3f
       0.3000350296497345 0.5200647115707397
0003f0 00 00 00 00 0c 58 c0 3f 00 00 00 c0 01 05 d5 3f
       0.1276869773864746 0.3284305930137634
000400 00 00 00 c0 c1 bd da 3f 00 00 00 c0 e2 0b b8 bf
       0.4178318381309509 -0.09393136203289032
000410 00 00 00 40 3b c9 ca 3f 00 00 00 a0 a8 8b a7 3f
       0.20926609635353088 0.045987386256456375
000420 00 00 00 e0 76 2b d9 bf 00 00 00 c0 28 64 e5 bf
       -0.3932778537273407 -0.6684764623641968
000430 00 00 00 c0 24 2e c1 bf 00 00 00 e0 c4 a7 cf 3f
       -0.134220689535141 0.2473074048757553
000440 00 00 00 40 3b 29 e3 3f 00 00 00 80 a4 fc d1 3f
       0.5987831354141235 0.2810450792312622
000450 00 00 00 e0 7f 3f d9 3f 00 00 00 c0 06 f3 e7 3f
       0.3945007026195526 0.7484163045883179
000460 00 00 00 20 53 51 d2 3f 00 00 00 40 af fa c8 3f
       0.2862136662006378 0.19515028595924377
000470 00 00 00 20 e2 6a b0 bf 00 00 00 a0 7a bb d0 bf
       -0.06413090974092484 -0.26144281029701233
000480 00 00 00 a0 ea a2 da bf 00 00 00 00 ad 46 c2 bf
       -0.4161936342716217 -0.14278185367584229
000490 00 00 00 00 fc 1c b2 3f 00 00 00 c0 52 c3 c8 bf
       0.0707547664642334 -0.19346079230308533
0004a0 00 00 00 c0 fe fc d5 3f 00 00 00 40 54 b4 b0 bf
       0.3435665965080261 -0.06525160372257233
0004b0 00 00 00 00 90 2a c0 bf 00 00 00 20 97 41 cd 3f
       -0.1262989044189453 0.22856415808200836
0004c0 00 00 00 e0 0f d3 c2 bf 00 00 00 a0 c4 6a cd bf
       -0.14706610143184662 -0.22982080280780792
0004d0 00 00 00 c0 9f 91 ab 3f 00 00 00 00 bb 96 cb bf
       0.053845398128032684 -0.215537428855896
0004e0 00 00 00 00 ce 63 cb 3f 00 00 00 20 2c 27 d2 bf
       0.21398329734802246 -0.28364089131355286
0004f0 00 00 00 c0 62 bc 9c bf 00 00 00 c0 6b 50 83 3f
       -0.028062384575605392 0.009430734440684319
000500 00 00 00 40 2f ce cc bf 00 00 00 40 cc 64 c7 bf
       -0.22504225373268127 -0.18276360630989075
000510 00 00 00 20 02 46 93 3f 00 00 00 60 18 69 bc 3f
       0.018821747973561287 0.1109786257147789
000520 00 00 00 e0 39 87 aa bf 00 00 00 80 ee e6 93 3f
       -0.05181294307112694 0.019435621798038483
000530 00 00 00 40 41 2d c1 3f 00 00 00 e0 12 88 d2 3f
       0.1341935694217682 0.28955528140068054
000540 00 00 00 20 26 7c d1 3f 00 00 00 20 ff a6 bf 3f
       0.27320244908332825 0.12364191561937332
000550 00 00 00 80 9b ba da 3f 00 00 00 20 06 69 ad bf
       0.4176396131515503 -0.057441893965005875
000560 00 00 00 20 5d 68 c1 3f 00 00 00 60 18 6f c6 3f
       0.13599742949008942 0.1752653568983078
000570 00 00 00 60 7f 11 c6 bf 00 00 00 80 47 74 99 3f
       -0.17240898311138153 0.02485763281583786
000580 00 00 00 e0 80 05 d0 3f 00 00 00 e0 36 e8 e1 bf
       0.2503359019756317 -0.5595964789390564
000590 00 00 00 20 39 6f cc 3f 00 00 00 00 4e 05 d4 3f
       0.2221442610025406 0.3128237724304199
0005a0 00 00 00 00 1e 51 c9 3f 00 00 00 40 f6 f0 ca 3f
       0.19778800010681152 0.21047857403755188
0005b0 00 00 00 e0 36 0f e0 bf 00 00 00 80 b6 6b ca 3f
       -0.5018572211265564 0.20641213655471802
0005c0 00 00 00 a0 7e d0 d0 bf 00 00 00 00 c8 e0 a0 bf
       -0.26272550225257874 -0.03296494483947754
0005d0 00 00 00 20 d1 4c d3 bf 00 00 00 60 85 d6 a2 bf
       -0.3015635311603546 -0.03679291531443596
0005e0 00 00 00 40 82 fa db bf 00 00 00 00 d7 76 c3 3f
       -0.437164843082428 0.15206420421600342
0005f0 00 00 00 20 59 e7 b7 3f 00 00 00 a0 93 9e b4 bf
       0.0933738425374031 -0.08054468780755997
000600 00 00 00 60 cc 3c ca bf 00 00 00 40 8a a7 d6 bf
       -0.20498041808605194 -0.3539758324623108
000610 00 00 00 20 cf 4b d8 3f 00 00 00 40 cf d9 9e 3f
       0.3796270191669464 0.03012775257229805
000620 00 00 00 00 54 47 af bf 00 00 00 a0 4e 58 b8 3f
       -0.061091065406799316 0.09509745985269547
000630 00 00 00 60 11 0b 81 3f 00 00 00 20 31 6d d0 bf
       0.008321891538798809 -0.25666454434394836
000640 00 00 00 80 90 2b a3 bf 00 00 00 20 2f 6e b6 bf
       -0.03744174540042877 -0.08761877566576004
000650 00 00 00 00 9d df d9 bf 00 00 00 c0 0e 41 de 3f
       -0.40427327156066895 0.47272080183029175
000660 00 00 00 40 a6 7a c8 3f 00 00 00 00 69 a5 d6 3f
       0.19124296307563782 0.35384583473205566
000670 00 00 00 00 75 93 e1 3f 00 00 00 60 6c 1c cb 3f
       0.5492501258850098 0.21180491149425507
000680 00 00 00 40 70 1c d7 3f 00 00 00 c0 ab fd d8 3f
       0.36111074686050415 0.3904828429222107
000690 00 00 00 e0 38 40 ab bf 00 00 00 e0 4f 7c ca 3f
       -0.0532243512570858 0.20691870152950287
0006a0 00 00 00 a0 0e cf b3 bf 00 00 00 00 de 07 dc bf
       -0.07737819105386734 -0.43798017501831055
0006b0 00 00 00 00 55 e6 e2 bf 00 00 00 a0 93 57 c1 bf
       -0.5906167030334473 -0.13548512756824493
0006c0 00 00 00 20 80 e6 d7 3f 00 00 00 20 33 65 e5 3f
       0.3734436333179474 0.6686034798622131
0006d0 00 00 00 00 58 51 de 3f 00 00 00 80 57 f1 dc 3f
       0.47371482849121094 0.4522303342819214
0006e0 00 00 00 00 3f 3b e8 3f 00 00 00 80 7e f3 d8 3f
       0.7572321891784668 0.38986170291900635
0006f0 00 00 00 80 1b 3d cd 3f 00 00 00 80 09 eb 8b bf
       0.22842735052108765 -0.013631891459226608
000700 00 00 00 00 fe 35 c3 bf 00 00 00 e0 f3 ec de bf
       -0.1500852108001709 -0.4832124412059784
000710 00 00 00 e0 c4 90 c1 bf 00 00 00 80 6e 81 af 3f
       -0.1372305005788803 0.06153436005115509
000720 00 00 00 60 bf 57 ca bf 00 00 00 e0 15 f2 d6 3f
       -0.20580284297466278 0.35852572321891785
000730 00 00 00 60 01 0b ad bf 00 00 00 00 85 ed c0 bf
       -0.05672458931803703 -0.13224852085113525
000740 00 00 00 40 58 85 ce 3f 00 00 00 40 fc 70 c3 bf
       0.23844435811042786 -0.15188553929328918
000750 00 00 00 80 3e 31 d4 bf 00 00 00 60 6c 35 b8 bf
       -0.31550562381744385 -0.09456517547369003
000760 00 00 00 a0 f2 06 d6 bf 00 00 00 e0 a2 8b c9 3f
       -0.3441740572452545 0.19957385957241058
000770 00 00 00 80 b9 38 d4 bf 00 00 00 c0 b4 24 a5 bf
       -0.31596219539642334 -0.041295669972896576
000780 00 00 00 c0 b9 c9 86 3f 00 00 00 a0 4d ee d6 bf
       0.011126948520541191 -0.35829487442970276
000790 00 00 00 00 84 c8 d2 bf 00 00 00 60 1a 89 8f bf
       -0.2934885025024414 -0.015398222021758556
0007a0 00 00 00 00 37 7b b8 3f 00 00 00 60 98 93 b4 bf
       0.09563010931015015 -0.08037712424993515
0007b0 00 00 00 c0 cf 85 71 3f 00 00 00 a0 36 9a b8 3f
       0.004278003238141537 0.09610310941934586
0007c0 00 00 00 40 96 59 d1 3f 00 00 00 c0 9d 4d c9 3f
       0.27109295129776 0.19768115878105164
0007d0 00 00 00 20 c8 da a7 3f 00 00 00 e0 6a e4 d9 3f
       0.04659104719758034 0.4045664966106415
0007e0 00 00 00 20 c3 08 a6 bf 00 00 00 20 4a 4f c6 3f
       -0.0430356003344059 0.17429472506046295
0007f0 00 00 00 20 c8 da cd 3f 00 00 00 20 84 5f c3 bf
       0.23323918879032135 -0.1513524204492569
