results/weights/weights_sequence_adamm_0.1111111119389534_fc1.weight_8.npy (npy, 397928 bytes, 1 tensors)

array f8 [51, 975]
000000 00 00 00 a0 30 e7 c1 bf 00 00 00 00 93 94 93 bf
       -0.1398678570985794 -0.019121453166007996
000010 00 00 00 40 9f 86 c0 3f 00 00 00 e0 ab 43 c2 3f
       0.12910833954811096 0.14269016683101654
000020 00 00 00 c0 3d 8e a1 3f 00 00 00 40 9b 53 ab bf
       0.03428833931684494 -0.05337224155664444
000030 00 00 00 20 0f 5c c2 3f 00 00 00 40 e1 d3 be 3f
       0.14343442022800446 0.12042053043842316
000040 00 00 00 e0 ab 2a 62 bf 00 00 00 00 73 51 cb 3f
       -0.0022176129277795553 0.21342313289642334
000050 00 00 00 20 ea 28 ca 3f 00 00 00 a0 6e 44 b5 bf
       0.20437361299991608 -0.08307544142007828
000060 00 00 00 e0 7e aa 66 bf 00 00 00 40 25 a6 c9 3f
       -0.00276684551499784 0.20038285851478577
000070 00 00 00 a0 74 fd be bf 00 00 00 60 93 1b b3 bf
       -0.12105492502450943 -0.07463952153921127
000080 00 00 00 80 9a 2d ab bf 00 00 00 e0 ab 7b 8e 3f
       -0.05308230221271515 0.014884321950376034
000090 00 00 00 80 25 49 c2 3f 00 00 00 a0 b6 b5 b9 3f
       0.14285725355148315 0.1004289761185646
0000a0 00 00 00 60 3a 4c ce 3f 00 00 00 20 f2 55 c4 3f
       0.23670129477977753 0.15887285768985748
0000b0 00 00 00 60 5c 21 c4 3f 00 00 00 20 cb 27 d1 bf
       0.15726809203624725 -0.26805379986763
0000c0 00 00 00 20 c1 d8 b6 bf 00 00 00 40 6a f1 be 3f
       -0.08924490958452225 0.12087120115756989
0000d0 00 00 00 e0 53 f9 99 3f 00 00 00 00 5a 45 c8 bf
       0.02536517195403576 -0.18961644172668457
0000e0 00 00 00 e0 f2 d0 c4 3f 00 00 00 40 b3 63 c0 3f
       0.16262660920619965 0.12804260849952698
0000f0 00 00 00 c0 ac 87 b0 3f 00 00 00 40 41 b6 ba bf
       0.06457023322582245 -0.1043434888124466
000100 00 00 00 e0 15 36 c7 3f 00 00 00 e0 6e 83 ca 3f
       0.18133805692195892 0.20713602006435394
000110 00 00 00 00 7e 71 d7 bf 00 00 00 c0 3e 4d b9 3f
       -0.3663020133972168 0.09883491694927216
000120 00 00 00 e0 4d 39 c9 bf 00 00 00 a0 a5 6b c8 bf
       -0.19706128537654877 -0.19078512489795685
000130 00 00 00 40 70 97 97 bf 00 00 00 40 47 90 c9 bf
       -0.023038629442453384 -0.1997155249118805
000140 00 00 00 40 62 af b1 bf 00 00 00 e0 a9 80 ca 3f
       -0.06908239424228668 0.20705150067806244
000150 00 00 00 80 12 4a 6c bf 00 00 00 00 1a 7f c5 bf
       -0.003453289158642292 -0.16794133186340332
000160 00 00 00 40 a6 0b 87 bf 00 00 00 80 6e d6 87 bf
       -0.011252688243985176 -0.011639464646577835
000170 00 00 00 00 88 02 c4 3f 00 00 00 20 9d 11 be bf
       0.1563272476196289 -0.11745626479387283
000180 00 00 00 20 c8 8d ca 3f 00 00 00 c0 68 4e ca bf
       0.20745183527469635 -0.20551785826683044
000190 00 00 00 60 88 df a6 bf 00 00 00 00 07 71 93 3f
       -0.04467416927218437 0.018985852599143982
0001a0 00 00 00 c0 ee 01 c5 bf 00 00 00 00 bf 5e bc 3f
       -0.16412147879600525 0.1108207106590271
0001b0 00 00 00 00 2b 74 b5 3f 00 00 00 60 39 43 c0 3f
       0.08380383253097534 0.12705151736736298
0001c0 00 00 00 60 13 7e d2 bf 00 00 00 e0 75 99 d1 3f
       -0.2889450490474701 0.2749914824962616
0001d0 00 00 00 00 52 32 be bf 00 00 00 20 fa fd a5 3f
       -0.11795532703399658 0.04295331612229347
0001e0 00 00 00 80 fc b5 af bf 00 00 00 c0 ab 5e b0 bf
       -0.06193532049655914 -0.06394456326961517
0001f0 00 00 00 40 9c 43 ce bf 00 00 00 40 34 dd b2 3f
       -0.2364383041858673 0.07368780672550201
000200 00 00 00 80 83 e3 d2 3f 00 00 00 00 1d 6f b3 bf
       0.29513633251190186 -0.07591420412063599
000210 00 00 00 20 0c 3c ad 3f 00 00 00 00 38 34 c8 3f
       0.05709875002503395 0.18909358978271484
000220 00 00 00 a0 ae 95 cc bf 00 00 00 c0 dc f7 bb bf
       -0.2233179360628128 -0.10925082862377167
000230 00 00 00 80 28 74 c2 bf 00 00 00 60 a7 17 cd 3f
       -0.1441698670387268 0.22728435695171356
000240 00 00 00 80 ad c2 be 3f 00 00 00 00 c0 ce d0 3f
       0.12015804648399353 0.2626190185546875
000250 00 00 00 40 77 f8 c3 bf 00 00 00 40 85 80 d0 3f
       -0.15602007508277893 0.2578442692756653
000260 00 00 00 e0 95 6e ce 3f 00 00 00 80 4d 7a 90 3f
       0.23774980008602142 0.016091547906398773
000270 00 00 00 80 07 55 b5 bf 00 00 00 40 c3 86 95 bf
       -0.08332869410514832 -0.02102189138531685
000280 00 00 00 20 c1 a7 b2 3f 00 00 00 c0 60 49 98 3f
       0.07287222892045975 0.02371741458773613
000290 00 00 00 00 7a 0f c4 bf 00 00 00 c0 06 b4 89 bf
       -0.1567223072052002 -0.01255040429532528
0002a0 00 00 00 e0 66 e1 cb bf 00 00 00 20 27 77 c4 bf
       -0.21781621873378754 -0.15988625586032867
0002b0 00 00 00 40 b4 a1 b5 3f 00 00 00 80 6a a1 b0 bf
       0.08449865877628326 -0.06496301293373108
0002c0 00 00 00 60 e5 f8 a5 bf 00 00 00 60 dc b5 8d bf
       -0.04291455075144768 -0.01450702827423811
0002d0 00 00 00 00 a0 08 d3 3f 00 00 00 40 35 80 b6 3f
       0.29740142822265625 0.08789379894733429
0002e0 00 00 00 00 db 42 b3 3f 00 00 00 60 35 11 c5 3f
       0.07523888349533081 0.16458766162395477
0002f0 00 00 00 40 0a 7c 74 bf 00 00 00 e0 e4 91 c4 3f
       -0.005001106299459934 0.16070233285427094
000300 00 00 00 a0 cd 9e 9a 3f 00 00 00 e0 07 5c 82 bf
       0.025996411219239235 -0.00896459724754095
000310 00 00 00 a0 a1 c6 a7 3f 00 00 00 e0 99 d7 a9 bf
       0.04643731191754341 -0.05047303065657616
000320 00 00 00 a0 36 05 c7 3f 00 00 00 60 bc 6e c5 bf
       0.1798465996980667 -0.16744188964366913
000330 00 00 00 00 89 a6 bf bf 00 00 00 e0 de 65 d3 bf
       -0.12363487482070923 -0.30309268832206726
000340 00 00 00 60 91 82 c5 bf 00 00 00 40 22 60 be bf
       -0.16804711520671844 -0.11865438520908356
000350 00 00 00 60 bd c1 cc 3f 00 00 00 80 1e 42 b1 bf
       0.22466246783733368 -0.06741514801979065
000360 00 00 00 a0 a1 22 b6 3f 00 00 00 00 e4 3c 64 bf
       0.08646593242883682 -0.002470441162586212
000370 00 00 00 c0 d4 28 45 bf 00 00 00 20 fc 63 da 3f
       -0.000645736581645906 0.412352591753006
000380 00 00 00 20 2b 5d a2 3f 00 00 00 c0 c3 7c c8 3f
       0.03586706891655922 0.19130751490592957
000390 00 00 00 40 81 ad d9 3f 00 00 00 00 6b 59 d2 3f
       0.4012148976325989 0.28670763969421387
0003a0 00 00 00 20 70 aa be 3f 00 00 00 80 f8 12 c5 bf
       0.11978817731142044 -0.16464143991470337
0003b0 00 00 00 60 7a 6f c6 bf 00 00 00 e0 03 53 d1 bf
       -0.17527703940868378 -0.270691841840744
0003c0 00 00 00 c0 33 13 bd 3f 00 00 00 60 f5 ea be bf
       0.11357425153255463 -0.12077268213033676
0003d0 00 00 00 00 6d 55 8f bf 00 00 00 80 71 bb c6 3f
       -0.015299655497074127 0.177595317363739
0003e0 00 00 00 20 d6 3f d1 3f 00 00 00 00 a6 4d ce 3f
       0.2695212662220001 0.23674464225769043
0003f0 00 00 00 e0 2b 6d 91 bf 00 00 00 60 35 28 b6 bf
       -0.017018018290400505 -0.08655103296041489
000400 00 00 00 20 b4 25 d5 3f 00 00 00 a0 0f 22 c0 3f
       0.33042624592781067 0.12603946030139923
000410 00 00 00 a0 1f 45 d5 3f 00 00 00 40 b8 33 b9 bf
       0.3323439657688141 -0.09844543039798737
000420 00 00 00 c0 d4 83 b7 3f 00 00 00 60 6e 9f c7 bf
       0.09185533225536346 -0.18455295264720917
000430 00 00 00 40 dd 2d ca 3f 00 00 00 80 02 1c c6 3f
       0.2045246660709381 0.17272979021072388
000440 00 00 00 80 c1 8c b4 bf 00 00 00 a0 9b b0 b0 3f
       -0.08027276396751404 0.06519482284784317
000450 00 00 00 e0 50 a9 ad bf 00 00 00 60 ad 8e b7 3f
       -0.057932402938604355 0.09202083200216293
000460 00 00 00 80 69 97 b2 3f 00 00 00 e0 3a 2b c2 3f
       0.0726228654384613 0.1419442743062973
000470 00 00 00 a0 1e f3 51 3f 00 00 00 60 2c 0b d3 3f
       0.0010955618927255273 0.29755696654319763
000480 00 00 00 c0 b1 ef bf 3f 00 00 00 00 78 5b d3 bf
       0.12475119531154633 -0.3024578094482422
000490 00 00 00 60 3b 41 9c bf 00 00 00 c0 31 d7 c1 bf
       -0.02759259007871151 -0.13937970995903015
0004a0 00 00 00 80 c2 c1 d0 bf 00 00 00 40 9e 68 75 3f
       -0.26182615756988525 0.005226724781095982
0004b0 00 00 00 00 3a 67 72 3f 00 00 00 c0 34 a4 a4 3f
       0.0044929757714271545 0.04031529277563095
0004c0 00 00 00 40 47 23 b3 bf 00 00 00 40 c9 c0 c3 3f
       -0.07475705444812775 0.1543208658695221
0004d0 00 00 00 e0 94 1b c7 bf 00 00 00 c0 20 f7 bc bf
       -0.18052922189235687 -0.1131458729505539
0004e0 00 00 00 20 2c 72 b0 bf 00 00 00 a0 8c 12 c6 3f
       -0.06424213200807571 0.17244108021259308
0004f0 00 00 00 40 44 a0 d6 3f 00 00 00 60 a2 fc c4 bf
       0.3535318970680237 -0.1639597862958908
000500 00 00 00 40 c5 07 9c 3f 00 00 00 40 ee cf bd 3f
       0.02737339213490486 0.11645402014255524
000510 00 00 00 60 08 0b d5 3f 00 00 00 80 50 4b 4a bf
       0.32879838347435 -0.0008024352136999369
000520 00 00 00 00 d9 33 89 bf 00 00 00 60 fe 6d 54 3f
       -0.01230592280626297 0.0012469276553019881
000530 00 00 00 60 a0 b7 ad 3f 00 00 00 00 3a ed cf bf
       0.05804158374667168 -0.24942708015441895
000540 00 00 00 20 a2 7b ad bf 00 00 00 20 18 36 9e 3f
       -0.057583872228860855 0.02950322814285755
000550 00 00 00 60 9d 8f a0 bf 00 00 00 20 1d f6 c9 bf
       -0.032345693558454514 -0.20282329618930817
000560 00 00 00 20 af 2b ae bf 00 00 00 80 f7 97 b3 3f
       -0.058927033096551895 0.07653757929801941
000570 00 00 00 40 ed 35 c3 3f 00 00 00 c0 7f bb a8 3f
       0.15008321404457092 0.04830550402402878
000580 00 00 00 40 61 9e d0 bf 00 00 00 e0 89 10 bf 3f
       -0.2596667408943176 0.12134610861539841
000590 00 00 00 c0 3d 94 8e bf 00 00 00 40 fc 39 ba 3f
       -0.01493118517100811 0.10244728624820709
0005a0 00 00 00 40 df 94 c3 3f 00 00 00 c0 c2 ec a0 3f
       0.1529807150363922 0.033056341111660004
0005b0 00 00 00 40 76 ff ac 3f 00 00 00 a0 28 4f a5 3f
       0.056636519730091095 0.04161955788731575
0005c0 00 00 00 20 78 2d b5 3f 00 00 00 80 3e 47 b3 3f
       0.08272505551576614 0.07530584931373596
0005d0 00 00 00 00 b4 7d b8 bf 00 00 00 c0 a5 e0 c5 3f
       -0.09566807746887207 0.17091819643974304
0005e0 00 00 00 a0 46 cf 7e 3f 00 00 00 a0 7e e6 83 bf
       0.007521892432123423 -0.00971697736531496
0005f0 00 00 00 00 a5 60 b7 3f 00 00 00 e0 9b b0 bb 3f
       0.09131842851638794 0.10816358774900436
000600 00 00 00 40 ca b0 9f 3f 00 00 00 40 6a 67 98 bf
       0.030947837978601456 -0.02383199706673622
000610 00 00 00 60 71 e7 71 bf 00 00 00 a0 bc a6 c5 3f
       -0.004371111746877432 0.16915090382099152
000620 00 00 00 c0 4d 26 9e 3f 00 00 00 40 f9 42 d8 bf
       0.02944299206137657 -0.37908774614334106
000630 00 00 00 a0 c1 be b3 3f 00 00 00 c0 27 e1 b1 3f
       0.07712946087121964 0.06984184682369232
000640 00 00 00 a0 2c 2a b2 bf 00 00 00 a0 28 3a c3 3f
       -0.0709560289978981 0.150212362408638
000650 00 00 00 a0 ae 8b d1 3f 00 00 00 00 a3 0d b0 3f
       0.2741505205631256 0.06270807981491089
000660 00 00 00 20 00 74 9c bf 00 00 00 00 55 d2 8c 3f
       -0.02778625674545765 0.014073051512241364
000670 00 00 00 c0 a7 11 cd 3f 00 00 00 c0 b4 21 a0 3f
       0.22710129618644714 0.031507156789302826
000680 00 00 00 20 34 fd be 3f 00 00 00 e0 49 ef ae 3f
       0.12105108052492142 0.06041937693953514
000690 00 00 00 00 0b f8 a9 3f 00 00 00 00 27 98 ce 3f
       0.050720542669296265 0.23901832103729248
0006a0 00 00 00 c0 96 53 bc bf 00 00 00 a0 40 c8 c3 3f
       -0.11065046489238739 0.15454871952533722
0006b0 00 00 00 e0 2a 88 95 bf 00 00 00 e0 8a c1 b0 bf
       -0.021027250215411186 -0.06545322388410568
0006c0 00 00 00 80 a4 f4 c5 3f 00 00 00 40 b3 af c6 3f
       0.1715283989906311 0.17723694443702698
0006d0 00 00 00 60 17 f3 ad 3f 00 00 00 00 a3 fa aa bf
       0.05849526450037956 -0.052693456411361694
0006e0 00 00 00 60 b7 29 ae 3f 00 00 00 00 7f a3 72 bf
       0.058912020176649094 -0.004550453275442123
0006f0 00 00 00 40 b1 c3 c0 3f 00 00 00 00 56 85 c5 3f
       0.13097205758094788 0.16813158988952637
000700 00 00 00 c0 09 29 c5 3f 00 00 00 40 36 9e b2 3f
       0.16531488299369812 0.07272662222385406
000710 00 00 00 00 e6 00 b7 bf 00 00 00 20 15 9e c3 bf
       -0.08985745906829834 -0.15326179563999176
000720 00 00 00 40 ef 78 b3 bf 00 00 00 20 60 ff b7 3f
       -0.07606406509876251 0.09374047070741653
000730 00 00 00 20 4b 0a b3 3f 00 00 00 80 33 3a c6 bf
       0.07437581568956375 -0.17365115880966187
000740 00 00 00 a0 91 d0 b8 bf 00 00 00 20 3f 42 d0 3f
       -0.09693250805139542 0.2540433704853058
000750 00 00 00 80 ff 48 d1 bf 00 00 00 a0 24 1c a4 bf
       -0.27008044719696045 -0.03927721455693245
000760 00 00 00 80 d6 0c bc 3f 00 00 00 a0 05 a3 af bf
       0.10957089066505432 -0.06179063394665718
000770 00 00 00 c0 ec cd 80 bf 00 00 00 40 29 d4 d0 bf
       -0.008205270394682884 -0.26294928789138794
000780 00 00 00 e0 24 d7 c2 bf 00 00 00 a0 ba d9 cc bf
       -0.14719067513942719 -0.22539456188678741
000790 00 00 00 40 e5 c2 bc 3f 00 00 00 00 6c 00 87 bf
       0.11234886944293976 -0.011231273412704468
0007a0 00 00 00 e0 d5 4a c1 3f 00 00 00 00 df 39 97 3f
       0.13509629666805267 0.022681698203086853
0007b0 00 00 00 a0 f1 5a 94 3f 00 00 00 60 00 57 c9 3f
       0.019878173246979713 0.19796757400035858
0007c0 00 00 00 e0 9c bb ce 3f 00 00 00 80 bb df b9 3f
       0.24010048806667328 0.10107013583183289
0007d0 00 00 00 e0 8e 02 d0 3f 00 00 00 60 13 0c c9 3f
       0.25015613436698914 0.19568102061748505
0007e0 00 00 00 60 c3 ed c3 3f 00 00 00 e0 34 05 89 3f
       0.15569345653057098 0.012216961942613125
0007f0 00 00 00 80 d6 40 ac 3f 00 00 00 40 15 24 b1 3f
       0.05518217384815216 0.06695683300495148
