results/weights/weights_sequence_zo_adamm_0.1111111119389534_conv1.weight_2.npy (npy, 30728 bytes, 1 tensors)

array f8 [51, 75]
0	0xbfbdea2f60000000	-0.11685463041067123
1	0xbfa4a03820000000	-0.04028487578034401
2	0x3fb204faa0000000	0.07038847357034683
3	0x3fc66ce9c0000000	0.1751987636089325
4	0xbf96f98300000000	-0.02243618667125702
5	0x3f85479880000000	0.010390464216470718
6	0xbfd43624a0000000	-0.3158046305179596
7	0xbfc09dd200000000	-0.12981629371643066
8	0xbfb4e9eee0000000	-0.08169453591108322
9	0x3fc1f48700000000	0.14027488231658936
10	0x3fbc300a40000000	0.11010803282260895
11	0xbf9e861580000000	-0.029808364808559418
12	0xbf8fddec60000000	-0.01556000392884016
13	0xbfa9c12b80000000	-0.050301894545555115
14	0xbfba53a880000000	-0.10283902287483215
15	0xbf76da3e40000000	-0.005579226650297642
16	0xbf96c21b40000000	-0.022224832326173782
17	0xbf942c7400000000	-0.019700825214385986
18	0xbfb54425c0000000	-0.08307109773159027
19	0x3fb4679400000000	0.07970547676086426
20	0x3fa25c6880000000	0.035861268639564514
21	0xbf8a4c5440000000	-0.01284089870750904
22	0x3fbc31dac0000000	0.11013571918010712
23	0xbf6711b1e0000000	-0.0028160547371953726
24	0xbfd3c4a5a0000000	-0.3088773787021637
25	0x3fcf4b0840000000	0.2444773018360138
26	0x3fb37223a0000000	0.07596037536859512
27	0x3fbad97780000000	0.10488077998161316
28	0xbfc57f3f20000000	-0.1679457575082779
29	0x3fb6b6c860000000	0.08872654289007187
30	0xbfc9ce65a0000000	-0.2016112357378006
31	0x3fbb96f1c0000000	0.10777197778224945
32	0x3fc392d860000000	0.15291886031627655
33	0x3fd21dc2c0000000	0.28306645154953003
34	0x3faa95d060000000	0.051924239844083786
35	0x3f89e61780000000	0.012645896524190903
36	0x3fb612aae0000000	0.086222343146801
37	0xbfceccf380000000	-0.24062961339950562
38	0x3fce792a60000000	0.23807267844676971
39	0x3f9746b180000000	0.022730611264705658
40	0xbfae903520000000	-0.059693966060876846
41	0x3fa056e760000000	0.03191302344202995
42	0x3fb4215260000000	0.07863344997167587
43	0x3fc7ec7fa0000000	0.18690486252307892
44	0xbfbb6359e0000000	-0.10698472708463669
45	0x3fa3326880000000	0.037493959069252014
46	0xbfc1f33d20000000	-0.1402355581521988
47	0x3fc785a900000000	0.18376648426055908
48	0x3fc8b066a0000000	0.19288332760334015
49	0xbfc643fea0000000	-0.17395003139972687
50	0x3fbbef5400000000	0.10912060737609863
51	0xbfc013d660000000	-0.12560538947582245
52	0x3fb03e3a60000000	0.06344952434301376
53	0x3fc54d6780000000	0.1664246916770935
54	0xbfcbb217a0000000	-0.21637244522571564
55	0xbfb35b4940000000	-0.0756116658449173
56	0x3fb7bf7500000000	0.09276515245437622
57	0xbf77ca9d80000000	-0.00580846332013607
58	0xbf7829c4a0000000	-0.005899208132177591
59	0x3fba1b4e60000000	0.10197915881872177
60	0x3f9b86af20000000	0.026880966499447823
61	0xbfc9e5eee0000000	-0.20232950150966644
62	0xbfd7221060000000	-0.3614540994167328
63	0x3fc3320300000000	0.14996373653411865
64	0xbfbcd17ae0000000	-0.11257141083478928
65	0xbf725d1e00000000	-0.004483334720134735
66	0x3fb3d1fde0000000	0.07742296904325485
67	0x3fb227ee60000000	0.07092180103063583
68	0xbf9dcdea00000000	-0.029105812311172485
69	0xbfbcf1c0a0000000	-0.11306384950876236
70	0xbfc6b58ca0000000	-0.17741544544696808
71	0x3f796034e0000000	0.006195265334099531
72	0xbfb760b2e0000000	-0.0913192555308342
73	0x3fb0e99ea0000000	0.06606475263834
74	0x3fb72b0ac0000000	0.09050051867961884
75	0xbfad448dc0000000	-0.057163648307323456
76	0xbfb9ad8540000000	-0.10030396282672882
77	0x3faefe2060000000	0.0605325810611248
78	0x3fd05ebb80000000	0.25578200817108154
79	0xbfa5ade040000000	-0.04234219342470169
80	0xbfb34702c0000000	-0.07530228793621063
81	0xbfd4c8f460000000	-0.32476529479026794
82	0xbfc29bc140000000	-0.1453782618045807
83	0xbfcc69f6e0000000	-0.22198377549648285
84	0x3fbfdb07e0000000	0.1244358941912651
85	0x3fa8a06160000000	0.0480986051261425
86	0xbfb2e55860000000	-0.07381203025579453
87	0x3f967f4520000000	0.0219698715955019
88	0xbfbe77aa60000000	-0.11901345103979111
89	0xbfad772400000000	-0.05754959583282471
90	0x3fb0ca04c0000000	0.06558255851268768
91	0x3fb0dc0c80000000	0.06585767865180969
92	0xbf4f717c80000000	-0.0009595735464245081
93	0xbfb5ea7c00000000	-0.08560919761657715
94	0x3f83edf7a0000000	0.009731230325996876
95	0x3faa15b320000000	0.050946805626153946
96	0xbfb1e381c0000000	-0.0698777288198471
97	0x3fc5bbc8c0000000	0.16979321837425232
98	0xbfc269cce0000000	-0.14385376870632172
99	0xbfd1028a00000000	-0.265779972076416
100	0x3fcecb4b20000000	0.2405790239572525
101	0x3fc0098e20000000	0.1252916008234024
102	0x3fb3b4d700000000	0.07697814702987671
103	0xbfb522ea80000000	-0.08256402611732483
104	0x3fd2933920000000	0.2902357876300812
105	0xbfb96b83a0000000	-0.09929678589105606
106	0x3fd08b85e0000000	0.2585158050060272
107	0x3fc1a808c0000000	0.13794049620628357
108	0x3fd41cbc20000000	0.3142538368701935
109	0x3fbdb92de0000000	0.11610686033964157
110	0x3fb3a4e2e0000000	0.07673471421003342
111	0x3fc505fe20000000	0.1642453819513321
112	0xbfc0976e60000000	-0.12962131202220917
113	0x3fce7467a0000000	0.2379273921251297
114	0x3fc25627e0000000	0.14325426518917084
115	0xbfb3f935e0000000	-0.07802139967679977
116	0x3fbaf9ca40000000	0.10537399351596832
117	0x3fd44b8f40000000	0.3171117901802063
118	0x3fd2f7b700000000	0.2963693141937256
119	0xbfa6d8bda0000000	-0.04462235048413277
120	0x3fc0486140000000	0.1272088587284088
121	0xbfbfa78d80000000	-0.12365040183067322
122	0x3fd401cf00000000	0.312610387802124
123	0x3fd38e03a0000000	0.30554285645484924
124	0xbfb401f420000000	-0.07815480977296829
125	0x3fcebb9420000000	0.2400994449853897
126	0xbfc9c3a920000000	-0.20128358900547028
127	0x3fbb854960000000	0.1075025424361229
128	0xbf94133a80000000	-0.019604600965976715
129	0xbfd0a4abe0000000	-0.2600507438182831
130	0xbfcceb4a80000000	-0.22593051195144653
131	0x3fa9ae03c0000000	0.050155751407146454
132	0xbfb828c4c0000000	-0.09437207877635956
133	0xbfa8710ac0000000	-0.04773744195699692
134	0x3fc53de780000000	0.165951669216156
135	0xbfb8761160000000	-0.09555157274007797
136	0xbfce638e20000000	-0.2374131828546524
137	0xbfdd2b9920000000	-0.4557860195636749
138	0x3fbd0d54c0000000	0.11348466575145721
139	0x3fa3919000000000	0.03821992874145508
140	0xbfc90559c0000000	-0.19547578692436218
141	0x3fc1e00920000000	0.13964952528476715
142	0xbf9dd47f60000000	-0.029130926355719566
143	0xbf7bf74080000000	-0.0068275947123765945
144	0x3faa889340000000	0.05182323604822159
145	0xbfc8f83700000000	-0.1950749158859253
146	0x3fb4959be0000000	0.08040785044431686
147	0xbfca1dc340000000	-0.2040332853794098
148	0x3f9d4d42a0000000	0.028615036979317665
149	0x3fc97b6940000000	0.19907870888710022
150	0xbfaa3d7620000000	-0.051250163465738297
151	0xbfb91cad80000000	-0.09809383749961853
152	0x3faf336520000000	0.060938987880945206
153	0x3fcdeebea0000000	0.23384840786457062
154	0xbf9ea79be0000000	-0.029936252161860466
155	0xbfc18e35a0000000	-0.13715238869190216
156	0xbfd5e28700000000	-0.3419511318206787
157	0xbfb7b949c0000000	-0.09267102181911469
158	0xbfce48e1e0000000	-0.23659919202327728
159	0x3fb860f380000000	0.09522935748100281
160	0x3fbe27bd00000000	0.11779385805130005
161	0xbfaf604d80000000	-0.061281606554985046
162	0xbf72a486e0000000	-0.00455143628641963
163	0xbfae6a8560000000	-0.05940644070506096
164	0xbfbdbe2660000000	-0.11618270725011826
165	0x3fb4c9ad00000000	0.08120232820510864
166	0x3f79f12960000000	0.006333505269140005
167	0x3f8b9ef700000000	0.013486795127391815
168	0xbfa89d9a60000000	-0.04807741567492485
169	0x3fa5bd5cc0000000	0.04246034473180771
170	0x3fab7a3ee0000000	0.053667034953832626
171	0xbfb62a06e0000000	-0.08657877892255783
172	0x3fc7b35740000000	0.1851605474948883
173	0xbfc747e500000000	-0.18188154697418213
174	0xbfce1bab40000000	-0.23521938920021057
175	0x3fd41eeac0000000	0.3143870234489441
176	0x3fb6ed3fe0000000	0.08955764025449753
177	0x3fbd5de380000000	0.1147138774394989
178	0xbf849a6600000000	-0.010060116648674011
179	0x3fd5a086c0000000	0.33792275190353394
180	0xbfacc25340000000	-0.056170083582401276
181	0x3fd1d9d3e0000000	0.27892014384269714
182	0x3fc8b13a40000000	0.19290855526924133
183	0x3fd7246260000000	0.3615957200527191
184	0x3fbf9df620000000	0.12350405007600784
185	0x3fc25f8e60000000	0.1435411423444748
186	0x3fc3371f80000000	0.15011972188949585
187	0xbfc1aba8e0000000	-0.1380511373281479
188	0x3fd265ffa0000000	0.28747549653053284
189	0x3fcb337800000000	0.2125082015991211
190	0xbfbceb1200000000	-0.11296188831329346
191	0x3fc7bd5fa0000000	0.1854667216539383
192	0x3fda51cb40000000	0.4112423062324524
193	0x3fd56bbfa0000000	0.33470144867897034
194	0x3f5fe41840000000	0.0019464718643575907
195	0x3fbee80c20000000	0.1207282617688179
196	0xbfc0717b00000000	-0.12846314907073975
197	0x3fd76cdb60000000	0.3660190999507904
198	0x3fd5b9a520000000	0.33945587277412415
199	0x3f645a78a0000000	0.0024845462758094072
200	0x3fd01acb60000000	0.2516354024410248
201	0xbfcc9f9280000000	-0.2236197590827942
202	0x3fc0306620000000	0.12647701799869537
203	0x3f98df86e0000000	0.024290187284350395
204	0xbfcddaee00000000	-0.23324370384216309
205	0xbfc5206940000000	-0.16505160927772522
206	0x3f4ccf89c0000000	0.0008792326552793384
207	0xbfb4315980000000	-0.0788780152797699
208	0xbfa481d2c0000000	-0.04005297273397446
209	0x3fcb7d4f40000000	0.2147616446018219
210	0xbfbc8ac660000000	-0.11149253696203232
211	0xbfcdb146c0000000	-0.23197254538536072
212	0xbfdd3bc4e0000000	-0.4567730128765106
213	0x3fc4eb2760000000	0.16342632472515106
214	0x3fb0cd9940000000	0.06563718616962433
215	0xbfc5293180000000	-0.16531962156295776
216	0x3fbef690e0000000	0.12094979733228683
217	0xbfa5d1e3e0000000	-0.042616959661245346
218	0x3fa1bb1680000000	0.03463049232959747
219	0x3fb8536f40000000	0.09502311050891876
220	0xbfca00bec0000000	-0.2031477391719818
221	0x3fc6383280000000	0.17359000444412231
222	0xbfc7a05de0000000	-0.18458150327205658
223	0xbfa5693b80000000	-0.04181848466396332
224	0x3fcbd359e0000000	0.21738742291927338
225	0xbfad50b3c0000000	-0.05725633352994919
226	0xbfc0830000000000	-0.128997802734375
227	0x3fa593d2a0000000	0.04214342311024666
228	0x3fd3f0c7c0000000	0.31157106161117554
229	0xbf96727580000000	-0.021921001374721527
230	0xbfbfd7b760000000	-0.12438531965017319
231	0xbfd7b193e0000000	-0.37021347880363464
232	0x3f93595dc0000000	0.018895592540502548
233	0xbfcbdd2e40000000	-0.21768739819526672
234	0x3fb701aba0000000	0.08986923843622208
235	0x3fb958d320000000	0.0990116074681282
236	0xbfa3d14d80000000	-0.038706228137016296
237	0x3f9a5b0a20000000	0.025737913325428963
238	0xbfba961e40000000	-0.10385312139987946
239	0xbfc7590280000000	-0.18240386247634888
240	0x3fbd7e5980000000	0.1152091920375824
241	0x3f84fe4d00000000	0.010250665247440338
242	0x3f84668f60000000	0.009961242787539959
243	0xbf778923a0000000	-0.005746020469814539
244	0x3fb6c150c0000000	0.08888725936412811
245	0x3fa21be200000000	0.03536897897720337
246	0xbfa51dd040000000	-0.04124308377504349
247	0x3fca5bbb40000000	0.20592442154884338
248	0xbfc824dc00000000	-0.18862485885620117
249	0xbfd13d97a0000000	-0.2693842947483063
250	0x3fd6fb2c80000000	0.35908043384552
251	0x3fc3571960000000	0.15109555423259735
252	0x3f9c18b900000000	0.027438059449195862
253	0xbf90cee200000000	-0.01641419529914856
254	0x3fd178f080000000	0.2730065584182739
255	0x3f86207f20000000	0.010804169811308384
