results/weights/weights_sequence_zo_adamm_12.333333015441895_fc3.bias_8.npy (npy, 4208 bytes, 1 tensors)

array f8 [51, 10]
0.009999999776482582 0.009999999776482582 0.009999999776482582 0.009999999776482582 0.009999999776482582 0.009999999776482582 0.009999999776482582 0.009999999776482582
0.009999999776482582 0.009999999776482582 -0.024916673079133034 -0.16772322356700897 -0.14521096646785736 0.0033858756069093943 -0.17181147634983063 -0.020335018634796143
0.09213113784790039 0.1395052969455719 0.042727041989564896 0.08586549758911133 -0.09676056355237961 -0.21160823106765747 -0.1809808611869812 0.015876339748501778
-0.13691188395023346 -0.031232083216309547 0.047891464084386826 0.15946878492832184 0.08291126787662506 0.11350293457508087 -0.13074275851249695 -0.20567065477371216
-0.13269518315792084 0.01669212430715561 -0.18653544783592224 -0.05833841860294342 0.050677116960287094 0.16741472482681274 0.10390505939722061 0.1676046997308731
-0.1487749069929123 -0.20037958025932312 -0.13577143847942352 0.04681059345602989 -0.1833895593881607 -0.08779283612966537 0.0496431440114975 0.1445261389017105
0.1259053349494934 0.15116305649280548 -0.15187323093414307 -0.15465626120567322 -0.09297256171703339 0.027285197749733925 -0.22711610794067383 -0.08378767222166061
0.06119229644536972 0.15155626833438873 0.1350308209657669 0.13303540647029877 -0.14249737560749054 -0.10522995889186859 -0.06440743058919907 -0.012052848935127258
-0.22498036921024323 -0.08066106587648392 0.008463896811008453 0.15958097577095032 0.15934358537197113 0.1954748034477234 -0.14331601560115814 -0.09618119895458221
-0.06851941347122192 -0.036355625838041306 -0.19039252400398254 -0.06305021792650223 0.007733072619885206 0.16812600195407867 0.1550147533416748 0.1941746324300766
-0.12875844538211823 -0.08969879150390625 -0.05585255101323128 -0.0820898488163948 -0.23388636112213135 -0.06579938530921936 0.01311152707785368 0.159938246011734
0.1399765908718109 0.21838687360286713 -0.13783730566501617 -0.0902976468205452 -0.08464674651622772 -0.10040994733572006 -0.2782963216304779 -0.07045447081327438
-0.007357311900705099 0.16022416949272156 0.14487840235233307 0.21661818027496338 -0.14269551634788513 -0.1464325189590454 -0.09739378839731216 -0.10861565917730331
-0.2848280072212219 -0.09316611289978027 -0.04643521085381508 0.15761782228946686 0.1290767341852188 0.24712924659252167 -0.14971788227558136 -0.17164811491966248
-0.10152924060821533 -0.09100355952978134 -0.30483895540237427 -0.09766852110624313 -0.12101076543331146 0.16091212630271912 0.13855713605880737 0.2587345242500305
-0.21267834305763245 -0.1722327172756195 -0.11522376537322998 -0.11139613389968872 -0.27263325452804565 -0.11285402625799179 -0.12129226326942444 0.1711999475955963
0.13089299201965332 0.20478492975234985 -0.20772825181484222 -0.16454747319221497 -0.130935937166214 -0.099654920399189 -0.31256404519081116 -0.11036591976881027
-0.10880409181118011 0.21718907356262207 0.10684551298618317 0.2005079984664917 -0.21281784772872925 -0.17980150878429413 -0.09998590499162674 -0.08125924319028854
-0.30132779479026794 -0.12814640998840332 -0.13307520747184753 0.21304497122764587 0.12319498509168625 0.2393578141927719 -0.20281031727790833 -0.17840661108493805
-0.09984448552131653 -0.07516984641551971 -0.3247532844543457 -0.09121064096689224 -0.14414413273334503 0.19653776288032532 0.0900198370218277 0.23036396503448486
-0.17765678465366364 -0.16101403534412384 -0.08953413367271423 -0.07389365881681442 -0.2939430773258209 -0.09996363520622253 -0.11888617277145386 0.18727613985538483
0.08751256763935089 0.24726392328739166 -0.21415136754512787 -0.16568666696548462 -0.06123362481594086 -0.03910544514656067 -0.2763228714466095 -0.07441704720258713
-0.11965559422969818 0.18989607691764832 0.1131267249584198 0.25530707836151123 -0.24067504703998566 -0.17682009935379028 -0.06131432205438614 -0.02277415618300438
-0.28669196367263794 -0.0708659291267395 -0.11897199600934982 0.21120098233222961 0.10231359302997589 0.24574530124664307 -0.23738528788089752 -0.18897050619125366
-0.06319112330675125 -0.009051407687366009 -0.29771557450294495 -0.06842059642076492 -0.11220894008874893 0.2128598392009735 0.10133128613233566 0.23417744040489197
-0.23685899376869202 -0.1869192272424698 -0.06872420758008957 -0.01358476560562849 -0.29800111055374146 -0.07130943983793259 -0.11573795229196548 0.21359476447105408
0.10023131966590881 0.22659999132156372 -0.23218666017055511 -0.1944608837366104 -0.07656686007976532 -0.017608068883419037 -0.2939814031124115 -0.08092883974313736
-0.12923575937747955 0.20385265350341797 0.10517643392086029 0.244727224111557 -0.21863286197185516 -0.19181349873542786 -0.07173944264650345 -0.01892044208943844
-0.2947221100330353 -0.0812278762459755 -0.12311454117298126 0.18164199590682983 0.11088905483484268 0.2311088740825653 -0.23139667510986328 -0.17973767220973969
-0.08212558180093765 -0.04533706232905388 -0.2888168692588806 -0.07941877096891403 -0.12315721064805984 0.1683134138584137 0.10983625799417496 0.23615139722824097
-0.20828554034233093 -0.1797027438879013 -0.08400037884712219 -0.04439978674054146 -0.2858709692955017 -0.07738664746284485 -0.13387945294380188 0.17834602296352386
0.11291684955358505 0.2267732322216034 -0.21924448013305664 -0.1772458404302597 -0.07461487501859665 -0.048146165907382965 -0.28562018275260925 -0.06599301844835281
00000000: 0000 0040 e17a 843f 0000 0040 e17a 843f
00000010: 0000 0040 e17a 843f 0000 0040 e17a 843f
00000020: 0000 0040 e17a 843f 0000 0040 e17a 843f
00000030: 0000 0040 e17a 843f 0000 0040 e17a 843f
00000040: 0000 0040 e17a 843f 0000 0040 e17a 843f
00000050: 0000 00a0 c183 99bf 0000 0060 f477 c5bf
00000060: 0000 00e0 4596 c2bf 0000 0020 b2bc 6b3f
00000070: 0000 0020 ebfd c5bf 0000 0000 b4d2 94bf
00000080: 0000 0000 e895 b73f 0000 0040 4fdb c13f
00000090: 0000 00a0 51e0 a53f 0000 0000 48fb b53f
000000a0: 0000 00e0 4cc5 b8bf 0000 0080 fa15 cbbf
000000b0: 0000 0080 612a c7bf 0000 0020 e341 903f
000000c0: 0000 0020 5486 c1bf 0000 00a0 4dfb 9fbf
000000d0: 0000 00e0 3a85 a83f 0000 0020 7969 c43f
000000e0: 0000 0040 ac39 b53f 0000 0040 870e bd3f
000000f0: 0000 00c0 2dbc c0bf 0000 0080 6a53 cabf
00000100: 0000 00e0 27fc c0bf 0000 0080 bd17 913f
00000110: 0000 00c0 64e0 c7bf 0000 0080 88de adbf
00000120: 0000 00e0 59f2 a93f 0000 0080 d86d c53f
00000130: 0000 00a0 8599 ba3f 0000 0020 1274 c53f
00000140: 0000 0060 0e0b c3bf 0000 00c0 09a6 c9bf
00000150: 0000 0060 f560 c1bf 0000 00e0 8ef7 a73f
00000160: 0000 0020 4f79 c7bf 0000 0060 9779 b6bf
00000170: 0000 0080 d36a a93f 0000 0020 d57f c23f
00000180: 0000 0080 aa1d c03f 0000 00a0 4f59 c33f
00000190: 0000 0000 9570 c3bf 0000 00c0 c6cb c3bf
000001a0: 0000 00c0 0ccd b7bf 0000 00a0 a6f0 9b3f
000001b0: 0000 0000 2412 cdbf 0000 00e0 1b73 b5bf
000001c0: 0000 00c0 9854 af3f 0000 0020 3266 c33f
000001d0: 0000 00a0 b048 c13f 0000 00e0 4d07 c13f
000001e0: 0000 00a0 5a3d c2bf 0000 00c0 59f0 babf
000001f0: 0000 0060 017d b0bf 0000 0000 2aaf 88bf
00000200: 0000 0020 28cc ccbf 0000 0020 34a6 b4bf
00000210: 0000 0000 8555 813f 0000 0040 266d c43f
00000220: 0000 00e0 5e65 c43f 0000 0080 5105 c93f
00000230: 0000 00e0 2d58 c2bf 0000 00c0 549f b8bf
00000240: 0000 0000 7d8a b1bf 0000 0060 349d a2bf
00000250: 0000 0040 c85e c8bf 0000 0020 0f24 b0bf
00000260: 0000 00e0 b6ac 7f3f 0000 0020 2785 c53f
00000270: 0000 0000 86d7 c33f 0000 00e0 b6da c83f
00000280: 0000 0020 287b c0bf 0000 0000 80f6 b6bf
00000290: 0000 00a0 b498 acbf 0000 0020 d703 b5bf
000002a0: 0000 0000 fdef cdbf 0000 0080 3ad8 b0bf
000002b0: 0000 0060 37da 8a3f 0000 0040 db78 c43f
000002c0: 0000 00c0 c0ea c13f 0000 00e0 19f4 cb3f
000002d0: 0000 0020 a7a4 c1bf 0000 0020 bf1d b7bf
000002e0: 0000 00c0 68ab b5bf 0000 0060 77b4 b9bf
000002f0: 0000 0060 9bcf d1bf 0000 00e0 4d09 b2bf
00000300: 0000 0060 b322 7ebf 0000 00c0 3982 c43f
00000310: 0000 0020 608b c23f 0000 0000 25ba cb3f
00000320: 0000 00c0 d843 c2bf 0000 0000 4dbe c2bf
00000330: 0000 00a0 ccee b8bf 0000 0060 3cce bbbf
00000340: 0000 0040 9f3a d2bf 0000 0000 bcd9 b7bf
00000350: 0000 0020 5bc6 a7bf 0000 0020 d22c c43f
00000360: 0000 0020 9685 c03f 0000 0060 eea1 cf3f
00000370: 0000 00a0 f429 c3bf 0000 00c0 90f8 c5bf
00000380: 0000 0000 d2fd b9bf 0000 0060 024c b7bf
00000390: 0000 0040 7b82 d3bf 0000 00e0 cd00 b9bf
000003a0: 0000 00c0 8ffa bebf 0000 00c0 c498 c43f
000003b0: 0000 0080 3dbc c13f 0000 0040 1b8f d03f
000003c0: 0000 0040 0b39 cbbf 0000 00c0 b80b c6bf
000003d0: 0000 0000 4e7f bdbf 0000 0000 7584 bcbf
000003e0: 0000 00c0 d272 d1bf 0000 0060 00e4 bcbf
000003f0: 0000 0080 020d bfbf 0000 0040 e1e9 c53f
00000400: 0000 0000 1ac1 c03f 0000 0080 6436 ca3f
00000410: 0000 00e0 d696 cabf 0000 0040 e40f c5bf
00000420: 0000 0040 82c2 c0bf 0000 0020 fc82 b9bf
00000430: 0000 00a0 0c01 d4bf 0000 00e0 f040 bcbf
00000440: 0000 00c0 95da bbbf 0000 0000 dacc cb3f
00000450: 0000 0040 3a5a bb3f 0000 0000 3faa c93f
00000460: 0000 0080 9d3d cbbf 0000 0060 bc03 c7bf
00000470: 0000 0020 ad98 b9bf 0000 00e0 67cd b4bf
00000480: 0000 0060 f448 d3bf 0000 0000 1a67 c0bf
00000490: 0000 00c0 9b08 c1bf 0000 00c0 0e45 cb3f
000004a0: 0000 00e0 b489 bf3f 0000 00e0 46a3 ce3f
000004b0: 0000 0040 b0f5 c9bf 0000 0020 07d6 c6bf
000004c0: 0000 0080 688f b9bf 0000 00c0 543e b3bf
000004d0: 0000 0000 c2c8 d4bf 0000 00a0 9459 b7bf
000004e0: 0000 00a0 5073 c2bf 0000 0040 2628 c93f
000004f0: 0000 0040 8a0b b73f 0000 0000 917c cd3f
00000500: 0000 0020 75bd c6bf 0000 00a0 1b9c c4bf
00000510: 0000 0080 b5eb b6bf 0000 00e0 b1ea b2bf
00000520: 0000 00a0 f6cf d2bf 0000 0080 3797 b9bf
00000530: 0000 0000 536f bebf 0000 0020 aaf8 c73f
00000540: 0000 0040 3967 b63f 0000 0020 58a6 cf3f
00000550: 0000 00e0 4f69 cbbf 0000 0080 3835 c5bf
00000560: 0000 0080 035a afbf 0000 0000 a105 a4bf
00000570: 0000 0020 46af d1bf 0000 00e0 fe0c b3bf
00000580: 0000 00c0 bfa1 bebf 0000 00c0 834e c83f
00000590: 0000 0080 dff5 bc3f 0000 0080 f356 d03f
000005a0: 0000 00a0 70ce cebf 0000 0080 0aa2 c6bf
000005b0: 0000 0040 9764 afbf 0000 00c0 1b52 97bf
000005c0: 0000 0040 2959 d2bf 0000 0000 4524 b2bf
000005d0: 0000 00e0 f274 bebf 0000 0040 a208 cb3f
000005e0: 0000 0040 3931 ba3f 0000 0000 9574 cf3f
000005f0: 0000 0020 a462 cebf 0000 0080 2f30 c8bf
00000600: 0000 0020 4b2d b0bf 0000 0060 8b89 82bf
00000610: 0000 00a0 c50d d3bf 0000 0020 0384 b1bf
00000620: 0000 00a0 b9b9 bcbf 0000 00c0 fd3e cb3f
00000630: 0000 00e0 d8f0 b93f 0000 00c0 86f9 cd3f
00000640: 0000 0040 6551 cebf 0000 0020 f8ec c7bf
00000650: 0000 00e0 e897 b1bf 0000 0060 54d2 8bbf
00000660: 0000 0040 7312 d3bf 0000 00e0 5541 b2bf
00000670: 0000 00a0 00a1 bdbf 0000 00c0 1257 cb3f
00000680: 0000 0080 c2a8 b93f 0000 0080 3a01 cd3f
00000690: 0000 00e0 4ab8 cdbf 0000 0020 18e4 c8bf
000006a0: 0000 00c0 e299 b3bf 0000 0080 d907 92bf
000006b0: 0000 0060 97d0 d2bf 0000 00a0 c0b7 b4bf
000006c0: 0000 0020 cc8a c0bf 0000 0000 d817 ca3f
000006d0: 0000 00c0 d7ec ba3f 0000 00c0 3853 cf3f
000006e0: 0000 0060 29fc cbbf 0000 0040 588d c8bf
000006f0: 0000 0020 845d b2bf 0000 0060 e15f 93bf
00000700: 0000 0020 badc d2bf 0000 00a0 59cb b4bf
00000710: 0000 0040 6f84 bfbf 0000 0080 0b40 c73f
00000720: 0000 00a0 3963 bc3f 0000 00c0 f994 cd3f
00000730: 0000 0000 689e cdbf 0000 00e0 a401 c7bf
00000740: 0000 00a0 2e06 b5bf 0000 0060 6b36 a7bf
00000750: 0000 00c0 f97b d2bf 0000 00e0 c954 b4bf
00000760: 0000 0020 3b87 bfbf 0000 0040 4b8b c53f
00000770: 0000 00a0 3a1e bc3f 0000 0080 353a ce3f
00000780: 0000 00c0 19a9 cabf 0000 00e0 7f00 c7bf
00000790: 0000 0080 0c81 b5bf 0000 00a0 91bb a6bf
000007a0: 0000 00c0 b54b d2bf 0000 0080 9ccf b3bf
000007b0: 0000 0040 f622 c1bf 0000 00e0 0ad4 c63f
000007c0: 0000 0060 1ee8 bc3f 0000 00c0 e706 cd3f
000007d0: 0000 0000 3410 ccbf 0000 00e0 fdaf c6bf
000007e0: 0000 00e0 f519 b3bf 0000 0040 9da6 a8bf
000007f0: 0000 00e0 9947 d2bf 0000 0020 ebe4 b0bf
