results/weights/weights_sequence_adamm_0.1111111119389534_7.npy (npy, 571328 bytes, 1 tensors)

array f8 [51, 1400]
0	0x3fc53d50e0000000	0.16593371331691742
1	0xbf9758cec0000000	-0.022799711674451828
2	0x3f7485ee20000000	0.0050105382688343525
3	0x3f935b4320000000	0.018902825191617012
4	0xbfbec23460000000	-0.12015082687139511
5	0x3fabb2b100000000	0.05409768223762512
6	0xbfd449d1c0000000	-0.31700557470321655
7	0xbfbb094d80000000	-0.10561069846153259
8	0xbfb0d12e80000000	-0.06569185853004456
9	0x3fc6f22820000000	0.17926503717899323
10	0x3fc3313b20000000	0.1499399095773697
11	0x3fb081ca20000000	0.06448043137788773
12	0x3fcec8ed40000000	0.24050679802894592
13	0x3f743e7720000000	0.004942384082823992
14	0xbfcae4ed00000000	-0.21011126041412354
15	0x3fc768c240000000	0.18288448452949524
16	0x3f81b1bc40000000	0.008639784529805183
17	0x3fc9392720000000	0.19705666601657867
18	0xbfa94f4aa0000000	-0.04943307116627693
19	0x3f96f1c480000000	0.022406645119190216
20	0xbfd21a54a0000000	-0.28285709023475647
21	0xbf9b905300000000	-0.02691774070262909
22	0xbfd5f9d060000000	-0.3433724343776703
23	0xbfb1324340000000	-0.06717319786548615
24	0xbfbb2b98c0000000	-0.10613398253917694
25	0x3fd18cf7a0000000	0.27422896027565
26	0xbfc66d8f60000000	-0.17521850764751434
27	0xbfbbfee780000000	-0.1093582808971405
28	0xbfaea2bfe0000000	-0.05983543023467064
29	0xbfc1db9720000000	-0.13951386511325836
30	0x3fac5a23a0000000	0.05537520721554756
31	0xbfc7f77720000000	-0.18723954260349274
32	0xbf8e7ea5c0000000	-0.014889998361468315
33	0x3fa0394d20000000	0.0316871739923954
34	0xbfd2651f20000000	-0.28742197155952454
35	0x3fbe2dc840000000	0.11788608133792877
36	0x3fc1b20280000000	0.13824492692947388
37	0x3f9ec87440000000	0.030061546713113785
38	0xbfd2c67420000000	-0.29336264729499817
39	0x3faf2b3420000000	0.06087649241089821
40	0x3fd1c1d320000000	0.2774551212787628
41	0x3fc69d32a0000000	0.1766722947359085
42	0xbfbc3b40a0000000	-0.11027912050485611
43	0x3fba580e20000000	0.10290611535310745
44	0xbfb3103800000000	-0.07446622848510742
45	0xbfd9563b80000000	-0.39588820934295654
46	0xbfa2c59100000000	-0.036663562059402466
47	0x3fa4db34a0000000	0.0407349057495594
48	0x3f28524880000000	0.00018555769929662347
49	0xbfb76581a0000000	-0.09139261394739151
50	0xbfad105900000000	-0.056765347719192505
51	0x3fad15bc80000000	0.05680646002292633
52	0xbfc8ae0140000000	-0.19281020760536194
53	0xbfaa385f20000000	-0.05121133103966713
54	0xbfb5778de0000000	-0.08385550230741501
55	0xbf7e06a300000000	-0.007330548018217087
56	0x3f7086bac0000000	0.004034738056361675
57	0xbfb5e4a1c0000000	-0.08551989495754242
58	0x3fb41bddc0000000	0.07855020463466644
59	0xbfb0416400000000	-0.06349778175354004
60	0x3f9dc24ba0000000	0.029061490669846535
61	0xbf93d31440000000	-0.01935989037156105
62	0x3fc1eabf60000000	0.13997642695903778
63	0xbfc9789060000000	-0.1989918202161789
64	0xbf8cf796a0000000	-0.0141441123560071
65	0xbfb48d8460000000	-0.08028437942266464
66	0xbfc5db1ca0000000	-0.1707492619752884
67	0xbfcef2ece0000000	-0.24178849160671234
68	0xbfb0386fe0000000	-0.06336116045713425
69	0x3fc2b70a60000000	0.1462109535932541
70	0x3fa7388a40000000	0.0453532412648201
71	0x3fc17f3c60000000	0.13669542968273163
72	0x3fc1b02060000000	0.1381874531507492
73	0x3f896e2460000000	0.012417110614478588
74	0xbfa513e560000000	-0.04116741940379143
75	0x3f847ae140000000	0.009999999776482582
76	0x3f847ae140000000	0.009999999776482582
77	0x3f847ae140000000	0.009999999776482582
78	0x3fb65f5660000000	0.08739223331212997
79	0x3fd5a571e0000000	0.3382229506969452
80	0x3fb29efaa0000000	0.07273832708597183
81	0xbfd0047d20000000	-0.2502739727497101
82	0xbfb2788b60000000	-0.07215186208486557
83	0x3fbacad6e0000000	0.10465758293867111
84	0x3fccbf4f40000000	0.2245883047580719
85	0xbf4444f3e0000000	-0.0006185713573358953
86	0x3fca936040000000	0.20762255787849426
87	0xbfb4f327e0000000	-0.08183526247739792
88	0xbfbf1d4d40000000	-0.1215408593416214
89	0x3fd3190480000000	0.29840195178985596
90	0xbfab24c960000000	-0.05301503464579582
91	0xbfb7838ee0000000	-0.09185116738080978
92	0x3fa1528ae0000000	0.03383287414908409
93	0x3fa83192a0000000	0.047253210097551346
94	0xbfd65f1460000000	-0.3495531976222992
95	0x3fcb7b4be0000000	0.21470020711421967
96	0xbfb4c6c360000000	-0.08115788549184799
97	0xbfdb285e00000000	-0.42433881759643555
98	0xbfbd5868e0000000	-0.11463027447462082
99	0xbfa78310c0000000	-0.045921824872493744
100	0x3fabe54380000000	0.05448351800441742
101	0xbfc0f907e0000000	-0.1325998157262802
102	0xbfd9e97720000000	-0.4048745930194855
103	0x3fbde84ba0000000	0.11682579666376114
104	0x3fc7f0fe00000000	0.1870419979095459
105	0xbfd4545980000000	-0.3176482915878296
106	0x3fc407b0a0000000	0.1564846783876419
107	0xbfa95b1c80000000	-0.0495232492685318
108	0x3fc0c6c340000000	0.1310657560825348
109	0x3fc5b5eb20000000	0.16961421072483063
110	0xbf90c3a200000000	-0.01637127995491028
111	0x3fd2674e80000000	0.2875553369522095
112	0xbfd0bc5d40000000	-0.2614968419075012
113	0xbfd288f660000000	-0.28960952162742615
114	0xbfc1e60ee0000000	-0.13983331620693207
115	0xbfc6b16740000000	-0.17728891968727112
116	0xbfd0c8bd60000000	-0.26225218176841736
117	0x3fa716f140000000	0.04509691148996353
118	0x3fbd9c87c0000000	0.11566971242427826
119	0xbfb0a3b5c0000000	-0.06499801576137543
120	0x3fdbd5dd60000000	0.4349282681941986
121	0xbfb2649a80000000	-0.0718475878238678
122	0xbfb305faa0000000	-0.07430998235940933
123	0x3fa02bfe20000000	0.03158563748002052
124	0xbfb207aea0000000	-0.0704297199845314
125	0x3fb108a3c0000000	0.06653808057308197
126	0xbfcbc41ae0000000	-0.21692214906215668
127	0xbf74b018a0000000	-0.0050507509149611
128	0x3fb30c01a0000000	0.07440195232629776
129	0xbfb7a060a0000000	-0.09229091554880142
130	0x3fc590cde0000000	0.16848157346248627
131	0xbfd5209220000000	-0.3301129639148712
132	0xbfbd8a5d20000000	-0.11539251357316971
133	0x3fa237d8a0000000	0.035582322627305984
134	0xbf8344a0c0000000	-0.009408241137862206
135	0x3f48119520000000	0.000734517874661833
136	0x3fb043ca60000000	0.06353440135717392
137	0x3fbbb07ee0000000	0.10816185921430588
138	0x3fc056aa40000000	0.12764480710029602
139	0x3f8b6b7940000000	0.013388583436608315
140	0xbf9b5cb480000000	-0.02672082930803299
141	0xbfd1fcd740000000	-0.2810571789741516
142	0xbfd1df4ee0000000	-0.27925464510917664
143	0x3fdcea5400000000	0.45180225372314453
144	0x3fbd020600000000	0.11331212520599365
145	0xbfd13bb620000000	-0.26926949620246887
146	0xbfc1d49040000000	-0.1392994225025177
147	0xbf9d07ec20000000	-0.028350533917546272
148	0xbf9949b8a0000000	-0.02469528652727604
149	0xbf4ce23020000000	-0.0008814558968879282
150	0x3fcc5457e0000000	0.22132395207881927
151	0xbfbddf7b60000000	-0.11669131368398666
152	0xbfcb8e2ee0000000	-0.2152765840291977
153	0x3fc3416ec0000000	0.15043434500694275
154	0xbfc0011d20000000	-0.12503398954868317
155	0xbfc4960d40000000	-0.16082921624183655
156	0x3fd6626780000000	0.349756121635437
157	0xbfaacdd000000000	-0.05235147476196289
158	0xbfb34969e0000000	-0.0753389522433281
159	0x3f847ae140000000	0.009999999776482582
160	0x3f847ae140000000	0.009999999776482582
161	0x3f847ae140000000	0.009999999776482582
162	0xbfbcfbf7e0000000	-0.1132197305560112
163	0xbfc3e15780000000	-0.1553143858909607
164	0xbf52e12260000000	-0.001152309007011354
165	0xbfb4656fe0000000	-0.07967280596494675
166	0xbfceb2f2c0000000	-0.23983606696128845
167	0x3f8ee0b760000000	0.015077049843966961
168	0xbfbc0f90a0000000	-0.10961250215768814
169	0x3fd0298a20000000	0.2525353729724884
170	0x3fcef0bf00000000	0.2417219877243042
171	0xbfa47c6e20000000	-0.040011826902627945
172	0xbfc21a3120000000	-0.14142431318759918
173	0x3fb6a4a6e0000000	0.0884498879313469
174	0xbfc74a58a0000000	-0.18195636570453644
175	0xbf8513db00000000	-0.010291777551174164
176	0xbfb3f01120000000	-0.07788188010454178
177	0xbfb8fad820000000	-0.09757757931947708
178	0xbfcead9ec0000000	-0.2396734654903412
179	0xbfd176dd40000000	-0.2728798985481262
180	0xbf94489440000000	-0.019808117300271988
181	0x3fd71dde80000000	0.3611980676651001
182	0xbfa9dceac0000000	-0.05051358789205551
183	0x3fa38b1360000000	0.03817043825984001
184	0x3fc4c4e040000000	0.16225817799568176
185	0x3faa8828c0000000	0.0518200621008873
186	0x3fcd7ce420000000	0.23037387430667877
187	0x3fc01db080000000	0.1259060502052307
188	0xbf9398e160000000	-0.019137879833579063
189	0x3fce80f3e0000000	0.2383103221654892
190	0x3fd75293e0000000	0.36441513895988464
191	0xbfc85cf260000000	-0.19033651053905487
192	0x3fc9bda340000000	0.20109978318214417
193	0x3faf846f80000000	0.06155727803707123
194	0xbfc7ed20a0000000	-0.1869240552186966
195	0x3fcb937860000000	0.21543793380260468
196	0xbf842a8be0000000	-0.00984677579253912
197	0x3fb14f0b00000000	0.06761234998703003
198	0x3fc4179380000000	0.15696948766708374
199	0xbfb4ac6c60000000	-0.08075597137212753
200	0xbfaa69b760000000	-0.051587801426649094
201	0xbfbe28b800000000	-0.11780881881713867
202	0xbfa317dd60000000	-0.037291448563337326
203	0xbfbfaa73a0000000	-0.12369463592767715
204	0xbfd320b400000000	-0.2988710403442383
205	0xbf47ae4140000000	-0.0007226770976558328
206	0x3fc2d29600000000	0.14705157279968262
207	0xbfb0a30660000000	-0.06498756259679794
208	0xbfc2193040000000	-0.14139369130134583
209	0x3fcf366500000000	0.24384748935699463
210	0x3fcedcfc20000000	0.241118922829628
211	0x3f98db52c0000000	0.024274151772260666
212	0xbfc3e6cb40000000	-0.1554807722568512
213	0x3fc063d9e0000000	0.12804721295833588
214	0x3fd019b520000000	0.25156906247138977
215	0xbfc1cc4ee0000000	-0.13904748857021332
216	0x3fbed40f80000000	0.12042328715324402
217	0x3fbaf4da80000000	0.10529866814613342
218	0xbfb55a6640000000	-0.08341063559055328
219	0xbfb4507c80000000	-0.07935312390327454
220	0xbfb02ce840000000	-0.06318522989749908
221	0xbfc1b93080000000	-0.1384640336036682
222	0xbf88b0b3c0000000	-0.012055782601237297
223	0xbfc3bd3c00000000	-0.15421247482299805
224	0xbfb5cf3360000000	-0.08519288152456284
225	0x3fb296cea0000000	0.07261363416910172
226	0xbfb1e7eac0000000	-0.06994502246379852
227	0x3fa846e900000000	0.04741600155830383
228	0xbfbe0bcec0000000	-0.11736766993999481
229	0x3fa34c4060000000	0.03769112750887871
230	0xbfb3477160000000	-0.07530888170003891
231	0xbfc3feaea0000000	-0.1562097817659378
232	0x3f95a56000000000	0.021138668060302734
233	0xbfdcafcbc0000000	-0.44822973012924194
234	0xbfbac3ffc0000000	-0.1045532077550888
235	0xbfb3f7f860000000	-0.07800247520208359
236	0xbfc93a9940000000	-0.19710078835487366
237	0x3fa7f95920000000	0.04682425037026405
238	0xbf91f01b60000000	-0.01751749776303768
239	0xbf774ca120000000	-0.005688313860446215
240	0x3fc5254b00000000	0.1652005910873413
241	0x3fc38188a0000000	0.15239055454730988
242	0xbfa14e1280000000	-0.03379876911640167
243	0xbfb2ed2e60000000	-0.07393159717321396
244	0xbf9a632660000000	-0.02576885186135769
245	0x3f47c5ddc0000000	0.0007254917873069644
246	0xbfb656f5a0000000	-0.08726439625024796
247	0xbfb0842ce0000000	-0.0645168349146843
248	0xbf922d22c0000000	-0.01775030419230461
249	0xbfa0ec82a0000000	-0.03305443003773689
250	0xbf9d41d880000000	-0.028571493923664093
251	0x3faf974220000000	0.061700884252786636
252	0xbf9b056980000000	-0.026387833058834076
253	0xbf96ffb800000000	-0.022459864616394043
254	0xbfac0cdc00000000	-0.05478560924530029
255	0x3fd4185520000000	0.313985139131546
