results/weights/weights_sequence_adamm_0.1111111119389534_conv1.bias_1.npy (npy, 1352 bytes, 1 tensors)

array f8 [51, 3]
000000 00 00 00 40 e1 7a 84 3f 00 00 00 40 e1 7a 84 3f
       0.009999999776482582 0.009999999776482582
000010 00 00 00 40 e1 7a 84 3f 00 00 00 00 df b6 b4 3f
       0.009999999776482582 0.08091539144515991
000020 00 00 00 40 3e 33 b7 3f 00 00 00 e0 fc bc 63 3f
       0.09062565863132477 0.0024094523396342993
000030 00 00 00 e0 42 6b b5 3f 00 00 00 a0 3d 01 a9 3f
       0.08366792649030685 0.04883759096264839
000040 00 00 00 00 7b d0 86 3f 00 00 00 e0 6b 76 b2 3f
       0.011139832437038422 0.07211946696043015
000050 00 00 00 e0 03 03 a2 3f 00 00 00 40 0b af 9b 3f
       0.035179253667593 0.027034927159547806
000060 00 00 00 e0 f0 92 a8 3f 00 00 00 00 d0 d1 a1 3f
       0.047996070235967636 0.03480386734008789
000070 00 00 00 c0 42 fb a3 3f 00 00 00 c0 b9 9e 92 3f
       0.03902634233236313 0.018183615058660507
000080 00 00 00 00 e6 58 a6 3f 00 00 00 60 7f a8 a8 3f
       0.04364699125289917 0.04816053435206413
000090 00 00 00 80 5d f1 58 3f 00 00 00 e0 3d 20 ab 3f
       0.0015223897062242031 0.05298035964369774
0000a0 00 00 00 00 2a 27 ad 3f 00 00 00 80 58 f7 87 bf
       0.05693942308425903 -0.011702243238687515
0000b0 00 00 00 e0 de 67 b0 3f 00 00 00 c0 c2 6d b0 3f
       0.06408493965864182 0.06417481601238251
0000c0 00 00 00 40 65 96 92 bf 00 00 00 e0 6f 0c b2 3f
       -0.018151838332414627 0.07050227373838425
0000d0 00 00 00 c0 26 b7 b1 3f 00 00 00 a0 7a 3f 97 bf
       0.06920091807842255 -0.02270309068262577
0000e0 00 00 00 60 91 9a b3 3f 00 00 00 a0 0d 48 b2 3f
       0.07657726854085922 0.07141194492578506
0000f0 00 00 00 c0 32 5e 9b bf 00 00 00 00 42 60 b5 3f
       -0.026726525276899338 0.08350002765655518
000100 00 00 00 00 fe 4d b2 3f 00 00 00 e0 a7 93 9d bf
       0.07150256633758545 -0.028883574530482292
000110 00 00 00 e0 49 5c b6 3f 00 00 00 c0 f3 76 b2 3f
       0.08734571188688278 0.072127565741539
000120 00 00 00 c0 6f 1d 9d bf 00 00 00 80 3b 55 b6 3f
       -0.028432603925466537 0.08723804354667664
000130 00 00 00 a0 3e 38 b2 3f 00 00 00 20 b6 97 9d bf
       0.07117072492837906 -0.028899045661091805
000140 00 00 00 40 7b 0f b6 3f 00 00 00 00 96 ba b1 3f
       0.08617372810840607 0.06925332546234131
000150 00 00 00 80 ef 12 9e bf 00 00 00 60 6f 41 b6 3f
       -0.029369108378887177 0.08693595975637436
000160 00 00 00 e0 f3 e4 b0 3f 00 00 00 20 79 90 9f bf
       0.0659935399889946 -0.030824558809399605
000170 00 00 00 40 05 95 b6 3f 00 00 00 20 b8 f2 ae 3f
       0.08821137249469757 0.060445550829172134
000180 00 00 00 60 74 42 9f bf 00 00 00 a0 f4 8a b6 3f
       -0.030526941642165184 0.08805779367685318
000190 00 00 00 60 a0 da ab 3f 00 00 00 60 0f 98 9f bf
       0.05440236255526543 -0.030853500589728355
0001a0 00 00 00 a0 4b 6d b6 3f 00 00 00 00 62 e3 a8 3f
       0.08760521560907364 0.048609793186187744
0001b0 00 00 00 60 4a 7f 9f bf 00 00 00 20 66 de b5 3f
       -0.030759012326598167 0.08542478829622269
0001c0 00 00 00 20 05 9e a6 3f 00 00 00 40 69 f4 9f bf
       0.04417434707283974 -0.031205791980028152
0001d0 00 00 00 00 5b 2f b5 3f 00 00 00 a0 73 2f a4 3f
       0.08275383710861206 0.03942452743649483
0001e0 00 00 00 80 d5 39 9f bf 00 00 00 40 27 a8 b4 3f
       -0.03049405664205551 0.08069081604480743
0001f0 00 00 00 a0 87 3b a1 3f 00 00 00 e0 ae 4d 9f bf
       0.03365730121731758 -0.0305697750300169
000200 00 00 00 40 90 fe b3 3f 00 00 00 80 d1 e7 9c 3f
       0.07810308039188385 0.028228066861629486
000210 00 00 00 a0 56 7d a0 bf 00 00 00 20 39 99 b3 3f
       -0.032206255942583084 0.0765567496418953
000220 00 00 00 e0 72 17 98 3f 00 00 00 20 3d 23 a1 bf
       0.023526949808001518 -0.0334719754755497
000230 00 00 00 20 5f 39 b3 3f 00 00 00 20 9a bc 93 3f
       0.07509417086839676 0.019274147227406502
000240 00 00 00 a0 22 a5 a1 bf 00 00 00 e0 8f c0 b2 3f
       -0.034463007003068924 0.07325076311826706
000250 00 00 00 c0 a8 c7 8e 3f 00 00 00 00 fb 9a a1 bf
       0.015029257163405418 -0.03438553214073181
000260 00 00 00 c0 64 8e b2 3f 00 00 00 60 38 2b 85 3f
       0.07248525321483612 0.010336342267692089
000270 00 00 00 a0 93 f0 a1 bf 00 00 00 40 41 7c b2 3f
       -0.035038579255342484 0.0722084790468216
000280 00 00 00 00 fe 0d 7b 3f 00 00 00 00 c3 a2 a2 bf
       0.006605140864849091 -0.0363980233669281
000290 00 00 00 e0 78 38 b2 3f 00 00 00 80 87 03 67 3f
       0.07117419689893723 0.00280930008739233
0002a0 00 00 00 a0 f8 86 a3 bf 00 00 00 e0 f5 01 b2 3f
       -0.03813912346959114 0.07034241408109665
0002b0 00 00 00 80 a6 fb 46 bf 00 00 00 20 7b 14 a4 bf
       -0.0007013857830315828 -0.039218757301568985
0002c0 00 00 00 e0 7d f3 b1 3f 00 00 00 60 42 cc 50 bf
       0.0701216384768486 -0.0010252617066726089
0002d0 00 00 00 a0 27 7d a4 bf 00 00 00 60 15 3f b2 3f
       -0.04001735523343086 0.07127507776021957
0002e0 00 00 00 a0 19 ab 60 bf 00 00 00 60 15 ea a4 bf
       -0.0020347118843346834 -0.04084841534495354
0002f0 00 00 00 e0 83 9b b2 3f 00 00 00 80 7d 29 5e bf
       0.07268547266721725 -0.0018409467302262783
000300 00 00 00 e0 7e 93 a5 bf 00 00 00 00 99 97 b2 3f
       -0.04214092716574669 0.07262569665908813
000310 00 00 00 00 a9 70 5a bf 00 00 00 80 c0 55 a6 bf
       -0.001613774336874485 -0.04362298548221588
000320 00 00 00 00 5e 07 b3 3f 00 00 00 00 31 70 5b bf
       0.07433116436004639 -0.0016746977344155312
000330 00 00 00 80 ba ea a6 bf 00 00 00 60 7c 4d b3 3f
       -0.044759586453437805 0.07540109008550644
000340 00 00 00 e0 50 23 5b bf 00 00 00 e0 28 4c a7 bf
       -0.0016563691897317767 -0.0455029271543026
000350 00 00 00 c0 0d 3b b3 3f 00 00 00 e0 a0 81 53 bf
       0.07511983811855316 -0.0011905737919732928
000360 00 00 00 20 84 58 a7 bf 00 00 00 60 1b 32 b3 3f
       -0.045597199350595474 0.07498332113027573
000370 00 00 00 40 90 a3 58 bf 00 00 00 40 3d 5f a7 bf
       -0.001503840321674943 -0.045648492872714996
000380 00 00 00 a0 4c 5b b3 3f 00 00 00 a0 f2 6b 55 bf
       0.07561186701059341 -0.0013074750313535333
000390 00 00 00 20 69 8f a7 bf 00 00 00 c0 ff 62 b3 3f
       -0.046016011387109756 0.0757293552160263
0003a0 00 00 00 40 d3 a3 55 bf 00 00 00 60 87 a0 a7 bf
       -0.0013207972515374422 -0.046146612614393234
0003b0 00 00 00 40 14 51 b3 3f 00 00 00 c0 9c 09 54 bf
       0.0754559189081192 -0.001222994877025485
0003c0 00 00 00 00 82 61 a8 bf 00 00 00 00 1a 16 b3 3f
       -0.04761892557144165 0.07455599308013916
0003d0 00 00 00 80 c4 2f 55 bf 00 00 00 c0 31 6c a8 bf
       -0.0012931269593536854 -0.04770045727491379
0003e0 00 00 00 40 18 1a b3 3f 00 00 00 20 ea fe 52 bf
       0.0746169239282608 -0.0011594091774895787
0003f0 00 00 00 60 41 5c a8 bf 00 00 00 e0 86 12 b3 3f
       -0.047578852623701096 0.07450144737958908
000400 00 00 00 e0 4a 04 4f bf 00 00 00 80 97 fa a8 bf
       -0.0009465566254220903 -0.048786863684654236
000410 00 00 00 20 57 29 b3 3f 00 00 00 60 ea 27 4d bf
       0.07484955340623856 -0.0008897680672816932
000420 00 00 00 a0 85 8c a9 bf 00 00 00 a0 bf 2e b3 3f
       -0.049900222569704056 0.07493207603693008
000430 00 00 00 60 2d f5 46 bf 00 00 00 e0 82 48 aa bf
       -0.000700614124070853 -0.05133446678519249
000440 00 00 00 c0 8f 2e b3 3f 00 00 00 00 d9 5b 1d bf
       0.07492922246456146 -0.00011199485743418336
000450 00 00 00 40 16 70 aa bf 00 00 00 60 e7 32 b3 3f
       -0.051636405289173126 0.0749954804778099
000460 00 00 00 60 8b 71 2c bf 00 00 00 80 06 ae aa bf
       -0.0002170069346902892 -0.05210895836353302
000470 00 00 00 60 85 a4 b3 3f 00 00 00 20 ec b5 2a bf
       0.07672914117574692 -0.00020378596673253924
000480 00 00 00 00 3c e9 aa bf 00 00 00 40 0b bd b3 3f
       -0.05256068706512451 0.07710333168506622
000490 00 00 00 00 26 1f 2b bf 00 00 00 60 60 2a ab bf
       -0.00020692194811999798 -0.053057681769132614
0004a0 00 00 00 60 42 b3 b3 3f 00 00 00 60 6a b4 3e bf
       0.07695402950048447 -0.000468517275294289
0004b0 00 00 00 60 21 b6 ab bf 00 00 00 60 da c8 b3 3f
       -0.05412391945719719 0.07728352397680283
0004c0 00 00 00 00 cd 3e 10 bf
       -6.197096081450582e-05
