results/weights/weights_sequence_zo_adamm_12.333333015441895_conv2.weight_7.npy (npy, 33176 bytes, 1 tensors)

array f8 [51, 81]
000000 00 00 00 80 75 c0 b4 3f 00 00 00 40 b0 f7 ae 3f
       0.08106169104576111 0.06048346310853958
000010 00 00 00 40 f4 e5 bf bf 00 00 00 e0 46 81 b8 3f
       -0.12460257112979889 0.09572260826826096
000020 00 00 00 40 50 a8 d2 bf 00 00 00 80 65 fa c5 3f
       -0.2915230393409729 0.1717039942741394
000030 00 00 00 a0 4f fd b3 bf 00 00 00 a0 67 33 e2 3f
       -0.07808396965265274 0.5687749981880188
000040 00 00 00 a0 ef b7 c4 3f 00 00 00 a0 a0 43 cc bf
       0.1618632823228836 -0.2208138257265091
000050 00 00 00 60 62 c7 ca 3f 00 00 00 40 1b 90 d3 3f
       0.20920972526073456 0.3056705594062805
000060 00 00 00 20 72 39 c8 bf 00 00 00 40 c4 ef ac bf
       -0.18925310671329498 -0.056516773998737335
000070 00 00 00 60 67 82 a0 bf 00 00 00 60 33 81 ab 3f
       -0.03224490210413933 0.05372009798884392
000080 00 00 00 20 04 2b c5 bf 00 00 00 20 d1 d2 b9 3f
       -0.1653752475976944 0.10087306052446365
000090 00 00 00 80 ee 96 c4 3f 00 00 00 00 3f 67 b4 bf
       0.16085606813430786 -0.07970041036605835
0000a0 00 00 00 40 8e f6 c1 bf 00 00 00 80 1c c6 d8 3f
       -0.1403367817401886 0.3870917558670044
0000b0 00 00 00 80 fa cf a0 bf 00 00 00 a0 5a f2 cc 3f
       -0.03283675014972687 0.22614605724811554
0000c0 00 00 00 20 34 89 b4 bf 00 00 00 e0 49 0e d4 bf
       -0.08021856099367142 -0.31337210536003113
0000d0 00 00 00 e0 9b 99 c9 bf 00 00 00 60 50 63 bc bf
       -0.20000027120113373 -0.11089041084051132
0000e0 00 00 00 e0 32 6a d2 3f 00 00 00 e0 a6 7c c8 bf
       0.2877318561077118 -0.1913040727376938
0000f0 00 00 00 00 e6 19 9f 3f 00 00 00 c0 da f2 df 3f
       0.03037223219871521 0.49919766187667847
000100 00 00 00 20 75 47 c9 3f 00 00 00 60 d1 c4 c2 3f
       0.19749321043491364 0.1466314047574997
000110 00 00 00 c0 f7 c9 cd 3f 00 00 00 20 37 f8 c0 3f
       0.2327260673046112 0.1325749307870865
000120 00 00 00 00 9b fd 63 bf 00 00 00 20 21 2a d3 bf
       -0.0024402644485235214 -0.29944637417793274
000130 00 00 00 c0 89 93 97 3f 00 00 00 e0 a3 5f 9c bf
       0.023023750633001328 -0.027708588168025017
000140 00 00 00 c0 21 e3 c8 3f 00 00 00 80 0e ec bc bf
       0.19443151354789734 -0.11297693848609924
000150 00 00 00 e0 73 53 a4 bf 00 00 00 00 86 cb 60 3f
       -0.039699193090200424 0.0020501725375652313
000160 00 00 00 c0 37 d8 a8 3f 00 00 00 e0 aa 60 cc 3f
       0.048524610698223114 0.221700057387352
000170 00 00 00 40 dc 14 ba bf 00 00 00 60 47 fc b2 bf
       -0.10188080370426178 -0.07416196912527084
000180 00 00 00 80 45 74 db 3f 00 00 00 40 46 fa c8 bf
       0.42897164821624756 -0.19513776898384094
000190 00 00 00 60 c0 ed d4 bf 00 00 00 60 86 63 c1 bf
       -0.32701119780540466 -0.1358497589826584
0001a0 00 00 00 20 f9 3f bc bf 00 00 00 20 6c d6 dd 3f
       -0.11035115271806717 0.46621230244636536
0001b0 00 00 00 20 e9 48 b4 3f 00 00 00 40 4b 3b b1 3f
       0.07923752814531326 0.06731100380420685
0001c0 00 00 00 60 8b c7 b3 3f 00 00 00 80 bf 61 d7 bf
       0.07726355642080307 -0.36534106731414795
0001d0 00 00 00 80 e9 57 d5 bf 00 00 00 00 fd a3 c8 3f
       -0.3334907293319702 0.19250452518463135
0001e0 00 00 00 e0 db 4c a5 bf 00 00 00 a0 80 42 c5 bf
       -0.041602011770009995 -0.16609199345111847
0001f0 00 00 00 40 81 94 d2 3f 00 00 00 00 6c 52 c4 3f
       0.2903140187263489 0.15876531600952148
000200 00 00 00 00 e7 83 d7 bf 00 00 00 00 73 0a d9 3f
       -0.36742568016052246 0.3912627696990967
000210 00 00 00 80 cb 32 d2 3f 00 00 00 20 7d 26 d3 bf
       0.28435027599334717 -0.2992241680622101
000220 00 00 00 60 2e bd 97 3f 00 00 00 e0 a5 4e a6 3f
       0.02318260632455349 0.04356878623366356
000230 00 00 00 e0 c6 2d cc 3f 00 00 00 e0 25 ef c0 bf
       0.2201469987630844 -0.13229821622371674
000240 00 00 00 00 31 c3 b1 bf 00 00 00 20 26 cc d4 bf
       -0.0693846344947815 -0.32496026158332825
000250 00 00 00 60 cb 8b b8 bf 00 00 00 a0 8d b0 c1 3f
       -0.0958830937743187 0.13820047676563263
000260 00 00 00 e0 7c 52 b0 3f 00 00 00 00 c0 a7 b6 3f
       0.06375866383314133 0.08849716186523438
000270 00 00 00 c0 49 4d d5 3f 00 00 00 80 37 08 d1 bf
       0.33284229040145874 -0.26612651348114014
000280 00 00 00 a0 9e 85 ac 3f 00 00 00 a0 6b ce 9c 3f
       0.055706936866045 0.028131181374192238
000290 00 00 00 e0 25 af 9d 3f 00 00 00 c0 19 47 c6 bf
       0.028988448902964592 -0.17404481768608093
0002a0 00 00 00 40 12 80 bd 3f 00 00 00 c0 b4 f7 d1 bf
       0.11523546278476715 -0.2807437777519226
0002b0 00 00 00 a0 2e 1a c4 3f 00 00 00 c0 39 41 9b bf
       0.1570490151643753 -0.02661600336432457
0002c0 00 00 00 e0 0b 91 e4 3f 00 00 00 60 96 c9 a6 3f
       0.6427058577537537 0.0445067398250103
0002d0 00 00 00 80 79 cb cb bf 00 00 00 60 47 f2 8c bf
       -0.21714705228805542 -0.01413398515433073
0002e0 00 00 00 40 4f 30 d7 3f 00 00 00 20 1e 13 c1 bf
       0.3623235821723938 -0.13339592516422272
0002f0 00 00 00 e0 a4 ee 9c 3f 00 00 00 40 2a b6 aa bf
       0.028254104778170586 -0.05217105895280838
000300 00 00 00 60 f3 3c 91 3f 00 00 00 20 22 d5 d0 bf
       0.016834070906043053 -0.26300862431526184
000310 00 00 00 a0 00 be c9 3f 00 00 00 00 54 a8 c5 3f
       0.20111091434955597 0.16919946670532227
000320 00 00 00 80 67 e6 b0 3f 00 00 00 00 b9 fa c1 bf
       0.06601569056510925 -0.1404639482498169
000330 00 00 00 a0 cc 5a dd 3f 00 00 00 c0 31 cd 96 bf
       0.45866695046424866 -0.02226712927222252
000340 00 00 00 a0 c5 c7 db 3f 00 00 00 40 b6 65 cb bf
       0.43406811356544495 -0.21404150128364563
000350 00 00 00 00 32 0a db bf 00 00 00 40 ff a2 ce bf
       -0.4224972724914551 -0.23934927582740784
000360 00 00 00 60 2a ef be bf 00 00 00 a0 2c ab c7 3f
       -0.12083687633275986 0.1849113255739212
000370 00 00 00 00 23 b2 d2 bf 00 00 00 20 07 38 b4 3f
       -0.29212260246276855 0.07897991687059402
000380 00 00 00 20 25 ef df 3f 00 00 00 00 c2 71 c3 3f
       0.49897125363349915 0.15190911293029785
000390 00 00 00 c0 85 62 c9 3f 00 00 00 20 6a b0 d7 3f
       0.19831916689872742 0.37014248967170715
0003a0 00 00 00 60 79 8d b5 3f 00 00 00 a0 f8 90 b1 bf
       0.08418997377157211 -0.06861833482980728
0003b0 00 00 00 20 8d c2 c8 bf 00 00 00 20 57 52 c3 3f
       -0.19343723356723785 0.1509503275156021
0003c0 00 00 00 a0 0b 41 c9 bf 00 00 00 a0 f5 af d1 3f
       -0.19729752838611603 0.2763647139072418
0003d0 00 00 00 c0 27 13 b3 bf 00 00 00 a0 ea c6 a6 bf
       -0.07451103627681732 -0.04448636248707771
0003e0 00 00 00 80 04 3f b4 bf 00 00 00 e0 51 56 c8 3f
       -0.07908657193183899 0.19013427197933197
0003f0 00 00 00 80 43 f3 c7 3f 00 00 00 00 43 6c a3 bf
       0.18711131811141968 -0.037935346364974976
000400 00 00 00 60 4e c8 a4 bf 00 00 00 a0 c4 df d9 3f
       -0.040590714663267136 0.40428271889686584
000410 00 00 00 80 c9 d6 c4 bf 00 00 00 60 45 a9 cb bf
       -0.16280478239059448 -0.21610324084758759
000420 00 00 00 20 8e 9e 92 bf 00 00 00 60 cd 6d c0 bf
       -0.018182964995503426 -0.1283508986234665
000430 00 00 00 c0 50 e3 e2 3f 00 00 00 20 fe c1 be 3f
       0.5902484655380249 0.12014759331941605
000440 00 00 00 c0 ad 9b cf 3f 00 00 00 40 5d 3d c2 3f
       0.24693843722343445 0.1424976885318756
000450 00 00 00 80 54 1c d6 bf 00 00 00 80 a6 b6 d2 bf
       -0.3454791307449341 -0.2923980951309204
000460 00 00 00 c0 31 f4 bf 3f 00 00 00 e0 9d 2c a9 3f
       0.12481985986232758 0.04916852340102196
000470 00 00 00 e0 1b 50 c5 bf 00 00 00 c0 7a 98 d3 3f
       -0.16650722920894623 0.3061816096305847
000480 00 00 00 40 58 e1 d1 3f 00 00 00 20 22 f5 d3 bf
       0.2793789505958557 -0.31183674931526184
000490 00 00 00 c0 e5 36 da 3f 00 00 00 a0 a0 73 c9 3f
       0.4096006751060486 0.1988411694765091
0004a0 00 00 00 00 29 68 d8 bf 00 00 00 20 0d 73 bc bf
       -0.38135743141174316 -0.11113054305315018
0004b0 00 00 00 40 67 7f 94 3f 00 00 00 00 b7 d4 d6 3f
       0.02001725509762764 0.3567330837249756
0004c0 00 00 00 00 08 75 d2 bf 00 00 00 80 6d bd b3 bf
       -0.2883930206298828 -0.0771091878414154
0004d0 00 00 00 60 39 ff d7 bf 00 00 00 00 6e 43 c4 bf
       -0.37495264410972595 -0.15830779075622559
0004e0 00 00 00 20 23 2e c2 3f 00 00 00 c0 a0 be af 3f
       0.14203299582004547 0.06200125068426132
0004f0 00 00 00 40 76 af 9b bf 00 00 00 20 2c e5 e0 3f
       -0.027036521583795547 0.5279751420021057
000500 00 00 00 c0 84 35 bb bf 00 00 00 e0 48 8a c1 3f
       -0.10628537833690643 0.137032613158226
000510 00 00 00 60 d9 a3 b9 3f 00 00 00 00 95 25 a6 bf
       0.10015638917684555 -0.04325547814369202
000520 00 00 00 80 ac b3 c0 bf 00 00 00 c0 95 44 72 3f
       -0.1304832100868225 0.00445993896573782
000530 00 00 00 e0 43 a1 ce bf 00 00 00 20 d4 06 c1 3f
       -0.23929642140865326 0.13302089273929596
000540 00 00 00 00 03 e3 af bf 00 00 00 c0 a8 30 e7 3f
       -0.06227883696556091 0.7246898412704468
000550 00 00 00 e0 8c dc 68 bf 00 00 00 20 93 06 d4 bf
       -0.0030348540749400854 -0.3129012882709503
000560 00 00 00 a0 ad 50 8b 3f 00 00 00 20 65 fd d2 3f
       0.013337475247681141 0.29671600461006165
000570 00 00 00 20 50 a1 c5 bf 00 00 00 00 8b 95 9c 3f
       -0.16898538172245026 0.02791421115398407
000580 00 00 00 a0 4a be b3 bf 00 00 00 80 29 89 a8 3f
       -0.07712236791849136 0.04792146384716034
000590 00 00 00 20 1c e5 d5 bf 00 00 00 e0 a3 61 c7 3f
       -0.34210875630378723 0.18266724050045013
0005a0 00 00 00 80 0c 73 cf 3f 00 00 00 60 19 81 ac 3f
       0.24569851160049438 0.05567244812846184
0005b0 00 00 00 e0 3c 54 7a bf 00 00 00 e0 ec 9f e0 3f
       -0.006427991669625044 0.5195221304893494
0005c0 00 00 00 40 41 63 6c bf 00 00 00 a0 35 42 dd 3f
       -0.0034652971662580967 0.4571661055088043
0005d0 00 00 00 40 0f ff ca bf 00 00 00 20 49 2e e1 bf
       -0.21090880036354065 -0.5369001030921936
0005e0 00 00 00 a0 41 21 d5 bf 00 00 00 20 65 50 c2 bf
       -0.33015480637550354 -0.14307846128940582
0005f0 00 00 00 c0 ea 55 c0 3f 00 00 00 00 cc 36 cd bf
       0.12762197852134705 -0.22823476791381836
000600 00 00 00 20 4f f7 bd 3f 00 00 00 a0 ca 54 e0 3f
       0.11705488711595535 0.5103505253791809
000610 00 00 00 a0 ae e8 cc 3f 00 00 00 c0 75 0b c4 3f
       0.2258508950471878 0.1565997302532196
000620 00 00 00 40 a3 50 dc 3f 00 00 00 c0 bd c6 b8 3f
       0.44242173433303833 0.09678255021572113
000630 00 00 00 80 73 79 b9 bf 00 00 00 60 b2 18 cd bf
       -0.09950944781303406 -0.22731618583202362
000640 00 00 00 c0 47 b0 c7 3f 00 00 00 c0 72 2b c1 bf
       0.18506714701652527 -0.13413843512535095
000650 00 00 00 00 f1 99 cf 3f 00 00 00 c0 c2 dd ba bf
       0.24688541889190674 -0.10494630038738251
000660 00 00 00 e0 6c a5 c2 bf 00 00 00 20 a9 6b c1 bf
       -0.14567337930202484 -0.13609804213047028
000670 00 00 00 e0 2a e9 c2 3f 00 00 00 a0 cd 34 d1 3f
       0.1477407068014145 0.26884785294532776
000680 00 00 00 e0 03 3c b2 bf 00 00 00 80 d7 9e 85 bf
       -0.0712282583117485 -0.010556872934103012
000690 00 00 00 60 19 43 e0 3f 00 00 00 60 36 27 bf bf
       0.5081908106803894 -0.12169208377599716
0006a0 00 00 00 e0 f1 eb c5 bf 00 00 00 20 f2 c3 88 3f
       -0.1712629646062851 0.012092486955225468
0006b0 00 00 00 00 55 12 b3 bf 00 00 00 80 3c 2e e5 3f
       -0.07449847459793091 0.6618940830230713
0006c0 00 00 00 60 66 4d c5 3f 00 00 00 c0 49 f1 d2 3f
       0.16642455756664276 0.29597705602645874
0006d0 00 00 00 80 e5 d0 c8 3f 00 00 00 20 d6 e1 d5 bf
       0.1938750147819519 -0.3419089615345001
0006e0 00 00 00 20 c9 a8 d1 bf 00 00 00 c0 f6 9a c3 3f
       -0.2759268581867218 0.15316662192344666
0006f0 00 00 00 80 6e b3 b2 3f 00 00 00 c0 c1 db b8 bf
       0.07305040955543518 -0.09710322320461273
000700 00 00 00 a0 a3 a2 d4 3f 00 00 00 60 4c 8d d1 3f
       0.3224267065525055 0.2742491662502289
000710 00 00 00 a0 64 1d d3 bf 00 00 00 20 8f 31 d9 3f
       -0.2986690104007721 0.3936498463153839
000720 00 00 00 00 81 dc c8 3f 00 00 00 40 64 66 da bf
       0.19422924518585205 -0.41249948740005493
000730 00 00 00 a0 b9 10 c3 bf 00 00 00 60 b1 22 68 bf
       -0.14894790947437286 -0.002946230350062251
000740 00 00 00 40 2b 3e d3 3f 00 00 00 c0 6d c4 d0 bf
       0.30066949129104614 -0.2619890570640564
000750 00 00 00 c0 6c b9 c0 bf 00 00 00 60 e0 2a d6 bf
       -0.13065871596336365 -0.3463669717311859
000760 00 00 00 40 fa 67 c4 bf 00 00 00 e0 0e 5d bc 3f
       -0.15942314267158508 0.11079495400190353
000770 00 00 00 40 f7 0e be 3f 00 00 00 20 49 30 8a 3f
       0.11741586029529572 0.01278741005808115
000780 00 00 00 e0 89 88 dd 3f 00 00 00 40 ba cd b0 bf
       0.46145865321159363 -0.06563915312290192
000790 00 00 00 80 73 af ca 3f 00 00 00 00 76 17 c0 3f
       0.20847934484481812 0.125715970993042
0007a0 00 00 00 e0 25 fb b4 bf 00 00 00 80 b8 7e be bf
       -0.08195721358060837 -0.11912110447883606
0007b0 00 00 00 60 1a 09 a6 3f 00 00 00 a0 51 dd cf bf
       0.043038200587034225 -0.24894161522388458
0007c0 00 00 00 a0 1e 3d c3 3f 00 00 00 20 23 e6 82 bf
       0.1503027230501175 -0.009228014387190342
0007d0 00 00 00 e0 dc f1 e6 3f 00 00 00 e0 96 17 a5 bf
       0.7170242667198181 -0.041195597499608994
0007e0 00 00 00 a0 da 75 d5 bf 00 00 00 c0 9a ce 95 bf
       -0.3353182375431061 -0.021295946091413498
0007f0 00 00 00 20 c4 00 d3 3f 00 00 00 80 05 a0 ca bf
       0.2969217598438263 -0.20800846815109253
