results/weights/weights_sequence_zo_adamm_0.1111111119389534_fc3.bias_3.npy (npy, 4208 bytes, 1 tensors)

array f8 [51, 10]
00000000: 0000 0040 e17a 843f 0000 0040 e17a 843f
00000010: 0000 0040 e17a 843f 0000 0040 e17a 843f
00000020: 0000 0040 e17a 843f 0000 0040 e17a 843f
00000030: 0000 0040 e17a 843f 0000 0040 e17a 843f
00000040: 0000 0040 e17a 843f 0000 0040 e17a 843f
00000050: 0000 0080 9857 b13f 0000 0000 4ad1 ce3f
00000060: 0000 0020 e919 ac3f 0000 0060 d648 be3f
00000070: 0000 0040 b29b b0bf 0000 00a0 fb3b b5bf
00000080: 0000 0080 2f18 af3f 0000 0060 f5d6 c0bf
00000090: 0000 0080 1da2 a1bf 0000 0080 cabe b7bf
000000a0: 0000 00a0 19d8 b43f 0000 0000 e5f4 c93f
000000b0: 0000 0000 0c80 b93f 0000 0080 0c07 c83f
000000c0: 0000 0020 1cab c0bf 0000 00e0 98e0 bbbf
000000d0: 0000 00e0 b7cc 91bf 0000 00a0 772b c0bf
000000e0: 0000 0000 1c0e b8bf 0000 00a0 4106 c2bf
000000f0: 0000 00e0 2fcd b43f 0000 00e0 b20c d23f
00000100: 0000 00e0 0a7d c73f 0000 0060 a0c0 c73f
00000110: 0000 0060 a06e c5bf 0000 0080 0b23 b3bf
00000120: 0000 00e0 c4d8 82bf 0000 0080 74ec c0bf
00000130: 0000 0080 a2a0 babf 0000 0080 059a c4bf
00000140: 0000 0080 c2e3 a83f 0000 0020 67d4 d23f
00000150: 0000 00c0 e766 c33f 0000 00a0 2add c93f
00000160: 0000 0000 da83 c9bf 0000 0000 e21c b5bf
00000170: 0000 0060 ac4b 92bf 0000 00c0 bb7a c2bf
00000180: 0000 0040 e4f7 c2bf 0000 00a0 9daa cabf
00000190: 0000 0000 ee95 973f 0000 00c0 e03a d53f
000001a0: 0000 0060 ab75 c53f 0000 0060 3506 c93f
000001b0: 0000 0020 c4f4 cebf 0000 0020 85f5 b2bf
000001c0: 0000 0040 d1cd a2bf 0000 00e0 2877 c1bf
000001d0: 0000 0060 f300 c4bf 0000 0060 0371 cabf
000001e0: 0000 0000 43ea 7abf 0000 0020 8266 d53f
000001f0: 0000 00c0 3957 c93f 0000 00c0 ea51 c73f
00000200: 0000 00e0 4e99 d2bf 0000 00e0 e730 aebf
00000210: 0000 0000 ea5e 98bf 0000 00c0 0182 c4bf
00000220: 0000 00a0 85bf c4bf 0000 0080 801c d4bf
00000230: 0000 0020 a1d8 8fbf 0000 00a0 ad4b d33f
00000240: 0000 0000 929c c63f 0000 0040 a93e c83f
00000250: 0000 0080 015b d1bf 0000 00e0 d67b a3bf
00000260: 0000 0080 5849 a9bf 0000 0080 8c7e c0bf
00000270: 0000 0080 a83b c2bf 0000 0040 592d d3bf
00000280: 0000 00c0 fa88 a4bf 0000 0040 f43a d43f
00000290: 0000 00c0 d287 c73f 0000 0040 ba47 ca3f
000002a0: 0000 00c0 e24f d1bf 0000 00c0 8202 b8bf
000002b0: 0000 0040 11cd 96bf 0000 00c0 2c69 c4bf
000002c0: 0000 00e0 aa4d c4bf 0000 00a0 e929 d3bf
000002d0: 0000 00c0 bce4 a6bf 0000 0000 348a d63f
000002e0: 0000 0040 5329 c93f 0000 0060 2c90 cb3f
000002f0: 0000 0040 5131 d0bf 0000 0060 449d c2bf
00000300: 0000 00e0 d67a 78bf 0000 00a0 6f13 c4bf
00000310: 0000 0080 ee5b c8bf 0000 00e0 e584 d3bf
00000320: 0000 0040 4652 bfbf 0000 0000 a203 d63f
00000330: 0000 0080 91ef ca3f 0000 0020 7920 ca3f
00000340: 0000 0000 8fc1 d1bf 0000 00a0 2274 bfbf
00000350: 0000 0020 a99b 95bf 0000 00a0 e60b c6bf
00000360: 0000 0020 7f33 c8bf 0000 00a0 a893 d5bf
00000370: 0000 0080 1442 c1bf 0000 0080 e120 d53f
00000380: 0000 0080 e586 c73f 0000 00e0 047b c93f
00000390: 0000 00e0 ecf7 cebf 0000 0080 41c7 c3bf
000003a0: 0000 0080 dd3c 91bf 0000 00c0 605c c9bf
000003b0: 0000 0040 9a22 c6bf 0000 0040 4ba3 d6bf
000003c0: 0000 00a0 8d62 c4bf 0000 00e0 8d4f d53f
000003d0: 0000 0040 173d cb3f 0000 0060 4d02 cd3f
000003e0: 0000 0080 8e88 d0bf 0000 0040 155b b9bf
000003f0: 0000 00e0 48e2 99bf 0000 00e0 ad89 cabf
00000400: 0000 0060 48df c6bf 0000 0040 c5af d7bf
00000410: 0000 00a0 547e c6bf 0000 0060 b3c2 d43f
00000420: 0000 00e0 7011 c93f 0000 00e0 fa9e c93f
00000430: 0000 00a0 2ee3 d0bf 0000 0040 cfd8 bfbf
00000440: 0000 0040 0fdc 78bf 0000 0000 2443 c9bf
00000450: 0000 00e0 093e c7bf 0000 0080 a053 d7bf
00000460: 0000 0080 4294 c5bf 0000 0020 d9da d53f
00000470: 0000 00e0 33b1 cc3f 0000 0020 e9f7 c73f
00000480: 0000 0080 7751 d1bf 0000 0060 b522 bbbf
00000490: 0000 0000 c63d 823f 0000 0020 a02d cbbf
000004a0: 0000 00a0 46d8 c8bf 0000 00e0 9454 d7bf
000004b0: 0000 0020 2cd3 c3bf 0000 0040 e51f d53f
000004c0: 0000 00c0 eacb d03f 0000 00e0 5309 c83f
000004d0: 0000 00e0 03e6 d1bf 0000 0020 3b88 b7bf
000004e0: 0000 0020 95da a03f 0000 00e0 51e2 ccbf
000004f0: 0000 00a0 9545 c4bf 0000 0040 5d7c d6bf
00000500: 0000 0080 84fa c7bf 0000 0060 6632 d43f
00000510: 0000 00a0 5abe d03f 0000 0000 805a c43f
00000520: 0000 00e0 5e73 d1bf 0000 00a0 60ee bbbf
00000530: 0000 0040 4329 a63f 0000 0080 099d c7bf
00000540: 0000 00a0 6a58 c7bf 0000 00c0 eb83 d7bf
00000550: 0000 0040 c2fa c8bf 0000 00e0 daae d33f
00000560: 0000 00a0 28c1 d13f 0000 00c0 9916 c53f
00000570: 0000 00e0 ff57 d3bf 0000 00a0 e1d1 c0bf
00000580: 0000 0000 04bc 74bf 0000 0040 5b1e c7bf
00000590: 0000 0020 42b6 c5bf 0000 00c0 b957 d7bf
000005a0: 0000 0040 f857 c7bf 0000 0060 f74b d43f
000005b0: 0000 0040 a934 d33f 0000 0040 e050 bf3f
000005c0: 0000 0020 9acf d4bf 0000 00a0 3e85 c0bf
000005d0: 0000 00e0 f5cb 523f 0000 0060 a1f8 c9bf
000005e0: 0000 0060 bbfa c1bf 0000 0000 9b38 d7bf
000005f0: 0000 0000 a505 cabf 0000 0020 abe3 d63f
00000600: 0000 00c0 e292 d23f 0000 0080 1a45 c13f
00000610: 0000 0000 e739 d4bf 0000 0000 810b c0bf
00000620: 0000 00a0 dabb 703f 0000 0040 582d c6bf
00000630: 0000 0000 1ddb c3bf 0000 0080 8693 d8bf
00000640: 0000 0000 d0b8 c8bf 0000 0000 f9a2 d83f
00000650: 0000 00e0 0ee1 d33f 0000 00a0 35fd c33f
00000660: 0000 00e0 bd63 d3bf 0000 00a0 44fd c3bf
00000670: 0000 0060 624e 813f 0000 0020 bc81 c6bf
00000680: 0000 0020 5c95 c4bf 0000 0080 4f85 d9bf
00000690: 0000 0060 4e6f c7bf 0000 00a0 12d4 d93f
000006a0: 0000 00c0 1686 d43f 0000 0080 3bb8 c93f
000006b0: 0000 00a0 656a d2bf 0000 0060 8fe7 c6bf
000006c0: 0000 0000 b9b3 91bf 0000 00e0 498e c7bf
000006d0: 0000 0000 0aca c6bf 0000 0000 0d74 dcbf
000006e0: 0000 00e0 ad25 c9bf 0000 0040 437e d93f
000006f0: 0000 0000 b23f d33f 0000 0080 652b cc3f
00000700: 0000 0020 7534 cfbf 0000 0060 8ac7 c9bf
00000710: 0000 00c0 266b 93bf 0000 0040 9c47 c5bf
00000720: 0000 0020 6f8e c6bf 0000 00c0 6232 debf
00000730: 0000 0080 fbaf c6bf 0000 0080 403e db3f
00000740: 0000 00a0 b28e d13f 0000 00a0 6b37 cb3f
00000750: 0000 0060 0e51 d2bf 0000 0000 fe87 c6bf
00000760: 0000 00c0 3ecf 6d3f 0000 0020 64fa c4bf
00000770: 0000 00a0 5213 cbbf 0000 00a0 3420 debf
00000780: 0000 0020 1adf c6bf 0000 0080 662f dc3f
00000790: 0000 0080 7ee6 d23f 0000 0040 0f3c c83f
000007a0: 0000 00c0 010a d2bf 0000 00c0 6e3f c3bf
000007b0: 0000 00c0 297e 88bf 0000 00c0 38d8 c2bf
000007c0: 0000 0060 1059 c8bf 0000 00c0 1ce1 dfbf
000007d0: 0000 00a0 197f c8bf 0000 0000 cc5b dc3f
000007e0: 0000 0040 406e d23f 0000 0060 1f29 cb3f
000007f0: 0000 0060 2c96 d1bf 0000 00a0 e6dd c4bf
0.009999999776482582 0.009999999776482582 0.009999999776482582 0.009999999776482582 0.009999999776482582 0.009999999776482582 0.009999999776482582 0.009999999776482582
0.009999999776482582 0.009999999776482582 0.06774285435676575 0.24076199531555176 0.05488518252968788 0.11829891055822372 -0.06487573683261871 -0.08294651657342911
0.060731396079063416 -0.13156001269817352 -0.03443996608257294 -0.09275498986244202 0.08142242580652237 0.20278608798980713 0.0996100902557373 0.18771511316299438
-0.13022185862064362 -0.10889583081007004 -0.01738250069320202 -0.1263265162706375 -0.09396529197692871 -0.14081592857837677 0.08125590533018112 0.2820250689983368
0.18350349366664886 0.1855659931898117 -0.1674385517835617 -0.07475349307060242 -0.00920251663774252 -0.13221603631973267 -0.104013592004776 -0.16095036268234253
0.04861266911029816 0.29421404004096985 0.1515779197216034 0.2020619660615921 -0.19933629035949707 -0.08247196674346924 -0.017866795882582664 -0.14437052607536316
-0.14819005131721497 -0.20833177864551544 0.02303287386894226 0.3317186236381531 0.16765348613262177 0.19550196826457977 -0.24184466898441315 -0.07405883818864822
-0.036726512014865875 -0.1364489644765854 -0.15627901256084442 -0.20657388865947723 -0.0065710656344890594 0.3343816101551056 0.19797441363334656 0.18218740820884705
-0.29060718417167664 -0.05896687135100365 -0.02379956841468811 -0.1602174937725067 -0.16209478676319122 -0.31423962116241455 -0.01554990652948618 0.3014940321445465
0.17665314674377441 0.18941226601600647 -0.27117955684661865 -0.038054194301366806 -0.04938770830631256 -0.12886196374893188 -0.1424456238746643 -0.2996428608894348
-0.040107570588588715 0.31609827280044556 0.18383249640464783 0.20531395077705383 -0.2705008387565613 -0.09378831088542938 -0.02226664498448372 -0.1594596803188324
-0.158620223402977 -0.2994331419467926 -0.04471387714147568 0.3521852493286133 0.1965736448764801 0.21533732116222382 -0.253010094165802 -0.14542441070079803
-0.0059765237383544445 -0.1568431407213211 -0.19030553102493286 -0.30498644709587097 -0.12234915792942047 0.34397172927856445 0.21043604612350464 0.20411600172519684
-0.2774388790130615 -0.12286583334207535 -0.021101610735058784 -0.17223818600177765 -0.18907155096530914 -0.337137371301651 -0.1348291039466858 0.3301318883895874
0.1838042140007019 0.19906674325466156 -0.24194107949733734 -0.15451830625534058 -0.016833744943141937 -0.19813165068626404 -0.1729309856891632 -0.3537166714668274
-0.15925760567188263 0.33298060297966003 0.21280184388160706 0.226632758975029 -0.258334755897522 -0.09904606640338898 -0.02527727000415325 -0.20732663571834564
-0.17868904769420624 -0.3701031804084778 -0.17573030292987823 0.32438358664512634 0.19584475457668304 0.20016418397426605 -0.2638660967350006 -0.1244020015001297
-0.0060692401602864265 -0.19736146926879883 -0.18158076703548431 -0.3644791841506958 -0.16858702898025513 0.3414824306964874 0.22415779531002045 0.18725313246250153
-0.27059733867645264 -0.10599835962057114 0.008906885981559753 -0.21232987940311432 -0.19410021603107452 -0.36453744769096375 -0.15488196909427643 0.33007174730300903
0.2624461054801941 0.18778465688228607 -0.279664009809494 -0.09192246943712234 0.032917652279138565 -0.22565673291683197 -0.15837354958057404 -0.3513405919075012
-0.18733268976211548 0.3155761659145355 0.2616182863712311 0.1590118408203125 -0.27266666293144226 -0.10910610109567642 0.04328355938196182 -0.18447989225387573
-0.18238575756549835 -0.3674268126487732 -0.19515255093574524 0.30754730105400085 0.277414470911026 0.16475221514701843 -0.3022460639476776 -0.1314050704240799
-0.005062118172645569 -0.1806139051914215 -0.16962458193302155 -0.3647293448448181 -0.18237212300300598 0.31713661551475525 0.30008918046951294 0.12232781946659088
-0.32517102360725403 -0.12906630337238312 0.0011472607729956508 -0.20290009677410126 -0.14046423137187958 -0.36282992362976074 -0.20329725742340088 0.35764577984809875
0.2902151942253113 0.1349213719367981 -0.31603407859802246 -0.12535107135772705 0.00408540153875947 -0.17325881123542786 -0.15512430667877197 -0.38400423526763916
-0.19314002990722656 0.3849470615386963 0.31061145663261414 0.15616483986377716 -0.3029627501964569 -0.15616662800312042 0.008450287394225597 -0.17583419382572174
-0.16080810129642487 -0.3987616300582886 -0.18308429419994354 0.40356889367103577 0.32068413496017456 0.20093482732772827 -0.2877439558506012 -0.17894165217876434
-0.017287150025367737 -0.18402980268001556 -0.1780407428741455 -0.4445831775665283 -0.19646237790584564 0.3983314633369446 0.3007626533508301 0.2200743556022644
-0.24378837645053864 -0.2014019936323166 -0.018963437527418137 -0.1662478744983673 -0.17622174322605133 -0.4718253016471863 -0.17724555730819702 0.42567455768585205
0.274334579706192 0.2126287966966629 -0.2861972749233246 -0.1760251522064209 0.003638861235231161 -0.16389133036136627 -0.21152718365192413 -0.4707156717777252
-0.17868353426456451 0.4403930902481079 0.29531824588775635 0.18933287262916565 -0.2818607687950134 -0.15037330985069275 -0.011959386989474297 -0.147223562002182
-0.1902180165052414 -0.49811476469039917 -0.19137878715991974 0.4431028366088867 0.2879791855812073 0.21219246089458466 -0.27479085326194763 -0.16302187740802765
