results/weights/weights_sequence_zo_adamm_0.1111111119389534_fc1.bias_7.npy (npy, 5432 bytes, 1 tensors)

array f8 [51, 13]
0	0x3f847ae140000000	0.009999999776482582
1	0x3f847ae140000000	0.009999999776482582
2	0x3f847ae140000000	0.009999999776482582
3	0x3f847ae140000000	0.009999999776482582
4	0x3f847ae140000000	0.009999999776482582
5	0x3f847ae140000000	0.009999999776482582
6	0x3f847ae140000000	0.009999999776482582
7	0x3f847ae140000000	0.009999999776482582
8	0x3f847ae140000000	0.009999999776482582
9	0x3f847ae140000000	0.009999999776482582
10	0x3f847ae140000000	0.009999999776482582
11	0x3f847ae140000000	0.009999999776482582
12	0x3f847ae140000000	0.009999999776482582
13	0x3faf2e5060000000	0.06090022251009941
14	0x3f91a64fc0000000	0.01723599061369896
15	0x3fb7daab60000000	0.09318038076162338
16	0xbfab490300000000	-0.05329141020774841
17	0x3f9199d120000000	0.01718832738697529
18	0x3fa594d520000000	0.04215112701058388
19	0xbfb7b77000000000	-0.09264278411865234
20	0xbfa7e319a0000000	-0.046654511243104935
21	0xbfb27a6740000000	-0.07218022644519806
22	0xbf9a1518e0000000	-0.025471104308962822
23	0xbfa3221580000000	-0.037369415163993835
24	0x3fa020cae0000000	0.031500186771154404
25	0x3fbaa54140000000	0.1040840893983841
26	0x3fb7ddd6c0000000	0.09322874248027802
27	0x3fb37e0420000000	0.0761416032910347
28	0x3fc7481560000000	0.18188731372356415
29	0xbfa4399fa0000000	-0.039502132683992386
30	0x3fa03f9f20000000	0.03173539415001869
31	0xbf5884d460000000	-0.0014965127920731902
32	0xbfc1f1f980000000	-0.14019697904586792
33	0xbfb6cf1f40000000	-0.08909793198108673
34	0xbfb7089160000000	-0.08997448533773422
35	0xbfa823f3c0000000	-0.04714929312467575
36	0x3f9a71de40000000	0.025824997574090958
37	0xbf99c2b580000000	-0.025156818330287933
38	0x3fb28c62c0000000	0.07245461642742157
39	0x3fb4718180000000	0.07985696196556091
40	0x3fb0a69b00000000	0.06504219770431519
41	0x3fc71fbb00000000	0.180655837059021
42	0x3f578dd060000000	0.0014376196777448058
43	0x3f96b7e300000000	0.02218584716320038
44	0x3f9bd90d20000000	0.027195172384381294
45	0xbfbef3cb00000000	-0.1209074854850769
46	0xbfb86600a0000000	-0.09530643373727798
47	0xbfc10cbbe0000000	-0.13320110738277435
48	0xbfacc060e0000000	-0.05615523084998131
49	0x3fa3e7fe60000000	0.03887934610247612
50	0x3f6afc84e0000000	0.0032942385878413916
51	0x3fb1ea1a60000000	0.06997837871313095
52	0x3fb8394400000000	0.09462380409240723
53	0x3fbe06e2a0000000	0.11729256063699722
54	0x3fc25bd7e0000000	0.14342783391475677
55	0x3f94dd2fc0000000	0.02037500962615013
56	0x3f7ed87d80000000	0.007530679926276207
57	0x3f92b368a0000000	0.01826251484453678
58	0xbfb17ef340000000	-0.06834335625171661
59	0xbfbe0ae400000000	-0.11735367774963379
60	0xbfc0fa46a0000000	-0.13263781368732452
61	0xbf88c50e60000000	-0.012094604782760143
62	0x3fb0de70e0000000	0.06589417904615402
63	0x3fb52fc280000000	0.08276000618934631
64	0x3fb9140560000000	0.09796174615621567
65	0x3fb6767860000000	0.08774521201848984
66	0x3fb9c637c0000000	0.10068081319332123
67	0x3fba4e3f80000000	0.10275647044181824
68	0xbf9285cac0000000	-0.018088500946760178
69	0x3f9a471a60000000	0.025661861523985863
70	0x3f80866840000000	0.008068861439824104
71	0xbfabb5b9e0000000	-0.05412083491683006
72	0xbfb85b5980000000	-0.0951438844203949
73	0xbfc3aa3bc0000000	-0.15363261103630066
74	0xbf646edd20000000	-0.0024942702148109674
75	0x3fbd6e98e0000000	0.11496882885694504
76	0x3fb6d28320000000	0.08914966136217117
77	0x3fc08d0800000000	0.1293039321899414
78	0x3fb9c636e0000000	0.10068076103925705
79	0x3fc1bc2fc0000000	0.13855549693107605
80	0x3fbfdfb8c0000000	0.12450747191905975
81	0xbf7cda4440000000	-0.0070440927520394325
82	0xbf95032d20000000	-0.020519929006695747
83	0x3f73cd5460000000	0.004834489431232214
84	0xbfb07702c0000000	-0.06431595981121063
85	0xbfc2425860000000	-0.14264969527721405
86	0xbfc5c21dc0000000	-0.16998645663261414
87	0xbfad240380000000	-0.05691538751125336
88	0x3fb4866340000000	0.08017559349536896
89	0x3fb06ec0e0000000	0.06418996304273605
90	0x3fc8c3bc20000000	0.19347335398197174
91	0x3fa92c27c0000000	0.04916500300168991
92	0x3fc473e720000000	0.15978707373142242
93	0x3fbbd53300000000	0.10872191190719604
94	0xbf9d289c40000000	-0.02847522869706154
95	0xbfa9803a80000000	-0.04980643093585968
96	0xbf5323d6c0000000	-0.0011682126205414534
97	0xbfb0bf39a0000000	-0.06541786342859268
98	0xbfc2a23800000000	-0.14557552337646484
99	0xbfc4344540000000	-0.1578451693058014
100	0xbfa66135c0000000	-0.04371040314435959
101	0x3fb97e8460000000	0.09958674758672714
102	0x3fb49e2c00000000	0.08053851127624512
103	0x3fcbc2d2a0000000	0.21688301861286163
104	0x3f99aa3160000000	0.025063296779990196
105	0x3fc40c8d60000000	0.15663306415081024
106	0x3fb8a5fee0000000	0.09628289192914963
107	0xbfb176ffc0000000	-0.0682220309972763
108	0xbfb05cfa40000000	-0.06391872465610504
109	0x3faa9a7400000000	0.05195963382720947
110	0xbfadf9ed00000000	-0.058547407388687134
111	0xbfc1d711a0000000	-0.13937588036060333
112	0xbfc352c0e0000000	-0.1509629338979721
113	0xbf9dec8f40000000	-0.02922271564602852
114	0x3fbba877c0000000	0.10803936421871185
115	0x3fb96bb120000000	0.09929949790239334
116	0x3fc796f620000000	0.18429447710514069
117	0x3fa28c5b00000000	0.03622707724571228
118	0x3fc6a2c8c0000000	0.17684277892112732
119	0x3fb9be3360000000	0.10055848211050034
120	0xbfa83eb820000000	-0.047353509813547134
121	0xbfbbac90c0000000	-0.10810188949108124
122	0x3fa83256a0000000	0.047259051352739334
123	0xbfae23f240000000	-0.05886799842119217
124	0xbfc36a3a20000000	-0.15167929232120514
125	0xbfbed49dc0000000	-0.12043176591396332
126	0xbf3ed8d700000000	-0.00047068833373486996
127	0x3fc53ea860000000	0.1659746617078781
128	0x3fb73528e0000000	0.0906549021601677
129	0x3fc85e4720000000	0.1903771311044693
130	0x3fa9396940000000	0.049266137182712555
131	0x3fc466dae0000000	0.15938888490200043
132	0x3fbb5f3000000000	0.10692119598388672
133	0xbfb5f4fa20000000	-0.08576930314302444
134	0xbfbfd40dc0000000	-0.12432943284511566
135	0x3fb4b65c20000000	0.08090759068727493
136	0xbf9843f020000000	-0.023696662858128548
137	0xbfc52e7500000000	-0.16548025608062744
138	0xbfb5269ee0000000	-0.08262055367231369
139	0xbf93caeb00000000	-0.019328758120536804
140	0x3fc4b814e0000000	0.16186772286891937
141	0x3facb7f7e0000000	0.0560910664498806
142	0x3fc82f2c40000000	0.18893960118293762
143	0x3fb07245a0000000	0.06424365192651749
144	0x3fc561fba0000000	0.16705270111560822
145	0x3fb8497380000000	0.09487077593803406
146	0xbfb5bd70a0000000	-0.08492187410593033
147	0xbfbab10140000000	-0.10426338016986847
148	0x3fb6836d80000000	0.0879429280757904
149	0xbf676873e0000000	-0.002857424085959792
150	0xbfc6f79340000000	-0.17943039536476135
151	0xbfb7b9cd80000000	-0.09267887473106384
152	0x3f89a62600000000	0.012523934245109558
153	0x3fc78aa4e0000000	0.18391858041286469
154	0x3f9eba1340000000	0.03000669553875923
155	0x3fc6376f60000000	0.17356674373149872
156	0x3f9a9aa4a0000000	0.025980541482567787
157	0x3fc57007e0000000	0.1674814075231552
158	0x3faed2b960000000	0.06020144745707512
159	0xbfb5267000000000	-0.08261775970458984
160	0xbfbb47cee0000000	-0.10656445473432541
161	0x3fb676f2c0000000	0.08775250613689423
162	0xbf944aeba0000000	-0.01981704868376255
163	0xbfc6189380000000	-0.17262500524520874
164	0xbfb8b1e0c0000000	-0.09646420180797577
165	0x3f7c2e1620000000	0.006879888940602541
166	0x3fc7fa9900000000	0.18733513355255127
167	0x3fa224adc0000000	0.03543608635663986
168	0x3fc37312a0000000	0.15194924175739288
169	0xbf90804e40000000	-0.01611444726586342
170	0x3fc3a90020000000	0.1535949856042862
171	0x3f9c7a7c80000000	0.027810998260974884
172	0xbfb42ebf40000000	-0.0788383036851883
173	0xbfb514fae0000000	-0.08235137909650803
174	0x3fb42fb740000000	0.07885308563709259
175	0x3f99658a00000000	0.024801403284072876
176	0xbfc4a37f20000000	-0.16123951971530914
177	0xbfb09add20000000	-0.06486303359270096
178	0xbf45984b60000000	-0.0006590240518562496
179	0x3fcb149220000000	0.2115652710199356
180	0x3f7bb2f8e0000000	0.006762478034943342
181	0x3fc18d0a40000000	0.1371167004108429
182	0xbf90459280000000	-0.015890397131443024
183	0x3fc4653560000000	0.15933863818645477
184	0x3fac0c1e20000000	0.05477995052933693
185	0xbfba467d40000000	-0.10263808071613312
186	0xbfaf477920000000	-0.06109217181801796
187	0x3fbf528ba0000000	0.12235329300165176
188	0x3f9a22fa80000000	0.02552405744791031
189	0xbfc52d3f60000000	-0.16544334590435028
190	0xbfac264700000000	-0.054979532957077026
191	0x3f91a98ba0000000	0.017248326912522316
192	0x3fc89ea000000000	0.19234085083007812
193	0xbf3c244080000000	-0.00042940687853842974
194	0x3fbba2caa0000000	0.10795275121927261
195	0xbf919fad60000000	-0.01721068285405636
196	0x3fc117d0e0000000	0.13353930413722992
197	0x3fa0846900000000	0.03226020932197571
198	0xbfc1f06760000000	-0.1401490420103073
199	0xbfa5ba72a0000000	-0.04243810847401619
200	0x3fc1ebbfc0000000	0.14000698924064636
201	0x3f8b54da40000000	0.013345437124371529
202	0xbfc28246c0000000	-0.14460071921348572
203	0xbfa851df80000000	-0.0474996417760849
204	0x3f9aa85e00000000	0.02603289484977722
205	0x3fc57408c0000000	0.16760358214378357
206	0x3f6d05edc0000000	0.0035428660921752453
207	0x3fb7468fe0000000	0.09092044085264206
208	0x3f7eadc600000000	0.007489942014217377
209	0x3fc154f840000000	0.13540557026863098
210	0x3f993f6380000000	0.024655871093273163
211	0xbfc51bcb80000000	-0.16491073369979858
212	0xbfa2a47d00000000	-0.03641119599342346
213	0x3fbf82b6e0000000	0.1230882927775383
214	0x3f956127a0000000	0.02087842859327793
215	0xbfba5bbc00000000	-0.10296225547790527
216	0xbfa027b240000000	-0.03155285865068436
217	0x3f981beba0000000	0.023544007912278175
218	0x3fc6e1b500000000	0.1787630319595337
219	0xbf6c8ae420000000	-0.0034841971937566996
220	0x3fb97422e0000000	0.09942834824323654
221	0xbf59cdf060000000	-0.0015749785816296935
222	0x3fbe8448e0000000	0.119206003844738
223	0x3f9caecb20000000	0.02801053412258625
224	0xbfc2d26a60000000	-0.14704637229442596
225	0xbfb3844ca0000000	-0.07623747736215591
226	0x3fbb0f1b40000000	0.10569925606250763
227	0xbf8ec03d80000000	-0.01501510664820671
228	0xbfb92ebf20000000	-0.0983695462346077
229	0x3f7bbfa240000000	0.006774553097784519
230	0x3f897b34c0000000	0.012442028149962425
231	0x3fc000d6e0000000	0.12502561509609222
232	0x3f832f1920000000	0.009367176331579685
233	0x3fabf27ce0000000	0.05458441004157066
234	0xbf82e1e540000000	-0.009219923987984657
235	0x3fbf2ec420000000	0.12180734425783157
236	0x3f49c30800000000	0.0007861889898777008
237	0xbfc018dae0000000	-0.12575851380825043
238	0xbfba14a3a0000000	-0.10187742859125137
239	0x3fb9d52e80000000	0.10090914368629456
240	0xbf9672a320000000	-0.021921681240200996
241	0xbfc1cdc9c0000000	-0.13909265398979187
242	0x3fa6c206a0000000	0.04444904997944832
243	0x3fa2cac4a0000000	0.03670324757695198
244	0x3fb896d820000000	0.09605170041322708
245	0x3f8b081120000000	0.013198980130255222
246	0x3fb0b03c80000000	0.06518915295600891
247	0xbf82fd2a60000000	-0.009271937422454357
248	0x3fb86f75c0000000	0.0954507440328598
249	0x3f915c0fc0000000	0.016952749341726303
250	0xbfb58ee6c0000000	-0.08421175181865692
251	0xbfb6838280000000	-0.08794417977333069
252	0x3fbaf39140000000	0.10527904331684113
253	0xbfaf12c860000000	-0.060690175741910934
254	0xbfc440aec0000000	-0.158223956823349
255	0x3fa6e5cca0000000	0.04472197964787483
