results/weights/weights_sequence_zo_adamm_0.1111111119389534_fc1.bias_6.npy (npy, 5432 bytes, 1 tensors)

array f8 [51, 13]
00000000: 0000 0040 e17a 843f 0000 0040 e17a 843f
00000010: 0000 0040 e17a 843f 0000 0040 e17a 843f
00000020: 0000 0040 e17a 843f 0000 0040 e17a 843f
00000030: 0000 0040 e17a 843f 0000 0040 e17a 843f
00000040: 0000 0040 e17a 843f 0000 0040 e17a 843f
00000050: 0000 0040 e17a 843f 0000 0040 e17a 843f
00000060: 0000 0040 e17a 843f 0000 0040 3488 973f
00000070: 0000 0060 2bbb aabf 0000 0040 579b c4bf
00000080: 0000 00c0 067e b2bf 0000 0080 b030 9fbf
00000090: 0000 0080 b22e b73f 0000 00c0 b640 a5bf
000000a0: 0000 0080 366c bf3f 0000 00e0 979e a53f
000000b0: 0000 00a0 2e60 79bf 0000 00c0 4bd6 c43f
000000c0: 0000 0040 f0ed 8e3f 0000 0040 c548 adbf
000000d0: 0000 0040 4083 983f 0000 00c0 ffa9 79bf
000000e0: 0000 0040 8280 cabf 0000 0000 4a28 90bf
000000f0: 0000 0060 6deb b7bf 0000 00c0 a953 ac3f
00000100: 0000 00c0 a1cd 963f 0000 0040 9f3c c13f
00000110: 0000 00e0 81f9 983f 0000 00a0 4037 8b3f
00000120: 0000 0020 8e02 c83f 0000 0040 ca0e a9bf
00000130: 0000 0080 22a0 bbbf 0000 00a0 bcae 8d3f
00000140: 0000 00a0 6c1f 6d3f 0000 0080 1d94 cebf
00000150: 0000 0000 53c6 9dbf 0000 0060 b367 b5bf
00000160: 0000 0040 2e45 b13f 0000 0000 2804 b93f
00000170: 0000 0040 5423 c53f 0000 00e0 400f 983f
00000180: 0000 0060 f7ab 6ebf 0000 00c0 cac1 ca3f
00000190: 0000 00e0 a300 a5bf 0000 00e0 30f2 bcbf
000001a0: 0000 0060 d04f 333f 0000 00e0 1a9f 7bbf
000001b0: 0000 00c0 1032 d1bf 0000 00c0 ccb6 8e3f
000001c0: 0000 0060 49ed bbbf 0000 0000 c296 b03f
000001d0: 0000 00c0 f45a b63f 0000 0060 e630 c43f
000001e0: 0000 00a0 6f52 72bf 0000 0080 e9d8 643f
000001f0: 0000 00a0 8ff3 cb3f 0000 00e0 ce77 b0bf
00000200: 0000 0000 2419 b7bf 0000 0040 b681 633f
00000210: 0000 0080 8e34 95bf 0000 00c0 a222 d1bf
00000220: 0000 0000 aa31 543f 0000 00c0 e726 c1bf
00000230: 0000 00a0 ef4f ae3f 0000 0040 e517 be3f
00000240: 0000 00a0 e706 c73f 0000 0000 4722 993f
00000250: 0000 0040 12ec 7c3f 0000 0040 088c cc3f
00000260: 0000 0040 c832 a5bf 0000 00c0 9937 b9bf
00000270: 0000 0000 ff37 923f 0000 00c0 e2c3 713f
00000280: 0000 00a0 3f12 d0bf 0000 00a0 b2a5 763f
00000290: 0000 0080 bcb8 babf 0000 0080 d470 a13f
000002a0: 0000 00e0 a893 b43f 0000 0000 038e c83f
000002b0: 0000 0080 4916 933f 0000 00c0 a198 76bf
000002c0: 0000 0020 ae0b c93f 0000 0000 2da2 a0bf
000002d0: 0000 0000 3c2a b2bf 0000 00e0 1be6 a43f
000002e0: 0000 0080 ed06 6f3f 0000 0060 7b09 d0bf
000002f0: 0000 00a0 405c 5e3f 0000 0000 59ef b6bf
00000300: 0000 00a0 6a40 ae3f 0000 0000 2fd5 a93f
00000310: 0000 0060 0dd1 c93f 0000 0040 0a37 ab3f
00000320: 0000 00e0 4fbb 99bf 0000 0020 275e cd3f
00000330: 0000 0020 c954 a1bf 0000 0060 b046 b4bf
00000340: 0000 0080 3fbb a43f 0000 00a0 7815 a03f
00000350: 0000 0060 63db c6bf 0000 00c0 69cc a0bf
00000360: 0000 0040 cbe8 b8bf 0000 00a0 2395 913f
00000370: 0000 0060 0a8e ad3f 0000 0020 a5e4 cb3f
00000380: 0000 0000 dc6a a93f 0000 00a0 f979 afbf
00000390: 0000 00a0 a7a2 cc3f 0000 00c0 d798 b0bf
000003a0: 0000 00a0 c39f babf 0000 00a0 2440 a93f
000003b0: 0000 00c0 02ee a93f 0000 0060 13b6 c5bf
000003c0: 0000 00a0 de3e b5bf 0000 0000 eaba babf
000003d0: 0000 00a0 364a 853f 0000 0040 b002 a13f
000003e0: 0000 0060 95db cf3f 0000 00c0 f6b8 893f
000003f0: 0000 00c0 6e45 b3bf 0000 0040 4008 ca3f
00000400: 0000 00c0 2418 b6bf 0000 0060 6ecb b8bf
00000410: 0000 0060 f0ee a33f 0000 00e0 6fe1 ba3f
00000420: 0000 0080 c709 c6bf 0000 0060 e2fb b1bf
00000430: 0000 0040 2595 b7bf 0000 0020 5866 7bbf
00000440: 0000 00c0 1ef9 863f 0000 0080 9cad d03f
00000450: 0000 00a0 37d0 9d3f 0000 0060 e145 a9bf
00000460: 0000 00c0 8776 cc3f 0000 00e0 d8a5 babf
00000470: 0000 00e0 12b3 c0bf 0000 00c0 6d9f 8b3f
00000480: 0000 00c0 12dc bb3f 0000 0080 5877 c9bf
00000490: 0000 00e0 8e4f b4bf 0000 00e0 2e16 bdbf
000004a0: 0000 0020 0632 9cbf 0000 0060 b99a 62bf
000004b0: 0000 0020 793d d13f 0000 00e0 76dd af3f
000004c0: 0000 0040 b847 8fbf 0000 0080 993e d03f
000004d0: 0000 0020 9426 b8bf 0000 00e0 e626 bbbf
000004e0: 0000 0080 413e b23f 0000 00a0 805f bb3f
000004f0: 0000 0060 0740 c2bf 0000 0040 dfc3 babf
00000500: 0000 0080 58ca b7bf 0000 0060 8d08 a8bf
00000510: 0000 0020 5ec2 61bf 0000 0060 e53e d13f
00000520: 0000 0060 b9d0 a83f 0000 0080 8c5e 91bf
00000530: 0000 00a0 984c d13f 0000 00e0 4e15 a9bf
00000540: 0000 00e0 d16c c0bf 0000 00a0 df4b b13f
00000550: 0000 0000 7365 ba3f 0000 0040 083f c2bf
00000560: 0000 0020 36b7 b5bf 0000 0080 2787 b6bf
00000570: 0000 0060 be43 b3bf 0000 0060 9a5d 7f3f
00000580: 0000 0040 67d1 d23f 0000 0040 e1cb 9f3f
00000590: 0000 0020 4f8f 933f 0000 0060 6042 d43f
000005a0: 0000 0060 3b88 a6bf 0000 00e0 f292 b8bf
000005b0: 0000 00e0 ff20 bc3f 0000 0020 e655 be3f
000005c0: 0000 00a0 ddce b6bf 0000 00e0 b37f bdbf
000005d0: 0000 0020 141a babf 0000 00c0 8ac3 aebf
000005e0: 0000 00e0 e842 b13f 0000 0000 2bc0 d33f
000005f0: 0000 00a0 f8ea 87bf 0000 00a0 bdf8 aa3f
00000600: 0000 00c0 1a2b d43f 0000 00c0 7302 a1bf
00000610: 0000 00e0 1d58 b9bf 0000 0040 0106 bf3f
00000620: 0000 00e0 cfd2 b73f 0000 00a0 1e52 abbf
00000630: 0000 0040 10d5 bfbf 0000 0000 2c70 b8bf
00000640: 0000 0000 6c1f 9abf 0000 00a0 e248 b53f
00000650: 0000 0000 29fd d53f 0000 0060 5f13 8e3f
00000660: 0000 0000 c82d b53f 0000 0020 61f8 d43f
00000670: 0000 0060 909a 9abf 0000 00c0 f2c7 b0bf
00000680: 0000 0040 e4eb c03f 0000 0000 b150 bc3f
00000690: 0000 00a0 6bdb a4bf 0000 0020 f8b4 c0bf
000006a0: 0000 0020 a4df bebf 0000 0000 f9b0 a8bf
000006b0: 0000 00a0 faf5 b53f 0000 0020 b304 d53f
000006c0: 0000 00e0 07cb 9cbf 0000 00a0 9765 b73f
000006d0: 0000 0020 bd85 d33f 0000 00a0 f137 9dbf
000006e0: 0000 0040 8fd2 b6bf 0000 00c0 8f16 c33f
000006f0: 0000 0020 8fcc c23f 0000 0080 f18b 823f
00000700: 0000 00e0 fb3c babf 0000 0060 4ba2 b2bf
00000710: 0000 0040 5f3d b1bf 0000 00a0 0792 b73f
00000720: 0000 0060 93c3 d63f 0000 00a0 eb9f a2bf
00000730: 0000 0060 3517 bd3f 0000 00c0 13b8 d43f
00000740: 0000 0080 f4eb b9bf 0000 00e0 64a9 b4bf
00000750: 0000 0040 4b81 c23f 0000 0020 7e7a c43f
00000760: 0000 0040 a24d 933f 0000 0040 c24e bdbf
00000770: 0000 00e0 8f69 b2bf 0000 0040 f36e 9abf
00000780: 0000 00c0 926f bb3f 0000 0080 d8e0 d43f
00000790: 0000 0020 906b a0bf 0000 00a0 2c92 bf3f
000007a0: 0000 00e0 2b12 d43f 0000 0000 e006 bfbf
000007b0: 0000 0000 1aa4 b7bf 0000 0020 9a0f c83f
000007c0: 0000 00e0 3af0 c23f 0000 0020 e886 9e3f
000007d0: 0000 0080 f9a8 c0bf 0000 0060 efb5 a7bf
000007e0: 0000 0060 1115 90bf 0000 00c0 3c13 bc3f
000007f0: 0000 0000 aa8e d73f 0000 00e0 0c26 a4bf
0.009999999776482582 0.009999999776482582 0.009999999776482582 0.009999999776482582 0.009999999776482582 0.009999999776482582 0.009999999776482582 0.009999999776482582
0.009999999776482582 0.009999999776482582 0.009999999776482582 0.009999999776482582 0.009999999776482582 0.02298051491379738 -0.052209239453077316 -0.1609906256198883
-0.07223550975322723 -0.030459173023700714 0.09055629372596741 -0.04150935262441635 0.12274494767189026 0.04222559556365013 -0.006195242051035166 0.16278979182243347
0.015102269127964973 -0.05719581991434097 0.02393818274140358 -0.006265639327466488 -0.207046777009964 -0.015778690576553345 -0.09343608468770981 0.05532579869031906
0.02226879820227623 0.13466253876686096 0.024389294907450676 0.013288979418575764 0.1875779777765274 -0.04894096404314041 -0.10791221261024475 0.01449344027787447
0.003555023344233632 -0.23889511823654175 -0.02907685935497284 -0.08361359685659409 0.06746186316013336 0.09771966934204102 0.16514065861701965 0.023495687171816826
-0.0037441093008965254 0.20903906226158142 -0.041020508855581284 -0.1130705401301384 0.00029467427521012723 -0.006743531208485365 -0.26868075132369995 0.014997100457549095
-0.1090894564986229 0.06480038166046143 0.08732537925243378 0.15774230659008026 -0.004473148379474878 0.0025448380038142204 0.21837039291858673 -0.06432812660932541
-0.09022736549377441 0.0023811873979866505 -0.020708300173282623 -0.2677389979362488 0.0012325439602136612 -0.1339997947216034 0.0592036135494709 0.11755211651325226
0.1798982173204422 0.024544820189476013 0.007061072625219822 0.2230234444141388 -0.041403062641620636 -0.09850464761257172 0.017791733145713806 0.004337201826274395
-0.25111380219459534 0.005529115442186594 -0.10438135266304016 0.034063950181007385 0.08037810772657394 0.19183385372161865 0.018639706075191498 -0.005516654811799526
0.19566895067691803 -0.032487303018569946 -0.07095694541931152 0.04081809148192406 0.003787483088672161 -0.25057873129844666 0.0018530493834987283 -0.08958965539932251
0.05908520892262459 0.05045458674430847 0.20169226825237274 0.053154297173023224 -0.025128601118922234 0.22943581640720367 -0.033849988132715225 -0.07920362800359726
0.04049108922481537 0.031413812190294266 -0.1785701960325241 -0.0328095480799675 -0.0973021537065506 0.017170483246445656 0.05772430822253227 0.21791519224643707
0.04964339733123779 -0.06147747114300728 0.22371383011341095 -0.06483219563961029 -0.10400030761957169 0.04931749776005745 0.050644002854824066 -0.16961900889873505
-0.08299056440591812 -0.10441458225250244 0.010395457036793232 0.03322363644838333 0.24888865649700165 0.012559821829199791 -0.07527820765972137 0.20337679982185364
-0.0863059014081955 -0.09685411304235458 0.03893233463168144 0.10500239580869675 -0.17217344045639038 -0.07024969905614853 -0.09211952984333038 -0.0066893999464809895
0.011217346414923668 0.2605963945388794 0.029114598408341408 -0.04936126992106438 0.22236725687980652 -0.10409312695264816 -0.13046489655971527 0.0134876798838377
0.10882680118083954 -0.19895464181900024 -0.07933896034955978 -0.11361973732709885 -0.027534576132893562 -0.00227104383520782 0.2693770229816437 0.06223651394248009
-0.01527351327240467 0.2538207769393921 -0.09433866292238235 -0.10606234520673752 0.07126244902610779 0.10692600160837173 -0.14257900416851044 -0.1045512706041336
-0.09293130040168762 -0.04694024845957756 -0.0021678770426660776 0.2694638669490814 0.04846743866801262 -0.016962237656116486 0.2703000605106354 -0.04899069294333458
-0.12832091748714447 0.0675639882683754 0.10311049222946167 -0.1425485908985138 -0.08482683449983597 -0.08799979090690613 -0.07525243610143661 0.007657626178115606
0.29403096437454224 0.03105117753148079 0.019101368263363838 0.3165512979030609 -0.04400811716914177 -0.09599225968122482 0.1098785325884819 0.11849821358919144
-0.08909402042627335 -0.11522983759641647 -0.1019604280591011 -0.06008561700582504 0.06742721050977707 0.30860400199890137 -0.011678640730679035 0.05267899110913277
0.31513088941574097 -0.033221833407878876 -0.09900080412626266 0.12118537724018097 0.09306048601865768 -0.05336089804768562 -0.1243448406457901 -0.09546160697937012
-0.02551048994064331 0.08314339071512222 0.34357666969299316 0.014685387723147869 0.08272981643676758 0.32765987515449524 -0.025980239734053612 -0.06555096805095673
0.13219884037971497 0.11060625314712524 -0.040736544877290726 -0.1305227428674698 -0.12059999257326126 -0.048225194215774536 0.08578459173440933 0.32841184735298157
-0.028118250891566277 0.09139392524957657 0.3050377666950226 -0.02853372134268284 -0.08915038406848907 0.14912602305412292 0.14686764776706696 0.009055983275175095
-0.1024930402636528 -0.07278891652822495 -0.06734271347522736 0.09207198768854141 0.3556869924068451 -0.03637634590268135 0.11363538354635239 0.32373517751693726
-0.10125663876533508 -0.08070974797010422 0.1445707380771637 0.1599881798028946 0.018850836902856827 -0.11448301374912262 -0.07192324846982956 -0.025813866406679153
0.10717122256755829 0.3262234926223755 -0.03207064047455788 0.1233241930603981 0.3136090934276581 -0.12119865417480469 -0.09234774112701416 0.18797613680362701
0.1479562371969223 0.029811503365635872 -0.13015669584274292 -0.046309929341077805 -0.015705367550253868 0.1096685379743576 0.36808252334594727 -0.03935280069708824
