results/weights/weights_sequence_zo_adamm_0.1111111119389534_fc3.weight_1.npy (npy, 40928 bytes, 1 tensors)

array f8 [51, 100]
0	0x3fd6598e40000000	0.3492160439491272
1	0x3fb5895f00000000	0.08412736654281616
2	0x3fd33c3c00000000	0.3005514144897461
3	0xbfd4300d40000000	-0.3154328465461731
4	0xbf80c75f40000000	-0.008192772045731544
5	0xbf877b1220000000	-0.011465207673609257
6	0xbfe05027c0000000	-0.5097845792770386
7	0x3fa0a26cc0000000	0.03248920291662216
8	0x3fc3204be0000000	0.14942310750484467
9	0x3fd03f0da0000000	0.25384846329689026
10	0x3fc8652220000000	0.19058634340763092
11	0x3fce5ae620000000	0.23714901506900787
12	0xbfde3976a0000000	-0.4722572863101959
13	0xbfe7e2eb40000000	-0.7464500665664673
14	0xbfdeb29180000000	-0.4796489477157593
15	0x3fd4b2e620000000	0.32341912388801575
16	0x3f97fb6600000000	0.023419946432113647
17	0xbf87a915a0000000	-0.011552971787750721
18	0x3fc68b5ba0000000	0.1761278659105301
19	0xbfe099fdc0000000	-0.518797755241394
20	0x3fd0b3e8a0000000	0.2609807550907135
21	0x3fcb4bf300000000	0.21325528621673584
22	0xbfc6779600000000	-0.17552447319030762
23	0x3faab7db40000000	0.05218396335840225
24	0xbfc5de6920000000	-0.17084993422031403
25	0x3fbd6ef4c0000000	0.11497430503368378
26	0x3fdc0d81e0000000	0.4383244216442108
27	0x3fd1783700000000	0.2729623317718506
28	0x3fe1e06360000000	0.5586411356925964
29	0x3fd2c198a0000000	0.2930661737918854
30	0x3fd875f520000000	0.38219955563545227
31	0x3f9d17d5a0000000	0.02841123379766941
32	0x3fab7be520000000	0.05367961898446083
33	0xbfd17fdfe0000000	-0.27342984080314636
34	0x3fc0240320000000	0.12609900534152985
35	0x3fc358b0c0000000	0.1511441171169281
36	0xbfdf5e4b40000000	-0.4901302456855774
37	0xbfd3870a40000000	-0.3051171898841858
38	0xbfe6315820000000	-0.6935234665870667
39	0x3fd4063340000000	0.31287842988967896
40	0x3fe1168d20000000	0.5340028405189514
41	0xbfd4a3c200000000	-0.3224949836730957
42	0x3fcb288700000000	0.21217429637908936
43	0xbf922b4200000000	-0.01774314045906067
44	0x3f9bbc6e20000000	0.027085991576313972
45	0x3fe3f215e0000000	0.6233014464378357
46	0x3fc85e0620000000	0.1903693825006485
47	0x3fd7f25220000000	0.3741650879383087
48	0xbfc5ef4c80000000	-0.17136532068252563
49	0x3fc6d564c0000000	0.17838725447654724
50	0x3fd0693aa0000000	0.25642266869544983
51	0x3fde4b66a0000000	0.4733521044254303
52	0xbfce93f340000000	-0.23889008164405823
53	0xbfbd44f920000000	-0.11433369666337967
54	0xbfe44a5ca0000000	-0.6340773701667786
55	0x3fd791f640000000	0.36828380823135376
56	0xbfd7985ce0000000	-0.36867448687553406
57	0xbfb7cef400000000	-0.0930016040802002
58	0xbfb99c00a0000000	-0.10003665834665298
59	0x3fb607b200000000	0.08605492115020752
60	0x3fd35ba0a0000000	0.3024674952030182
61	0x3fdcaeb860000000	0.44816407561302185
62	0xbf9e5eab60000000	-0.029658010229468346
63	0xbfbe8f4840000000	-0.11937381327152252
64	0xbfdc8fe1c0000000	-0.4462818503379822
65	0x3fbaf77ee0000000	0.10533898323774338
66	0xbfbba43a60000000	-0.10797467082738876
67	0x3fc677dec0000000	0.17553314566612244
68	0xbfd6112160000000	-0.3447955548763275
69	0x3fe2a47080000000	0.5825731754302979
70	0xbfc6651d40000000	-0.17496076226234436
71	0x3fa1d78f80000000	0.034847721457481384
72	0xbfc43eb640000000	-0.15816381573677063
73	0xbfdcf25200000000	-0.45229005813598633
74	0x3fe26e4880000000	0.5759623050689697
75	0xbfc1c172e0000000	-0.13871608674526215
76	0xbfc640b8c0000000	-0.1738501489162445
77	0x3fd922dbc0000000	0.39275258779525757
78	0xbfc64f1280000000	-0.1742880940437317
79	0x3fce5a0ec0000000	0.23712334036827087
80	0x3fd3b2ce00000000	0.3077883720397949
81	0xbfe04b3480000000	-0.5091803073883057
82	0xbfd2176120000000	-0.28267696499824524
83	0xbfd9429e40000000	-0.3946910500526428
84	0x3fa1983b00000000	0.034364551305770874
85	0x3fd38a4f60000000	0.3053167760372162
86	0x3fd3b14b40000000	0.3076961636543274
87	0xbfd31cffa0000000	-0.29864493012428284
88	0x3fafde61c0000000	0.0622435137629509
89	0x3fa9de2b80000000	0.050523146986961365
90	0xbfc250ab20000000	-0.14308680593967438
91	0xbfc1d1b000000000	-0.13921165466308594
92	0xbfa5398800000000	-0.04145455360412598
93	0x3fc1fc9420000000	0.1405205875635147
94	0x3fe31dfa00000000	0.5974092483520508
95	0xbfa5b4d580000000	-0.04239527881145477
96	0x3fe92368c0000000	0.7855724096298218
97	0xbfe160d5c0000000	-0.5430706739425659
98	0x3fcfa3a700000000	0.24718177318572998
99	0xbf9a6a2ae0000000	-0.025795621797442436
100	0x3fdc772a20000000	0.44477322697639465
101	0x3fc47e2e00000000	0.16010069847106934
102	0x3fd25012c0000000	0.28613728284835815
103	0xbfd2033640000000	-0.28144603967666626
104	0x3fad273620000000	0.056939784437417984
105	0xbf90ea2320000000	-0.016518162563443184
106	0xbfe0761ec0000000	-0.5144189596176147
107	0xbf87d1a220000000	-0.011630312539637089
108	0x3fc572c1e0000000	0.16756461560726166
109	0x3fccabc3a0000000	0.22399182617664337
110	0x3fccc22680000000	0.2246749997138977
111	0x3fd6c0f9a0000000	0.3555282652378082
112	0xbfe11e5b80000000	-0.5349557399749756
113	0xbfe7dd3640000000	-0.7457534074783325
114	0xbfda089f40000000	-0.4067762494087219
115	0x3fd39a08a0000000	0.30627647042274475
116	0xbf863f8340000000	-0.010863328352570534
117	0xbf9c007ca0000000	-0.027345607057213783
118	0x3fd4917280000000	0.32137739658355713
119	0xbfe132c760000000	-0.5374485850334167
120	0x3fd065b5c0000000	0.2562078833580017
121	0x3fc54898e0000000	0.16627798974514008
122	0xbfc22b0900000000	-0.14193832874298096
123	0xbfb5b87860000000	-0.08484604209661484
124	0xbfb7eb5660000000	-0.09343471378087997
125	0xbf6cadaac0000000	-0.003500779625028372
126	0x3fd98b8dc0000000	0.39914268255233765
127	0x3fbf796fc0000000	0.12294672429561615
128	0x3fdef8d6e0000000	0.48393794894218445
129	0x3fd6528380000000	0.34878623485565186
130	0x3fd9964260000000	0.39979609847068787
131	0xbfa5fde820000000	-0.042952779680490494
132	0x3fa5cdc460000000	0.042585503309965134
133	0xbfd3233cc0000000	-0.2990257143974304
134	0x3fad8affe0000000	0.05770110711455345
135	0x3fc1c84a80000000	0.13892489671707153
136	0xbfdf1fb620000000	-0.48631051182746887
137	0xbfd04a5a40000000	-0.2545381188392639
138	0xbfe7eb8140000000	-0.7474981546401978
139	0x3fd661d340000000	0.3497207760810852
140	0x3fe1bc0520000000	0.5542016625404358
141	0xbfcc84c580000000	-0.22280186414718628
142	0x3fd0faa9e0000000	0.2652992904186249
143	0xbf79ee2060000000	-0.0063306107185781
144	0xbfaa3e6ca0000000	-0.05125750973820686
145	0x3fe38f9820000000	0.6112785935401917
146	0x3fc2af4bc0000000	0.14597460627555847
147	0x3fd0bc4480000000	0.26149094104766846
148	0xbfd08182c0000000	-0.25790470838546753
149	0x3fb9554080000000	0.09895709156990051
150	0x3fd19905e0000000	0.2749647796154022
151	0x3fdec7e600000000	0.48095083236694336
152	0xbfd2c1eac0000000	-0.2930857539176941
153	0xbfc21df7e0000000	-0.1415395587682724
154	0xbfe29af7c0000000	-0.5814169645309448
155	0x3fd2075680000000	0.2816978693008423
156	0xbfd40c2340000000	-0.31324082612991333
157	0xbfbfe51b00000000	-0.12458962202072144
158	0xbfbdba92c0000000	-0.11612813174724579
159	0x3fb50fb560000000	0.08227094262838364
160	0x3fd483b060000000	0.32053765654563904
161	0x3fdff508c0000000	0.49933069944381714
162	0xbfa3072320000000	-0.03716382756829262
163	0xbfbe4064c0000000	-0.11817006766796112
164	0xbfdecf4620000000	-0.4814009964466095
165	0xbf710e69c0000000	-0.00416413601487875
166	0xbfc9ad78a0000000	-0.20060642063617706
167	0x3fc7514f80000000	0.1821689009666443
168	0xbfdabed180000000	-0.4178966283798218
169	0x3fe327d860000000	0.5986139178276062
170	0xbfc58da880000000	-0.1683855652809143
171	0x3f9a8d48c0000000	0.025929581373929977
172	0xbfc598a0e0000000	-0.16872034966945648
173	0xbfdfbfba00000000	-0.4960770606994629
174	0x3fe3fb1d20000000	0.6244035363197327
175	0xbfb259e1c0000000	-0.07168398797512054
176	0xbfc869bfa0000000	-0.19072718918323517
177	0x3fdbcb9800000000	0.43430137634277344
178	0xbfaeba30e0000000	-0.0600142739713192
179	0x3fcdd181a0000000	0.23295612633228302
180	0x3fdb73ab60000000	0.42893490195274353
181	0xbfe03fb8c0000000	-0.507778525352478
182	0xbfd142cfe0000000	-0.26970288157463074
183	0xbfd1067b20000000	-0.2660205662250519
184	0xbf826e9680000000	-0.008999992161989212
185	0x3fd333ac80000000	0.300028920173645
186	0x3fd0af95a0000000	0.26071682572364807
187	0xbfd72232e0000000	-0.3614623248577118
188	0xbf9709a720000000	-0.022497760131955147
189	0x3f67d32000000000	0.0029082894325256348
190	0xbfd1552e40000000	-0.27082401514053345
191	0xbfc36c8ce0000000	-0.15175019204616547
192	0xbfad2af160000000	-0.05696825310587883
193	0x3fce0aedc0000000	0.2347085177898407
194	0x3fe0cd1de0000000	0.5250386595726013
195	0x3fa899ae20000000	0.04804748669266701
196	0x3fea75c1c0000000	0.8268746137619019
197	0xbfe2633020000000	-0.5746079087257385
198	0x3fc95d5780000000	0.1981610655784607
199	0x3f324780c0000000	0.00027892010984942317
200	0x3fdc464720000000	0.4417894184589386
201	0x3fca91f540000000	0.20757928490638733
202	0x3fcba3f940000000	0.21594157814979553
203	0xbfd1db8c20000000	-0.2790251076221466
204	0x3fb54bede0000000	0.08318983763456345
205	0xbf78894720000000	-0.005990293342620134
206	0xbfe243a020000000	-0.5707550644874573
207	0x3fb7892700000000	0.09193652868270874
208	0x3fc3833de0000000	0.15244267880916595
209	0x3fd5266620000000	0.33046868443489075
210	0x3fd3b8ca80000000	0.30815374851226807
211	0x3fd8bdb1e0000000	0.3865780532360077
212	0xbfd95ed2c0000000	-0.39641255140304565
213	0xbfeac35080000000	-0.8363420963287354
214	0xbfd88bf8c0000000	-0.3835431933403015
215	0x3fd53471a0000000	0.3313259184360504
216	0xbfa2e9ace0000000	-0.03693905100226402
217	0xbfb24d7860000000	-0.07149460166692734
218	0x3fdb138f80000000	0.4230688810348511
219	0xbfe1d29ec0000000	-0.5569604635238647
220	0x3fd19fc2e0000000	0.2753760516643524
221	0x3fc53b2a00000000	0.16586804389953613
222	0xbfc5016760000000	-0.1641053408384323
223	0xbfc432a960000000	-0.15779606997966766
224	0xbfa145d320000000	-0.03373584523797035
225	0xbfa1762fc0000000	-0.03410481661558151
226	0x3fdb7893a0000000	0.42923441529273987
227	0x3fb991cd60000000	0.09988101571798325
228	0x3fde173e00000000	0.4701685905456543
229	0x3fd5375940000000	0.3315032124519348
230	0x3fd9e31a20000000	0.40448620915412903
231	0x3f729432c0000000	0.004535864107310772
232	0xbf89cbbf60000000	-0.012595648877322674
233	0xbfd10efe00000000	-0.2665400505065918
234	0x3fb8071a00000000	0.09385836124420166
235	0x3fc026f7c0000000	0.1261892020702362
236	0xbfddaeb5a0000000	-0.4637884199619293
237	0xbfd16c40a0000000	-0.27223220467567444
238	0xbfe7dc9080000000	-0.7456743717193604
239	0x3fd9e87180000000	0.404812216758728
240	0x3fe0acf3c0000000	0.521112322807312
241	0xbfce35c660000000	-0.23601607978343964
242	0x3fd561dba0000000	0.3340977728366852
243	0x3faefabb80000000	0.06050668656826019
244	0xbfa14dbc00000000	-0.03379619121551514
245	0x3fe2b7d920000000	0.5849424004554749
246	0x3fcbe85f20000000	0.21802891790866852
247	0x3fd25278a0000000	0.2862836420536041
248	0xbfd84adf20000000	-0.37956979870796204
249	0x3fb5e86f60000000	0.08557792752981186
250	0x3fd2cbb200000000	0.2936825752258301
251	0x3fdfc7d6a0000000	0.4965721666812897
252	0xbfd2ba8e80000000	-0.292636513710022
253	0xbfa3568fc0000000	-0.03776978701353073
254	0xbfe0864b60000000	-0.5163933634757996
255	0x3fd402ff60000000	0.31268295645713806
