results/weights/weights_sequence_zo_adamm_0.1111111119389534_fc2.bias_1.npy (npy, 4208 bytes, 1 tensors)

array f8 [51, 10]
00000000: 0000 0040 e17a 843f 0000 0040 e17a 843f
00000010: 0000 0040 e17a 843f 0000 0040 e17a 843f
00000020: 0000 0040 e17a 843f 0000 0040 e17a 843f
00000030: 0000 0040 e17a 843f 0000 0040 e17a 843f
00000040: 0000 0040 e17a 843f 0000 0040 e17a 843f
00000050: 0000 0060 4c2e 753f 0000 0060 530b 55bf
00000060: 0000 00e0 90e2 bcbf 0000 0060 18c3 b9bf
00000070: 0000 00c0 e151 af3f 0000 0040 3f9a b2bf
00000080: 0000 0020 f3ac b03f 0000 0060 090b 753f
00000090: 0000 0080 29be c3bf 0000 0020 448a b33f
000000a0: 0000 0000 19e6 8f3f 0000 0020 f0cb 9abf
000000b0: 0000 00c0 3e8d b2bf 0000 0060 8ecf b9bf
000000c0: 0000 00c0 61a8 b03f 0000 0040 2efe b3bf
000000d0: 0000 0040 00eb b03f 0000 00e0 5855 903f
000000e0: 0000 0080 9eca c9bf 0000 0020 88c9 b63f
000000f0: 0000 0020 d161 ac3f 0000 0040 48f4 a1bf
00000100: 0000 0040 4737 c1bf 0000 0060 b752 b6bf
00000110: 0000 00a0 3347 aa3f 0000 00a0 105e 9ebf
00000120: 0000 0020 5156 a73f 0000 0020 0ab0 733f
00000130: 0000 00e0 164b d0bf 0000 00a0 3ab7 ba3f
00000140: 0000 00c0 eb07 b03f 0000 0080 a83b a4bf
00000150: 0000 0040 fcf0 c5bf 0000 0080 9bdb b7bf
00000160: 0000 00a0 d3e7 aa3f 0000 0020 4102 a3bf
00000170: 0000 0060 c300 b13f 0000 0040 4cb9 6bbf
00000180: 0000 0060 6722 cbbf 0000 00e0 9745 c13f
00000190: 0000 0080 5a78 943f 0000 0040 f976 a4bf
000001a0: 0000 0000 691e c9bf 0000 00a0 f3cf bbbf
000001b0: 0000 0080 bab2 963f 0000 00a0 5f6a 3cbf
000001c0: 0000 0080 d469 ab3f 0000 0060 6595 303f
000001d0: 0000 00e0 2271 cdbf 0000 00c0 073b c03f
000001e0: 0000 00e0 745a a43f 0000 0060 ec3c a6bf
000001f0: 0000 0000 8198 c8bf 0000 0040 4f8c bdbf
00000200: 0000 0020 d241 913f 0000 00c0 310c a13f
00000210: 0000 0020 0218 b33f 0000 0040 7f7e 8dbf
00000220: 0000 0020 9d74 ccbf 0000 00e0 b90f c03f
00000230: 0000 0040 95e8 a63f 0000 00a0 4f31 a6bf
00000240: 0000 0060 18f9 c5bf 0000 00a0 282b b9bf
00000250: 0000 00c0 5ffd 9b3f 0000 0080 9029 36bf
00000260: 0000 0060 3f7b ba3f 0000 0040 f9db 83bf
00000270: 0000 00c0 80ca cbbf 0000 0060 f903 c03f
00000280: 0000 0020 9c6e aa3f 0000 0060 92bc 9abf
00000290: 0000 00a0 ab08 c2bf 0000 0000 f957 bfbf
000002a0: 0000 0080 1c7d 8f3f 0000 00a0 ddac 99bf
000002b0: 0000 0000 634d bc3f 0000 00a0 940a a1bf
000002c0: 0000 0000 ec41 c3bf 0000 0060 a96f bc3f
000002d0: 0000 00a0 0287 b73f 0000 00e0 27bf a3bf
000002e0: 0000 00a0 aaef b9bf 0000 0040 8633 c4bf
000002f0: 0000 0000 6fd0 673f 0000 0080 0785 b1bf
00000300: 0000 0080 cb31 b73f 0000 0040 89f6 98bf
00000310: 0000 0020 d28e c1bf 0000 0040 91de b63f
00000320: 0000 0080 3ccf c03f 0000 00a0 19ff afbf
00000330: 0000 0040 1d56 bcbf 0000 00a0 9cec c7bf
00000340: 0000 0040 93fd a93f 0000 0040 6d87 71bf
00000350: 0000 00c0 415f b43f 0000 0080 13c8 98bf
00000360: 0000 00e0 9741 c0bf 0000 0080 dc99 b43f
00000370: 0000 00c0 eace bc3f 0000 00e0 48fe b7bf
00000380: 0000 0060 c418 c4bf 0000 0020 3041 c3bf
00000390: 0000 0060 dfe2 bd3f 0000 0060 4bf6 96bf
000003a0: 0000 00a0 f938 b13f 0000 0080 3a47 a0bf
000003b0: 0000 0020 3616 babf 0000 0040 6402 b43f
000003c0: 0000 00e0 09cf bc3f 0000 0020 f74b b9bf
000003d0: 0000 00e0 4341 c6bf 0000 00c0 cbf2 c7bf
000003e0: 0000 0060 56e2 bb3f 0000 00e0 58d3 a7bf
000003f0: 0000 00a0 c1db a43f 0000 00a0 6415 a2bf
00000400: 0000 0060 e556 c0bf 0000 0060 6363 ba3f
00000410: 0000 0060 f594 b43f 0000 0020 4c9d b9bf
00000420: 0000 00c0 9ad3 c3bf 0000 0020 4053 c8bf
00000430: 0000 0040 c4bf b73f 0000 00c0 73a8 9abf
00000440: 0000 0000 7226 a43f 0000 00a0 33a3 6f3f
00000450: 0000 00a0 d8f0 c2bf 0000 00e0 7cd7 b83f
00000460: 0000 0020 216c b93f 0000 0060 59c9 b1bf
00000470: 0000 0080 ef7a c7bf 0000 00c0 72f5 c6bf
00000480: 0000 0080 85ff ba3f 0000 00a0 36cd a0bf
00000490: 0000 00a0 3aff 9d3f 0000 0000 6d85 90bf
000004a0: 0000 0000 a99d c0bf 0000 0000 9e50 bd3f
000004b0: 0000 0040 88d2 b33f 0000 0040 12fb aebf
000004c0: 0000 0080 fa2e c1bf 0000 0020 6a77 c4bf
000004d0: 0000 0020 7338 c03f 0000 0020 09b4 763f
000004e0: 0000 00c0 afba a73f 0000 00c0 cd50 afbf
000004f0: 0000 00e0 6471 c1bf 0000 0080 4176 be3f
00000500: 0000 00c0 fdb7 b53f 0000 0000 142e 92bf
00000510: 0000 00e0 1f84 c0bf 0000 0000 76fa c0bf
00000520: 0000 0020 4312 be3f 0000 00c0 e7af 913f
00000530: 0000 0000 d8d0 a23f 0000 0020 67f8 76bf
00000540: 0000 00c0 968d bbbf 0000 0000 d820 b93f
00000550: 0000 00a0 79c0 a53f 0000 0000 df7c 593f
00000560: 0000 00e0 7b76 bdbf 0000 0060 a61b c2bf
00000570: 0000 00c0 82b7 bc3f 0000 0020 a15b 95bf
00000580: 0000 0040 efc4 9d3f 0000 00e0 297e 863f
00000590: 0000 0080 d115 b6bf 0000 0020 9a61 b53f
000005a0: 0000 00a0 ee11 b13f 0000 00a0 688a 8b3f
000005b0: 0000 0020 aaa4 c6bf 0000 00c0 a19b bbbf
000005c0: 0000 0020 af97 c03f 0000 0020 edfe 8cbf
000005d0: 0000 0060 007b a93f 0000 0000 5eea 943f
000005e0: 0000 0020 b55a b9bf 0000 0020 9389 b33f
000005f0: 0000 0060 92eb ba3f 0000 00c0 3464 8fbf
00000600: 0000 0000 01d6 c7bf 0000 0080 2949 b7bf
00000610: 0000 00c0 a5c8 be3f 0000 0000 d3fe 863f
00000620: 0000 00c0 beec 9b3f 0000 0080 b861 643f
00000630: 0000 0080 1b08 b6bf 0000 00e0 698f a33f
00000640: 0000 0080 aa36 ba3f 0000 0020 9cc6 90bf
00000650: 0000 00c0 a06a c6bf 0000 0060 7967 b8bf
00000660: 0000 00c0 c06f b93f 0000 0080 ecd8 9a3f
00000670: 0000 0040 3a4e 9c3f 0000 0060 9f81 903f
00000680: 0000 00c0 8bc0 b0bf 0000 00e0 c1a9 a13f
00000690: 0000 0060 4fe2 ba3f 0000 0060 4ebf 97bf
000006a0: 0000 00e0 c31d c3bf 0000 00c0 9e55 b0bf
000006b0: 0000 0000 cbc3 ae3f 0000 0060 57a7 8b3f
000006c0: 0000 0040 65e9 a13f 0000 0000 c797 7a3f
000006d0: 0000 0080 fe98 a5bf 0000 00c0 c591 ac3f
000006e0: 0000 0060 c90f b73f 0000 0040 1838 a1bf
000006f0: 0000 00e0 82cb c4bf 0000 00e0 9e38 b6bf
00000700: 0000 00e0 3318 a73f 0000 0060 1e61 2ebf
00000710: 0000 0060 b173 a63f 0000 00e0 7b6f 9a3f
00000720: 0000 0040 30b0 b2bf 0000 00a0 e43d b53f
00000730: 0000 0020 776f b33f 0000 0040 2408 a3bf
00000740: 0000 00e0 670f c7bf 0000 00e0 b503 b4bf
00000750: 0000 0080 da97 ad3f 0000 00a0 1659 68bf
00000760: 0000 0080 279d af3f 0000 00e0 222b 9a3f
00000770: 0000 0040 2926 b8bf 0000 0020 7f38 b73f
00000780: 0000 0040 bdf3 b03f 0000 0060 d660 a0bf
00000790: 0000 0040 973c c6bf 0000 00e0 6b5a b9bf
000007a0: 0000 0060 09b5 b13f 0000 0080 bdd8 82bf
000007b0: 0000 0040 7529 933f 0000 00c0 b27e b03f
000007c0: 0000 0040 ade3 bebf 0000 00e0 a2c6 b63f
000007d0: 0000 00e0 b2a5 a93f 0000 00a0 11f5 a5bf
000007e0: 0000 0000 f5eb c3bf 0000 00a0 ea28 bfbf
000007f0: 0000 0000 3ae6 b83f 0000 0060 4d7b a1bf
0.009999999776482582 0.009999999776482582 0.009999999776482582 0.009999999776482582 0.009999999776482582 0.009999999776482582 0.009999999776482582 0.009999999776482582
0.009999999776482582 0.009999999776482582 0.0051711066626012325 -0.0012844385346397758 -0.11283212155103683 -0.1006331667304039 0.06117158383131027 -0.07266612350940704
0.06513900309801102 0.005137478467077017 -0.15424078702926636 0.07632852345705032 0.015575595200061798 -0.026168586686253548 -0.07246772944927216 -0.1008233055472374
0.0650693029165268 -0.07809723913669586 0.0660858303308487 0.015950573608279228 -0.2014959454536438 0.08901263028383255 0.05543378368020058 -0.03506685048341751
-0.1344994604587555 -0.08719965070486069 0.051324475556612015 -0.029655704274773598 0.0455804206430912 0.004806556273251772 -0.25458309054374695 0.10435835272073746
0.0626208633184433 -0.03951765596866608 -0.17141678929328918 -0.09319469332695007 0.052549947053194046 -0.037126574665308 0.06641789525747299 -0.003384255338460207
-0.2119874209165573 0.13493631780147552 0.019990362226963043 -0.03997019678354263 -0.19624054431915283 -0.1086418405175209 0.022166170179843903 -0.0004335864505264908
0.053541794419288635 0.0002530453202780336 -0.23001514375209808 0.12680146098136902 0.03975262865424156 -0.04343355819582939 -0.19215404987335205 -0.11542220413684845
0.016852648928761482 0.03329616039991379 0.07458508759737015 -0.014401430264115334 -0.22230876982212067 0.12547992169857025 0.044743217527866364 -0.04334496334195137
-0.1716642826795578 -0.0983147993683815 0.027333732694387436 -0.000338170793838799 0.10344310849905014 -0.00969691015779972 -0.21711739897727966 0.12512128055095673
0.05162513628602028 -0.02610996924340725 -0.14088959991931915 -0.12243610620498657 0.015375349670648575 -0.025073492899537086 0.11055582761764526 -0.03328384831547737
-0.15044927597045898 0.11107882112264633 0.09190384298563004 -0.03856777772307396 -0.1013132706284523 -0.1578224003314972 0.0029070060700178146 -0.06843611598014832
0.09060356020927429 -0.024377960711717606 -0.13717104494571686 0.08933360874652863 0.13132435083389282 -0.062493134289979935 -0.11068899929523468 -0.1869083195924759
0.05076275020837784 -0.004279543645679951 0.07957850396633148 -0.02420073002576828 -0.12700174748897552 0.08047273755073547 0.11253230273723602 -0.093723826110363
-0.15700583159923553 -0.15042687952518463 0.1167430505156517 -0.022423913702368736 0.06727562099695206 -0.03179343044757843 -0.10190141946077347 0.07816149294376373
0.11253415793180466 -0.09881538897752762 -0.17386673390865326 -0.18709704279899597 0.10892238467931747 -0.046534325927495956 0.04073910787701607 -0.03531946614384651
-0.1276518553495407 0.10307904332876205 0.08039792627096176 -0.10005641728639603 -0.15489515662193298 -0.19004060328006744 0.09276987612247467 -0.026033218950033188
0.0393558144569397 0.0038620003033429384 -0.14797504246234894 0.09703808277845383 0.09930617362260818 -0.0694785937666893 -0.1834391951560974 -0.17936548590660095
0.10546144843101501 -0.03281565383076668 0.029293933883309364 -0.016133978962898254 -0.12981140613555908 0.11451137065887451 0.07743121683597565 -0.060509271919727325
-0.13424617052078247 -0.15989424288272858 0.12672270834445953 0.0055427891202270985 0.04634618014097214 -0.06116335839033127 -0.13627301156520844 0.11899194121360779
0.08483873307704926 -0.017753899097442627 -0.12903212010860443 -0.132643461227417 0.11746615916490555 0.01727258786559105 0.03674960136413574 -0.005607989151030779
-0.10762922465801239 0.09815740585327148 0.0424840934574604 0.001555650494992733 -0.11508917063474655 -0.141468808054924 0.11217515170574188 -0.020857350900769234
0.029071558266878128 0.010982825420796871 -0.08627042174339294 0.08352053910493851 0.06667987257242203 0.013447587378323078 -0.17690016329288483 -0.10784350335597992
0.12962903082370758 -0.01415810827165842 0.049766551703214645 0.02042528986930847 -0.09904033690690994 0.07631797343492508 0.1051570400595665 -0.015327846631407738
-0.18621838092803955 -0.09096011519432068 0.12024913728237152 0.011228226125240326 0.027270298451185226 0.0024880031123757362 -0.08606120944023132 0.03820353373885155
0.1023966372013092 -0.01638263650238514 -0.1751290261745453 -0.09532888978719711 0.09936146438121796 0.026218123733997345 0.02764216437935829 0.016119470819830894
-0.06543801724910736 0.034498270601034164 0.10501571744680405 -0.023190712556242943 -0.14934585988521576 -0.0638064593076706 0.06008753180503845 0.013502771966159344
0.034983791410923004 0.006492402404546738 -0.04218287765979767 0.05579965561628342 0.09008463472127914 -0.0336310938000679 -0.16246066987514496 -0.08680146187543869
0.04510652646422386 -0.00023177619732450694 0.04385141655802727 0.025815902277827263 -0.07300092279911041 0.08297566324472427 0.07591957598924637 -0.037171490490436554
-0.1801576465368271 -0.07818161696195602 0.05779917538166046 -0.0029721681494265795 0.061745867133140564 0.02555517666041851 -0.09433229267597198 0.09070581942796707
0.06621916592121124 -0.03198881074786186 -0.17372408509254456 -0.09903597086668015 0.06916864961385727 -0.009202461689710617 0.018712837249040604 0.0644332617521286
-0.12066157162189484 0.08896844834089279 0.05009230598807335 -0.04288535192608833 -0.15563833713531494 -0.12171808630228043 0.09726297855377197 -0.0341438464820385
