results/weights/weights_sequence_zo_adamm_0.1111111119389534_fc2.weight_8.npy (npy, 53168 bytes, 1 tensors)

array f8 [51, 130]
00000000: 0000 00c0 cd87 d63f 0000 0060 50f2 c0bf
00000010: 0000 00c0 3c04 82bf 0000 00e0 cad7 cf3f
00000020: 0000 00a0 03a7 d9bf 0000 0000 430e c93f
00000030: 0000 0020 0b95 99bf 0000 0000 39da cbbf
00000040: 0000 0080 687b ac3f 0000 0080 ba4c d7bf
00000050: 0000 0020 87f7 e23f 0000 00e0 cabc a8bf
00000060: 0000 00c0 bdda bf3f 0000 0000 56da c13f
00000070: 0000 00e0 3541 9f3f 0000 00e0 ffb4 b53f
00000080: 0000 00c0 b17b 9e3f 0000 00c0 ebd5 b6bf
00000090: 0000 0080 4485 d9bf 0000 00e0 4e4b 6c3f
000000a0: 0000 0060 7705 dfbf 0000 0040 bab8 a53f
000000b0: 0000 00e0 f450 acbf 0000 0020 7941 cabf
000000c0: 0000 00a0 b77e e03f 0000 00c0 f520 d4bf
000000d0: 0000 00c0 94cf d3bf 0000 0000 2e06 a93f
000000e0: 0000 0000 c7aa d63f 0000 0060 4329 bcbf
000000f0: 0000 0020 843d 97bf 0000 0040 c9b0 763f
00000100: 0000 00e0 158a d43f 0000 0060 4a20 863f
00000110: 0000 00a0 e1a9 d73f 0000 0040 0b29 bb3f
00000120: 0000 0000 a39b d13f 0000 00c0 94d8 d6bf
00000130: 0000 00a0 b251 d7bf 0000 00c0 08ee c43f
00000140: 0000 0080 c6ca d7bf 0000 0020 70e6 b03f
00000150: 0000 00c0 208d db3f 0000 00a0 d86a dd3f
00000160: 0000 0000 5b0b c5bf 0000 0000 947b d7bf
00000170: 0000 0060 7aa2 a83f 0000 0000 cdcc d3bf
00000180: 0000 0060 4bc8 cb3f 0000 0080 75a7 ddbf
00000190: 0000 0080 cc24 c6bf 0000 0020 3805 d9bf
000001a0: 0000 0000 cfc8 dfbf 0000 0040 8c1d c33f
000001b0: 0000 0080 2ce2 7d3f 0000 00e0 287a cfbf
000001c0: 0000 0020 9804 cf3f 0000 0000 cfd9 c23f
000001d0: 0000 0080 4b7d c53f 0000 0080 8cd8 c43f
000001e0: 0000 0000 f22f ce3f 0000 0040 804f da3f
000001f0: 0000 0020 9c24 a2bf 0000 0000 1b9b bcbf
00000200: 0000 00a0 d42d bd3f 0000 0080 bacc d4bf
00000210: 0000 00c0 e0f8 d4bf 0000 0020 94fa babf
00000220: 0000 0020 57ba aebf 0000 00c0 5f5f d03f
00000230: 0000 0040 7ddd c93f 0000 0060 6fda bcbf
00000240: 0000 00c0 c68b bf3f 0000 00a0 2f90 d23f
00000250: 0000 0060 f79a c23f 0000 0060 1e76 be3f
00000260: 0000 00e0 13db b8bf 0000 0020 8c1d db3f
00000270: 0000 0000 e51a c63f 0000 0020 eab5 b9bf
00000280: 0000 0000 3bcf c3bf 0000 0080 a3e7 d7bf
00000290: 0000 0020 8d67 e63f 0000 00c0 a0a3 d83f
000002a0: 0000 00e0 b3d3 d0bf 0000 0040 a06b dbbf
000002b0: 0000 0020 28b9 c8bf 0000 00e0 fb6b c43f
000002c0: 0000 0080 03e8 c6bf 0000 00c0 dc55 c43f
000002d0: 0000 00a0 2396 cc3f 0000 00e0 9c0d d13f
000002e0: 0000 00c0 02eb d2bf 0000 0080 2168 bb3f
000002f0: 0000 00e0 8bcf c4bf 0000 0000 1b95 c4bf
00000300: 0000 0080 103a c93f 0000 00e0 de42 b6bf
00000310: 0000 0060 027a a33f 0000 00e0 ed2e c3bf
00000320: 0000 0040 a4ed 9f3f 0000 00e0 23f8 dabf
00000330: 0000 00a0 5a08 b83f 0000 00c0 1b6c d03f
00000340: 0000 00e0 d68f 8a3f 0000 00e0 3e2c b6bf
00000350: 0000 0080 e6f0 d0bf 0000 00a0 2cba aebf
00000360: 0000 0080 2dc9 b33f 0000 0000 5daa b83f
00000370: 0000 00e0 8437 c2bf 0000 0060 0f25 c9bf
00000380: 0000 0000 ca8c ca3f 0000 00c0 ebdf a13f
00000390: 0000 0020 62e8 a73f 0000 00e0 969e d83f
000003a0: 0000 0000 086e e13f 0000 0040 ea8d c9bf
000003b0: 0000 0060 f744 dc3f 0000 0040 9992 b8bf
000003c0: 0000 00c0 8599 d2bf 0000 00a0 f85a cbbf
000003d0: 0000 0020 7a28 b33f 0000 0040 714a b5bf
000003e0: 0000 00c0 0cc2 d83f 0000 0020 2c37 d43f
000003f0: 0000 00c0 8c79 d6bf 0000 00c0 b78d bebf
00000400: 0000 0060 7b93 d1bf 0000 00a0 6f07 d23f
00000410: 0000 00e0 f859 d63f 0000 00e0 8e7e c6bf
00000420: 0000 00c0 808f ac3f 0000 0000 bea1 ce3f
00000430: 0000 0000 3570 d3bf 0000 0080 2f23 c13f
00000440: 0000 0080 1f40 c7bf 0000 00a0 bc29 cfbf
00000450: 0000 0040 a128 a13f 0000 00c0 a3b5 d4bf
00000460: 0000 00c0 57c1 e13f 0000 0040 edb9 b13f
00000470: 0000 0060 057f c0bf 0000 0000 df25 cd3f
00000480: 0000 0040 d9af 743f 0000 0060 d39e c13f
00000490: 0000 00a0 184c b3bf 0000 00e0 08c6 73bf
000004a0: 0000 0080 a08c ddbf 0000 0040 826e 933f
000004b0: 0000 0020 e030 dabf 0000 0060 e191 b6bf
000004c0: 0000 0040 a53e bebf 0000 0020 2b52 c9bf
000004d0: 0000 0020 e16c d73f 0000 00c0 672d d3bf
000004e0: 0000 0040 d505 cebf 0000 0000 c075 ba3f
000004f0: 0000 00e0 398d d93f 0000 0080 6353 c3bf
00000500: 0000 0080 27e1 a8bf 0000 0080 7ba9 b73f
00000510: 0000 0080 f460 d63f 0000 0020 a7c2 9b3f
00000520: 0000 0020 fe51 d93f 0000 0000 418c abbf
00000530: 0000 00c0 f899 cc3f 0000 00e0 3be0 d7bf
00000540: 0000 00a0 6ad8 d5bf 0000 0040 eb89 cc3f
00000550: 0000 00e0 c372 d9bf 0000 00e0 d93d 84bf
00000560: 0000 00c0 2576 d63f 0000 00e0 e158 de3f
00000570: 0000 00c0 b688 c9bf 0000 00c0 a94b d3bf
00000580: 0000 00e0 28eb 9e3f 0000 00a0 1a1e d6bf
00000590: 0000 00e0 ea90 cb3f 0000 0060 1775 d6bf
000005a0: 0000 00a0 db48 cdbf 0000 0020 480c ddbf
000005b0: 0000 0000 93ee d7bf 0000 00c0 7e92 a5bf
000005c0: 0000 0040 1e34 af3f 0000 0080 6cfe d5bf
000005d0: 0000 0040 027e d53f 0000 0060 28e9 c23f
000005e0: 0000 0060 e463 c43f 0000 00c0 6737 c63f
000005f0: 0000 00a0 aff4 d33f 0000 0080 5c96 e03f
00000600: 0000 0080 4d40 b33f 0000 00e0 e7e3 a5bf
00000610: 0000 0020 da33 733f 0000 0040 f335 d8bf
00000620: 0000 00a0 69e9 d7bf 0000 00c0 294a 9a3f
00000630: 0000 0080 ad0f b8bf 0000 00a0 7387 d93f
00000640: 0000 00a0 9ceb d43f 0000 0020 4f87 c4bf
00000650: 0000 0020 4972 c63f 0000 00c0 7b79 cb3f
00000660: 0000 0020 d900 b0bf 0000 0080 4291 c53f
00000670: 0000 00c0 38cc b9bf 0000 00a0 9a85 dd3f
00000680: 0000 00e0 c1af bc3f 0000 0060 540c c3bf
00000690: 0000 0040 d971 cebf 0000 00a0 2900 dbbf
000006a0: 0000 0080 97c3 e83f 0000 0000 a301 d53f
000006b0: 0000 00a0 4bd9 c3bf 0000 0020 5c8d dbbf
000006c0: 0000 00a0 31e0 d0bf 0000 0060 3661 b93f
000006d0: 0000 00a0 b05d d3bf 0000 0020 ff3e d63f
000006e0: 0000 00c0 f385 ca3f 0000 0080 03e5 d33f
000006f0: 0000 00a0 f038 ccbf 0000 00c0 9bad ca3f
00000700: 0000 0060 0d87 c6bf 0000 00e0 39a3 c1bf
00000710: 0000 0040 5959 cb3f 0000 0060 35f2 a6bf
00000720: 0000 00e0 8029 c53f 0000 00c0 e9e6 b7bf
00000730: 0000 00c0 bb8b b23f 0000 00c0 54b5 cebf
00000740: 0000 0080 f0e3 c23f 0000 0080 45b7 c43f
00000750: 0000 0040 ae66 b4bf 0000 0020 1cb5 c4bf
00000760: 0000 0040 357a ccbf 0000 0080 3021 abbf
00000770: 0000 0040 f0da ba3f 0000 0060 575f a03f
00000780: 0000 0080 85de c6bf 0000 0080 409c d3bf
00000790: 0000 0000 2909 c33f 0000 00a0 e4b7 913f
000007a0: 0000 0060 220e c63f 0000 0060 b52a dd3f
000007b0: 0000 0000 86f2 dd3f 0000 0000 7b6e cebf
000007c0: 0000 0080 1151 e03f 0000 0040 574d c8bf
000007d0: 0000 0060 2fd4 d5bf 0000 00c0 3126 c3bf
000007e0: 0000 00a0 36c7 bf3f 0000 0060 af35 c0bf
000007f0: 0000 0040 23b8 d83f 0000 0000 7004 d93f
0.35203880071640015 -0.13239483535289764 -0.008797144517302513 0.24877296388149261 -0.40081873536109924 0.1957477331161499 -0.024982618167996407 -0.2175971269607544
0.055629029870033264 -0.36405813694000244 0.5927157998085022 -0.048315372318029404 0.12443147599697113 0.13947558403015137 0.030522195622324944 0.0847930833697319
0.02976873144507408 -0.0892016738653183 -0.39875900745391846 0.00345387845300138 -0.48470863699913025 0.04242498427629471 -0.05530514940619469 -0.20512308180332184
0.515468418598175 -0.3145117163658142 -0.30954474210739136 0.048875272274017334 0.3541734218597412 -0.11000462621450424 -0.022695602849125862 0.0055396901443600655
0.32092806696891785 0.010803776793181896 0.3697437345981598 0.10609503090381622 0.27512431144714355 -0.35696905851364136 -0.364361435174942 0.16351422667503357
-0.37175142765045166 0.06601620465517044 0.4304887652397156 0.4596463739871979 -0.16440904140472412 -0.36691761016845703 0.048114608973264694 -0.3093750476837158
0.2170500010251999 -0.46334588527679443 -0.17299801111221313 -0.3909435570240021 -0.496631383895874 0.1493392288684845 0.007295774295926094 -0.2459155172109604
0.2423277050256729 0.147271990776062 0.16788619756698608 0.16285854578018188 0.2358381748199463 0.4111023545265198 -0.03543556109070778 -0.11174172163009644
0.11398056894540787 -0.32499563694000244 -0.3276903033256531 -0.10538602620363235 -0.06001541391015053 0.255821168422699 0.20207181572914124 -0.11270805448293686
0.12322656810283661 0.2900504171848297 0.14535419642925262 0.11898984760046005 -0.09709285944700241 0.4236784279346466 0.17269575595855713 -0.10043204575777054
-0.1547616720199585 -0.3735131025314331 0.7001405358314514 0.3849870562553406 -0.2629213035106659 -0.428443968296051 -0.19315053522586823 0.1595454066991806
-0.17895549535751343 0.15887030959129333 0.22333188354969025 0.26645585894584656 -0.29559391736984253 0.10705766081809998 -0.16258381307125092 -0.16080033779144287
0.1970844864845276 -0.08695786446332932 0.03804023191332817 -0.1498696655035019 0.031179968267679214 -0.42139527201652527 0.09387747198343277 0.25659841299057007
0.012969664297997952 -0.08661263436079025 -0.2647033929824829 -0.06001414731144905 0.07728847861289978 0.09634953737258911 -0.14231930673122406 -0.19644348323345184
0.20742154121398926 0.03491150587797165 0.04669481888413429 0.38467952609062195 0.5446815490722656 -0.19964340329170227 0.44170936942100525 -0.09598691761493683
-0.29062026739120483 -0.21371372044086456 0.0748363807797432 -0.08316715061664581 0.38684386014938354 0.31586745381355286 -0.35116881132125854 -0.11934994161128998
-0.27462658286094666 0.2817038595676422 0.3492414653301239 -0.17573724687099457 0.055782340466976166 0.23931097984313965 -0.3037235736846924 0.13388627767562866
-0.18164438009262085 -0.24346120655536652 0.033513106405735016 -0.3235864043235779 0.5548514127731323 0.06924326717853546 -0.12887637317180634 0.22771823406219482
0.005050514824688435 0.1376594752073288 -0.0753798857331276 -0.004827532451599836 -0.4617081880569458 0.01897624507546425 -0.40923312306404114 -0.08816345781087875
-0.11814339458942413 -0.19782008230686188 0.36602047085762024 -0.2996463179588318 -0.2345530092716217 0.10335922241210938 0.3992447555065155 -0.1509823203086853
-0.048592790961265564 0.09242984652519226 0.34966766834259033 0.027109729126095772 0.3956294357776642 -0.0538044273853302 0.22344884276390076 -0.3730611503124237
-0.3413340151309967 0.22295895218849182 -0.3976297080516815 -0.009883596561849117 0.3509611487388611 0.47417494654655457 -0.1994846761226654 -0.3014931082725525
0.030193937942385674 -0.3455874025821686 0.21536003053188324 -0.3508966863155365 -0.2287859469652176 -0.4538746178150177 -0.37393641471862793 -0.04213329404592514
0.06094450503587723 -0.3436537981033325 0.335815966129303 0.1477404087781906 0.15929846465587616 0.1735658347606659 0.3118094503879547 0.5183546543121338
0.07519993185997009 -0.0427544079720974 0.004688121844083071 -0.37829285860061646 -0.3736213743686676 0.025673534721136093 -0.09398922324180603 0.3988923132419586
0.3268806040287018 -0.1603793054819107 0.1753627210855484 0.2146448791027069 -0.06251294165849686 0.16849547624588013 -0.100772425532341 0.4612795412540436
0.11205684393644333 -0.14881376922130585 -0.2378493845462799 -0.4218849241733551 0.7738759517669678 0.32822489738464355 -0.15506882965564728 -0.43050292134284973
-0.2636837065219879 0.09913959354162216 -0.3025933802127838 0.3475950062274933 0.207212895154953 0.31085288524627686 -0.22048766911029816 0.20842310786247253
-0.17599646747112274 -0.13779376447200775 0.2136642038822174 -0.04481665417551994 0.16532908380031586 -0.09336720407009125 0.07244466245174408 -0.23990878462791443
0.14758116006851196 0.16184300184249878 -0.07969178259372711 -0.16177703440189362 -0.22247949242591858 -0.05298759043216705 0.10490323603153229 0.031977396458387375
-0.17866581678390503 -0.30641186237335205 0.14871704578399658 0.01730305887758732 0.1723063439130783 0.45573171973228455 0.4679274559020996 -0.23774659633636475
0.5098960399627686 -0.1898602545261383 -0.34107574820518494 -0.14960309863090515 0.12413350492715836 -0.12663833796977997 0.38623887300491333 0.3908958435058594
