results/weights/weights_sequence_zo_adamm_0.1111111119389534_conv2.weight_4.npy (npy, 33176 bytes, 1 tensors)

array f8 [51, 81]
000000 00 00 00 40 7b c7 c3 bf 00 00 00 00 af 07 b3 3f
       -0.15452519059181213 0.0743359923362732
000010 00 00 00 c0 22 37 a4 bf 00 00 00 80 6d f2 c8 3f
       -0.03948315232992172 0.1948983073234558
000020 00 00 00 40 04 23 db 3f 00 00 00 20 4d 68 c0 bf
       0.4240122437477112 -0.1281830221414566
000030 00 00 00 60 1e 5d bf 3f 00 00 00 60 6c 73 d1 3f
       0.12251462787389755 0.27266988158226013
000040 00 00 00 60 b4 d4 c8 bf 00 00 00 40 38 73 cd 3f
       -0.19399122893810272 0.23007872700691223
000050 00 00 00 c0 32 cc a1 bf 00 00 00 60 30 c2 59 bf
       -0.034761033952236176 -0.0015721771633252501
000060 00 00 00 60 2c 1f c0 3f 00 00 00 80 c5 28 b0 3f
       0.12595133483409882 0.06312212347984314
000070 00 00 00 60 a7 be d4 bf 00 00 00 a0 b7 46 b1 bf
       -0.3241365849971771 -0.06748531013727188
000080 00 00 00 60 73 ce d6 bf 00 00 00 a0 9e ca c0 3f
       -0.35635074973106384 0.131183460354805
000090 00 00 00 60 4a 09 bf 3f 00 00 00 60 23 64 b0 3f
       0.12123551219701767 0.06402798742055893
0000a0 00 00 00 00 25 cc cb bf 00 00 00 40 c5 b3 b2 3f
       -0.21716749668121338 0.07305558025836945
0000b0 00 00 00 80 74 dd d0 3f 00 00 00 a0 29 c0 4a 3f
       0.26351654529571533 0.0008163645979948342
0000c0 00 00 00 a0 7c 29 d8 bf 00 00 00 20 9e fd c2 bf
       -0.37753215432167053 -0.14836479723453522
0000d0 00 00 00 20 7c e5 ba 3f 00 00 00 60 76 b3 bd 3f
       0.10506416112184525 0.11601962894201279
0000e0 00 00 00 c0 56 ee c3 bf 00 00 00 c0 98 81 b4 bf
       -0.15571102499961853 -0.08010248839855194
0000f0 00 00 00 c0 d4 f9 96 bf 00 00 00 40 dd 50 c3 bf
       -0.022437404841184616 -0.1509052813053131
000100 00 00 00 80 a8 f3 b5 3f 00 00 00 80 91 bd cf bf
       0.08574917912483215 -0.24797266721725464
000110 00 00 00 00 7e bb a0 bf 00 00 00 c0 2e ad d2 3f
       -0.0326804518699646 0.291820228099823
000120 00 00 00 c0 c2 89 c3 3f 00 00 00 20 e9 cf a6 3f
       0.15264162421226501 0.04455498233437538
000130 00 00 00 40 2c e5 c5 3f 00 00 00 c0 96 e2 b8 3f
       0.17105630040168762 0.09720747172832489
000140 00 00 00 60 41 8d bc 3f 00 00 00 c0 2a 11 d7 bf
       0.11153038591146469 -0.3604227900505066
000150 00 00 00 20 a6 16 a0 bf 00 00 00 20 38 7f b7 bf
       -0.031422797590494156 -0.09178496152162552
000160 00 00 00 80 bd ce c8 bf 00 00 00 00 0e 61 b0 bf
       -0.19380921125411987 -0.06398093700408936
000170 00 00 00 80 54 11 cf bf 00 00 00 60 52 8a ba 3f
       -0.24271637201309204 0.10367312282323837
000180 00 00 00 e0 d6 a5 ad bf 00 00 00 20 14 b3 cd bf
       -0.057905878871679306 -0.2320275455713272
000190 00 00 00 00 a8 81 7a bf 00 00 00 e0 c7 b7 ae bf
       -0.006471306085586548 -0.05999588593840599
0001a0 00 00 00 20 81 c8 b4 bf 00 00 00 80 fa ad d7 3f
       -0.08118445426225662 0.36999380588531494
0001b0 00 00 00 00 f1 0c d6 bf 00 00 00 80 c2 b0 80 3f
       -0.3445398807525635 0.008149642497301102
0001c0 00 00 00 a0 d0 82 dd 3f 00 00 00 00 e0 1e b1 bf
       0.46110931038856506 -0.06687736511230469
0001d0 00 00 00 e0 37 a0 c6 bf 00 00 00 40 27 fe dd 3f
       -0.17676447331905365 0.46863728761672974
0001e0 00 00 00 80 a9 7b 85 bf 00 00 00 a0 2d 32 d7 3f
       -0.010489773005247116 0.3624376356601715
0001f0 00 00 00 e0 22 e6 bd 3f 00 00 00 e0 8c b8 c1 3f
       0.11679285019636154 0.13844452798366547
000200 00 00 00 20 a1 95 d2 bf 00 00 00 60 af 81 ca bf
       -0.29038265347480774 -0.20708267390727997
000210 00 00 00 a0 a5 a7 dd bf 00 00 00 60 6b 85 c2 3f
       -0.4633573591709137 0.14469663798809052
000220 00 00 00 60 b1 54 bd 3f 00 00 00 00 75 6c 78 3f
       0.11457356065511703 0.005962807685136795
000230 00 00 00 a0 94 80 ad bf 00 00 00 20 6d e4 da 3f
       -0.05762161687016487 0.42019203305244446
000240 00 00 00 c0 d5 0c b5 bf 00 00 00 a0 72 5f c6 3f
       -0.08222709596157074 0.17478783428668976
000250 00 00 00 00 f3 f9 ba bf 00 00 00 60 b2 75 c0 3f
       -0.10537642240524292 0.12859182059764862
000260 00 00 00 80 c3 da d3 3f 00 00 00 c0 62 ac c8 bf
       0.31022727489471436 -0.19276079535484314
000270 00 00 00 c0 a6 9b 76 bf 00 00 00 a0 d5 62 b4 3f
       -0.005519534461200237 0.07963309437036514
000280 00 00 00 20 ba 8a c9 3f 00 00 00 20 a2 5e be bf
       0.19954611361026764 -0.11863148957490921
000290 00 00 00 80 49 98 a6 3f 00 00 00 c0 45 7c a8 bf
       0.044130608439445496 -0.04782312363386154
0002a0 00 00 00 20 8a d9 ca 3f 00 00 00 00 d3 92 dd 3f
       0.2097637802362442 0.46208643913269043
0002b0 00 00 00 80 bc 36 bb bf 00 00 00 e0 39 46 c9 3f
       -0.10630396008491516 0.19745562970638275
0002c0 00 00 00 60 cb 91 d2 3f 00 00 00 60 1d ad c8 bf
       0.2901485860347748 -0.19278304278850555
0002d0 00 00 00 00 a0 50 d2 3f 00 00 00 80 f5 72 ae 3f
       0.28617095947265625 0.05947081744670868
0002e0 00 00 00 80 11 b6 b1 3f 00 00 00 80 2e fb b1 3f
       0.06918439269065857 0.07023897767066956
0002f0 00 00 00 60 3a ca b4 3f 00 00 00 60 6a b1 db bf
       0.08121075481176376 -0.43270358443260193
000300 00 00 00 a0 4b cd 70 3f 00 00 00 20 b4 c7 d3 bf
       0.004102034959942102 -0.30906394124031067
000310 00 00 00 00 ce d4 b7 3f 00 00 00 80 b0 cc c7 3f
       0.09309089183807373 0.1859341263771057
000320 00 00 00 00 89 b2 bb 3f 00 00 00 e0 56 3a b3 bf
       0.10819298028945923 -0.07510893791913986
000330 00 00 00 e0 ad 72 25 3f 00 00 00 c0 6b 35 d4 3f
       0.00016363499162252992 0.3157605528831482
000340 00 00 00 c0 81 43 ad bf 00 00 00 a0 97 ff dc bf
       -0.05715566128492355 -0.4531001150608063
000350 00 00 00 e0 72 b6 c6 bf 00 00 00 a0 ef 32 b7 3f
       -0.17744289338588715 0.0906209722161293
000360 00 00 00 80 87 0e be 3f 00 00 00 e0 4d e0 cc bf
       0.11740919947624207 -0.22559522092342377
000370 00 00 00 00 ad bf 58 3f 00 00 00 a0 28 d4 a1 3f
       0.001510542817413807 0.034821767359972
000380 00 00 00 a0 55 6f ce bf 00 00 00 40 2d 07 bb 3f
       -0.23777265846729279 0.10557825863361359
000390 00 00 00 c0 05 1c c4 bf 00 00 00 80 25 4f b2 bf
       -0.15710517764091492 -0.07152017951011658
0003a0 00 00 00 60 08 e1 d4 3f 00 00 00 80 4c 24 d1 3f
       0.32623490691185 0.26784050464630127
0003b0 00 00 00 60 08 9c cf 3f 00 00 00 e0 84 61 cd 3f
       0.2469492405653 0.22953854501247406
0003c0 00 00 00 80 a2 5f c5 3f 00 00 00 80 fd 58 bb 3f
       0.166981041431427 0.10682663321495056
0003d0 00 00 00 a0 18 e6 d4 bf 00 00 00 00 83 87 c3 bf
       -0.3265439569950104 -0.15257298946380615
0003e0 00 00 00 e0 c6 e4 b8 bf 00 00 00 40 6e 47 a5 bf
       -0.0972408577799797 -0.04156059771776199
0003f0 00 00 00 e0 de 43 b1 bf 00 00 00 20 54 6a d0 bf
       -0.06744187325239182 -0.2564897835254669
000400 00 00 00 c0 36 32 af 3f 00 00 00 20 08 97 a1 3f
       0.060929976403713226 0.03435540571808815
000410 00 00 00 60 68 da cc bf 00 00 00 a0 cf 20 a1 bf
       -0.22541527450084686 -0.033453453332185745
000420 00 00 00 e0 28 25 c0 bf 00 00 00 00 e2 5a 98 bf
       -0.1261340230703354 -0.02378419041633606
000430 00 00 00 a0 c8 df cf 3f 00 00 00 c0 71 7a ce bf
       0.24901683628559113 -0.2381117045879364
000440 00 00 00 00 b3 eb aa bf 00 00 00 80 3b f9 d5 3f
       -0.05257949233055115 0.34333693981170654
000450 00 00 00 80 49 51 b5 bf 00 00 00 e0 22 9e cb bf
       -0.08327159285545349 -0.21576343476772308
000460 00 00 00 a0 48 7b e1 3f 00 00 00 40 ba 7a c0 3f
       0.5462992787361145 0.12874534726142883
000470 00 00 00 e0 e9 30 db 3f 00 00 00 60 9c f6 c2 3f
       0.4248604476451874 0.1481509655714035
000480 00 00 00 40 b2 c1 d0 3f 00 00 00 80 88 95 d5 bf
       0.26182228326797485 -0.33725178241729736
000490 00 00 00 e0 97 a7 cb bf 00 00 00 00 5e 1f da bf
       -0.21605204045772552 -0.40816450119018555
0004a0 00 00 00 60 cd 57 b6 3f 00 00 00 c0 f9 09 ca 3f
       0.08727725595235825 0.2034294307231903
0004b0 00 00 00 c0 76 a1 a7 3f 00 00 00 80 d8 bf a1 3f
       0.04615374654531479 0.034666791558265686
0004c0 00 00 00 c0 ed c2 da 3f 00 00 00 c0 87 bd 9d bf
       0.4181475043296814 -0.02904331311583519
0004d0 00 00 00 00 01 93 c8 3f 00 00 00 60 6b 90 b2 bf
       0.19198620319366455 -0.07251616567373276
0004e0 00 00 00 20 76 d2 a3 bf 00 00 00 40 28 08 cf 3f
       -0.038715068250894547 0.24243643879890442
0004f0 00 00 00 60 22 9f c1 bf 00 00 00 80 47 75 97 bf
       -0.1376688927412033 -0.022908322513103485
000500 00 00 00 60 49 e6 bb 3f 00 00 00 c0 87 4d c0 3f
       0.1089826449751854 0.12736603617668152
000510 00 00 00 a0 bb 92 b8 bf 00 00 00 60 d0 a3 9b 3f
       -0.09598896652460098 0.026992088183760643
000520 00 00 00 a0 19 57 93 bf 00 00 00 40 7a 78 d1 3f
       -0.018886948004364967 0.27297836542129517
000530 00 00 00 c0 85 f0 dc 3f 00 00 00 00 65 7d b4 bf
       0.45218032598495483 -0.08003836870193481
000540 00 00 00 e0 98 00 c8 3f 00 00 00 40 13 6c d2 3f
       0.18751822412014008 0.2878463864326477
000550 00 00 00 a0 18 b3 c9 bf 00 00 00 c0 ee 61 d2 3f
       -0.2007780820131302 0.2872273325920105
000560 00 00 00 e0 51 8d b3 3f 00 00 00 00 86 36 b2 3f
       0.07637511938810349 0.0711444616317749
000570 00 00 00 80 03 50 b7 3f 00 00 00 20 e5 15 b6 3f
       0.09106466174125671 0.08627159148454666
000580 00 00 00 40 40 bc de bf 00 00 00 20 e9 bf 9d bf
       -0.4802399277687073 -0.02905239351093769
000590 00 00 00 40 1c f9 d4 bf 00 00 00 60 3c e5 c2 3f
       -0.3277044892311096 0.14762072265148163
0005a0 00 00 00 a0 0d ff c8 3f 00 00 00 c0 ce a2 c3 3f
       0.19528360664844513 0.15340599417686462
0005b0 00 00 00 e0 22 b2 b6 bf 00 00 00 c0 45 c2 bb 3f
       -0.08865564316511154 0.10843311250209808
0005c0 00 00 00 c0 19 78 ce 3f 00 00 00 e0 f3 af 7e bf
       0.23804017901420593 -0.007492020260542631
0005d0 00 00 00 e0 04 d3 df bf 00 00 00 80 61 d8 c3 bf
       -0.4972545802593231 -0.1550409197807312
0005e0 00 00 00 e0 d8 31 c1 3f 00 00 00 00 d8 21 c9 3f
       0.13433371484279633 0.19634532928466797
0005f0 00 00 00 00 52 82 cb bf 00 00 00 00 09 fd 77 bf
       -0.21491456031799316 -0.005856547504663467
000600 00 00 00 40 fc ee b1 3f 00 00 00 60 78 d5 cb bf
       0.07005287706851959 -0.21745209395885468
000610 00 00 00 20 35 bc bc 3f 00 00 00 c0 5d 1d c6 bf
       0.11224681884050369 -0.17277118563652039
000620 00 00 00 80 d9 27 bd bf 00 00 00 e0 0f c7 d5 3f
       -0.11388930678367615 0.34027478098869324
000630 00 00 00 60 e7 d7 d4 3f 00 00 00 a0 8a f0 d3 3f
       0.3256777226924896 0.31155648827552795
000640 00 00 00 40 4d 1c cf 3f 00 00 00 80 88 4b d2 3f
       0.2430512011051178 0.28586018085479736
000650 00 00 00 60 a7 e3 b9 3f 00 00 00 40 2f 68 d5 bf
       0.10112997144460678 -0.33448392152786255
000660 00 00 00 60 12 f5 b8 bf 00 00 00 40 48 43 b5 bf
       -0.09748949855566025 -0.08305789530277252
000670 00 00 00 60 2d dc 91 bf 00 00 00 e0 d5 c9 b6 bf
       -0.01744147203862667 -0.08901726454496384
000680 00 00 00 00 30 40 d5 bf 00 00 00 20 2c 2f aa 3f
       -0.3320426940917969 0.05114114657044411
000690 00 00 00 60 ae f5 a9 3f 00 00 00 40 68 d7 d0 bf
       0.050702523440122604 -0.26314741373062134
0006a0 00 00 00 80 bd 4b b6 bf 00 00 00 a0 8d 09 c3 bf
       -0.08709320425987244 -0.14872904121875763
0006b0 00 00 00 00 a9 e8 8b bf 00 00 00 a0 8c 4b cf 3f
       -0.01362735778093338 0.24449308216571808
0006c0 00 00 00 c0 1c 2a d0 bf 00 00 00 00 19 11 bd bf
       -0.25257033109664917 -0.11354213953018188
0006d0 00 00 00 a0 12 74 d3 3f 00 00 00 00 22 c1 a5 bf
       0.30395951867103577 -0.04248911142349243
0006e0 00 00 00 20 35 97 d1 bf 00 00 00 a0 80 cd e3 3f
       -0.27485397458076477 0.6188357472419739
0006f0 00 00 00 e0 0a f0 c1 3f 00 00 00 c0 0c 20 dc 3f
       0.14013801515102386 0.43945616483688354
000700 00 00 00 20 6f bd ba 3f 00 00 00 60 bb d2 ca 3f
       0.10445303469896317 0.20955602824687958
000710 00 00 00 80 3c f3 d3 bf 00 00 00 a0 1c 5a c2 bf
       -0.31172096729278564 -0.1433749943971634
000720 00 00 00 c0 c2 1d dc bf 00 00 00 60 f3 e0 c0 3f
       -0.43931645154953003 0.13186495006084442
000730 00 00 00 80 b9 bc c9 3f 00 00 00 20 ae 53 b0 3f
       0.20107191801071167 0.06377685815095901
000740 00 00 00 c0 5b 58 ba 3f 00 00 00 e0 11 40 e2 3f
       0.10291074216365814 0.5703210234642029
000750 00 00 00 c0 92 ce a6 3f 00 00 00 a0 cc 8d cd 3f
       0.044544778764247894 0.23088987171649933
000760 00 00 00 40 f5 24 67 bf 00 00 00 20 e8 6c b8 bf
       -0.0028252401389181614 -0.09541178494691849
000770 00 00 00 20 ce 1d d2 3f 00 00 00 e0 c8 d7 c3 bf
       0.2830691635608673 -0.1550227254629135
000780 00 00 00 00 71 9e 98 bf 00 00 00 00 bf 31 c0 3f
       -0.024041905999183655 0.1265181303024292
000790 00 00 00 a0 2f 0f b7 3f 00 00 00 a0 53 5c ac bf
       0.09007547050714493 -0.05539189651608467
0007a0 00 00 00 20 35 ab a4 3f 00 00 00 60 d6 b6 8a bf
       0.040368709713220596 -0.01304404716938734
0007b0 00 00 00 e0 fa db ca 3f 00 00 00 c0 d8 b1 db 3f
       0.20983825623989105 0.43272989988327026
0007c0 00 00 00 c0 6b 39 a9 bf 00 00 00 c0 0e 8e cb 3f
       -0.049266211688518524 0.21527275443077087
0007d0 00 00 00 e0 6d 52 cf 3f 00 00 00 40 44 1e c7 bf
       0.2447030395269394 -0.18061116337776184
0007e0 00 00 00 40 59 7f d6 3f 00 00 00 a0 2b 75 b9 3f
       0.3515227437019348 0.09944412857294083
0007f0 00 00 00 c0 aa f5 bd 3f 00 00 00 20 a6 e1 be 3f
       0.1170298308134079 0.12063062936067581
