results/weights/weights_sequence_zo_adamm_0.1111111119389534_fc1.bias_2.npy (npy, 5432 bytes, 1 tensors)

array f8 [51, 13]
000000 00 00 00 40 e1 7a 84 3f 00 00 00 40 e1 7a 84 3f
       0.009999999776482582 0.009999999776482582
000010 00 00 00 40 e1 7a 84 3f 00 00 00 40 e1 7a 84 3f
       0.009999999776482582 0.009999999776482582
000020 00 00 00 40 e1 7a 84 3f 00 00 00 40 e1 7a 84 3f
       0.009999999776482582 0.009999999776482582
000030 00 00 00 40 e1 7a 84 3f 00 00 00 40 e1 7a 84 3f
       0.009999999776482582 0.009999999776482582
000040 00 00 00 40 e1 7a 84 3f 00 00 00 40 e1 7a 84 3f
       0.009999999776482582 0.009999999776482582
000050 00 00 00 40 e1 7a 84 3f 00 00 00 40 e1 7a 84 3f
       0.009999999776482582 0.009999999776482582
000060 00 00 00 40 e1 7a 84 3f 00 00 00 c0 be 4f 95 3f
       0.009999999776482582 0.0208120159804821
000070 00 00 00 00 4b 2a 73 3f 00 00 00 60 ca 78 b2 bf
       0.004679005593061447 -0.07215561717748642
000080 00 00 00 e0 0b cb ab bf 00 00 00 c0 03 2d b8 bf
       -0.054283495992422104 -0.09443686902523041
000090 00 00 00 20 fd 6c 98 bf 00 00 00 00 62 78 b1 3f
       -0.023853259161114693 0.06824314594268799
0000a0 00 00 00 00 bf 76 b2 bf 00 00 00 60 cc da 92 3f
       -0.0721244215965271 0.018412774428725243
0000b0 00 00 00 80 b3 47 b0 3f 00 00 00 60 50 88 bf bf
       0.06359407305717468 -0.12317373603582382
0000c0 00 00 00 20 19 cc b3 3f 00 00 00 00 56 22 ca bf
       0.07733304053544998 -0.20417284965515137
0000d0 00 00 00 40 38 23 b2 3f 00 00 00 00 8a 78 ad 3f
       0.07084991037845612 0.0575602650642395
0000e0 00 00 00 a0 49 63 a8 bf 00 00 00 40 ca 95 77 bf
       -0.047632504254579544 -0.005758085288107395
0000f0 00 00 00 20 71 ad bf bf 00 00 00 20 10 a8 b5 bf
       -0.12374026328325272 -0.084595687687397
000100 00 00 00 a0 8f c8 ab 3f 00 00 00 a0 49 b8 b2 bf
       0.05426453426480293 -0.07312450557947159
000110 00 00 00 e0 6e 52 b2 3f 00 00 00 c0 0e 26 b8 3f
       0.07157032936811447 0.09433071315288544
000120 00 00 00 a0 11 48 c1 bf 00 00 00 40 fe 04 a7 3f
       -0.13501186668872833 0.04495996981859207
000130 00 00 00 c0 d7 d6 c9 bf 00 00 00 60 70 6c b1 3f
       -0.20186898112297058 0.06806089729070663
000140 00 00 00 a0 58 c9 b2 3f 00 00 00 00 59 54 ab bf
       0.07338479906320572 -0.053377896547317505
000150 00 00 00 a0 f0 78 2d bf 00 00 00 a0 08 a7 c0 bf
       -0.00022485673252958804 -0.13009746372699738
000160 00 00 00 a0 6c 85 be bf 00 00 00 00 e0 66 c1 3f
       -0.11922339349985123 0.13595199584960938
000170 00 00 00 e0 03 13 ba bf 00 00 00 00 b0 0e b0 3f
       -0.101852647960186 0.06272411346435547
000180 00 00 00 80 6d 21 b9 3f 00 00 00 40 9d dd b8 bf
       0.0981663167476654 -0.09713156521320343
000190 00 00 00 a0 10 05 91 3f 00 00 00 e0 25 b1 cc bf
       0.016620883718132973 -0.22415612637996674
0001a0 00 00 00 00 48 79 a5 3f 00 00 00 c0 5b bc c1 3f
       0.041940927505493164 0.13856074213981628
0001b0 00 00 00 c0 c8 ce b9 bf 00 00 00 80 79 0c a9 bf
       -0.10081152617931366 -0.048923298716545105
0001c0 00 00 00 a0 be 9a c0 bf 00 00 00 c0 86 cb ba bf
       -0.12972243130207062 -0.10466806590557098
0001d0 00 00 00 a0 91 19 c1 3f 00 00 00 00 f1 40 bf bf
       0.13359279930591583 -0.12208467721939087
0001e0 00 00 00 40 42 f2 a7 3f 00 00 00 20 99 a8 b7 3f
       0.046770162880420685 0.09241635352373123
0001f0 00 00 00 a0 bc 32 be bf 00 00 00 40 9d 82 90 3f
       -0.11796168237924576 0.016123253852128983
000200 00 00 00 80 ab a4 ca bf 00 00 00 a0 48 0d 9f 3f
       -0.20815032720565796 0.030324110761284828
000210 00 00 00 e0 91 e4 ba 3f 00 00 00 20 47 04 b9 bf
       0.10505019873380661 -0.09772152453660965
000220 00 00 00 80 11 40 a4 bf 00 00 00 20 07 09 c6 bf
       -0.039551302790641785 -0.17215050756931305
000230 00 00 00 00 13 bc b7 bf 00 00 00 20 bb bb bd 3f
       -0.09271353483200073 0.1161457970738411
000240 00 00 00 60 c0 9b b6 bf 00 00 00 e0 53 6c 89 3f
       -0.08831407874822617 0.012413649819791317
000250 00 00 00 a0 bb 6c bb 3f 00 00 00 a0 16 0e be bf
       0.10712788254022598 -0.11740247160196304
000260 00 00 00 60 5e 68 80 3f 00 00 00 a0 f9 cf c8 bf
       0.008011567406356335 -0.1938468962907791
000270 00 00 00 00 f7 c2 aa 3f 00 00 00 c0 f2 64 c5 3f
       0.05226871371269226 0.16714319586753845
000280 00 00 00 80 c5 a3 b9 bf 00 00 00 40 68 ab a6 bf
       -0.10015520453453064 -0.04427648335695267
000290 00 00 00 40 9f 69 c8 bf 00 00 00 20 ae e5 b2 bf
       -0.19072332978248596 -0.07381714135408401
0002a0 00 00 00 e0 17 54 ba 3f 00 00 00 e0 06 15 a2 bf
       0.10284566134214401 -0.035316672176122665
0002b0 00 00 00 80 19 3a a4 3f 00 00 00 20 af 5c b9 3f
       0.039505764842033386 0.09907049685716629
0002c0 00 00 00 40 e4 ad c2 bf 00 00 00 e0 95 00 85 3f
       -0.14593175053596497 0.010255022905766964
0002d0 00 00 00 c0 96 d0 c7 bf 00 00 00 c0 57 df aa 3f
       -0.18605312705039978 0.05248522013425827
0002e0 00 00 00 60 f8 ca c5 3f 00 00 00 e0 34 03 b9 bf
       0.17025665938854218 -0.09770517796278
0002f0 00 00 00 00 00 d2 b4 bf 00 00 00 80 34 be c9 bf
       -0.081329345703125 -0.20111709833145142
000300 00 00 00 00 46 34 b8 bf 00 00 00 a0 68 5b bd 3f
       -0.09454762935638428 0.11467603594064713
000310 00 00 00 20 48 28 b0 bf 00 00 00 00 5f de a7 3f
       -0.06311465054750443 0.04661843180656433
000320 00 00 00 a0 4e 8e b9 3f 00 00 00 80 c1 97 c3 bf
       0.09982768446207047 -0.15306872129440308
000330 00 00 00 00 05 bc 88 3f 00 00 00 80 2c 40 c4 bf
       0.012077368795871735 -0.158208429813385
000340 00 00 00 60 2b 66 74 bf 00 00 00 e0 97 79 c5 3f
       -0.004980248864740133 0.16777323186397552
000350 00 00 00 20 ee 9c b9 bf 00 00 00 20 25 55 ad bf
       -0.10005081444978714 -0.05729022994637489
000360 00 00 00 a0 8e 6b c9 bf 00 00 00 c0 53 7b b0 bf
       -0.19859488308429718 -0.06438182294368744
000370 00 00 00 40 76 1a bb 3f 00 00 00 a0 97 b4 a8 bf
       0.10587252676486969 -0.048252809792757034
000380 00 00 00 00 98 08 ac 3f 00 00 00 a0 69 ad c2 3f
       0.05475306510925293 0.1459171324968338
000390 00 00 00 a0 d3 11 c0 bf 00 00 00 c0 f3 75 a6 3f
       -0.12554402649402618 0.04386865347623825
0003a0 00 00 00 20 ea 7f bc bf 00 00 00 40 8c ae a3 bf
       -0.11132682114839554 -0.038441069424152374
0003b0 00 00 00 c0 75 67 c3 3f 00 00 00 c0 82 f6 b9 bf
       0.1515948474407196 -0.10141770541667938
0003c0 00 00 00 80 3a a0 96 bf 00 00 00 00 ed 61 ca bf
       -0.02209559828042984 -0.20611345767974854
0003d0 00 00 00 60 ca 71 a8 bf 00 00 00 60 e0 02 b7 3f
       -0.04774315282702446 0.08988764137029648
0003e0 00 00 00 00 eb f8 9a bf 00 00 00 40 99 cf 83 3f
       -0.026340171694755554 0.009673306718468666
0003f0 00 00 00 a0 b0 b1 c0 3f 00 00 00 60 00 7c b8 bf
       0.1304226666688919 -0.09564211219549179
000400 00 00 00 a0 72 a4 a8 3f 00 00 00 60 b5 ef b3 bf
       0.04812963679432869 -0.07787641137838364
000410 00 00 00 40 71 49 a0 bf 00 00 00 20 b8 ba c4 3f
       -0.031810320913791656 0.16194821894168854
000420 00 00 00 80 00 b4 b2 bf 00 00 00 a0 6a 3c ae bf
       -0.07305911183357239 -0.05905469134449959
000430 00 00 00 80 a3 32 ce bf 00 00 00 e0 c2 f5 aa bf
       -0.23592036962509155 -0.05265625938773155
000440 00 00 00 40 e9 47 b3 3f 00 00 00 80 22 9a 88 bf
       0.07531602680683136 -0.012012738734483719
000450 00 00 00 e0 e7 68 9b bf 00 00 00 a0 6b 00 c6 3f
       -0.026767371222376823 0.1718878298997879
000460 00 00 00 e0 fd 75 b2 bf 00 00 00 00 eb dc b4 3f
       -0.07211291044950485 0.08149594068527222
000470 00 00 00 60 99 cb b8 bf 00 00 00 80 05 80 a1 bf
       -0.09685667604207993 -0.03417985141277313
000480 00 00 00 20 1d ce c5 3f 00 00 00 40 d7 45 a9 bf
       0.17035259306430817 -0.0493609681725502
000490 00 00 00 60 f9 b6 96 bf 00 00 00 60 2a b3 cc bf
       -0.022182365879416466 -0.22421769797801971
0004a0 00 00 00 60 eb b0 aa bf 00 00 00 e0 65 91 bf 3f
       -0.052131038159132004 0.12331234663724899
0004b0 00 00 00 c0 b4 47 91 3f 00 00 00 40 54 3f 92 bf
       0.016875099390745163 -0.017819706350564957
0004c0 00 00 00 00 7e 1b c5 3f 00 00 00 c0 9f 1d a4 bf
       0.1649014949798584 -0.039288513362407684
0004d0 00 00 00 80 6a 53 91 3f 00 00 00 40 e9 55 b6 bf
       0.01691976934671402 -0.08724839985370636
0004e0 00 00 00 a0 2b 5e 80 bf 00 00 00 60 a1 d1 c3 3f
       -0.007992115803062916 0.15483491122722626
0004f0 00 00 00 a0 4a e3 a5 bf 00 00 00 e0 3f 2c 94 bf
       -0.04274972155690193 -0.019700048491358757
000500 00 00 00 60 bf de cb bf 00 00 00 40 25 03 a0 bf
       -0.21773521602153778 -0.03127399832010269
000510 00 00 00 e0 13 53 c0 3f 00 00 00 80 6a c5 96 3f
       0.12753532826900482 0.02223745733499527
000520 00 00 00 00 e9 df 7a bf 00 00 00 e0 7e 95 c0 3f
       -0.006561193615198135 0.12956224381923676
000530 00 00 00 20 24 1b b4 bf 00 00 00 a0 0e a7 a1 3f
       -0.07853914052248001 0.03447766974568367
000540 00 00 00 a0 3b 06 c1 bf 00 00 00 a0 60 13 7d 3f
       -0.13300271332263947 0.007098557893186808
000550 00 00 00 c0 8d 44 c3 3f 00 00 00 40 80 72 81 bf
       0.15052959322929382 -0.00851917453110218
000560 00 00 00 20 a8 af 7f bf 00 00 00 60 58 f4 c8 bf
       -0.007735878694802523 -0.19495682418346405
000570 00 00 00 80 6e 24 a7 bf 00 00 00 c0 53 75 c6 3f
       -0.04519982635974884 0.17545554041862488
000580 00 00 00 80 fa 2b a4 3f 00 00 00 a0 5d c6 9f bf
       0.03939802944660187 -0.031030142679810524
000590 00 00 00 c0 28 70 c0 3f 00 00 00 80 3e 1e b3 bf
       0.1284228265285492 -0.07468023896217346
0005a0 00 00 00 20 59 cb a3 3f 00 00 00 20 ed 70 bd bf
       0.03866079822182655 -0.11500436812639236
0005b0 00 00 00 60 c5 d0 98 3f 00 00 00 60 84 6b c3 3f
       0.024233898147940636 0.15171866118907928
0005c0 00 00 00 60 09 94 8f bf 00 00 00 60 e4 a9 a8 bf
       -0.015419076196849346 -0.04817117378115654
0005d0 00 00 00 e0 bb 9e cb bf 00 00 00 a0 6d 5b b8 bf
       -0.21578167378902435 -0.095145083963871
0005e0 00 00 00 20 54 0d c6 3f 00 00 00 80 24 81 a8 3f
       0.17228175699710846 0.0478602796792984
0005f0 00 00 00 00 93 32 ae bf 00 00 00 40 b1 d3 c2 3f
       -0.05897960066795349 0.14708533883094788
000600 00 00 00 c0 81 61 b1 bf 00 00 00 a0 27 ef a9 3f
       -0.0678940862417221 0.05065273120999336
000610 00 00 00 00 d0 bd ba bf 00 00 00 c0 4b f0 82 bf
       -0.10445880889892578 -0.009247390553355217
000620 00 00 00 00 32 c4 c7 3f 00 00 00 80 ff 37 8b bf
       0.18567490577697754 -0.013290401548147202
000630 00 00 00 40 a9 67 aa bf 00 00 00 40 05 cc cd bf
       -0.05157212167978287 -0.23278871178627014
000640 00 00 00 a0 18 32 b9 bf 00 00 00 00 2a 9b c4 3f
       -0.0984206572175026 0.16098523139953613
000650 00 00 00 80 cc 6b b2 3f 00 00 00 e0 75 9c 9f bf
       0.07195737957954407 -0.030870286747813225
000660 00 00 00 c0 db 8d c1 3f 00 00 00 20 67 b0 b7 bf
       0.13714167475700378 -0.09253544360399246
000670 00 00 00 c0 ba 43 ab 3f 00 00 00 40 33 b5 b8 bf
       0.05325111001729965 -0.09651489555835724
000680 00 00 00 e0 ee 95 91 3f 00 00 00 60 fa 8f c7 3f
       0.017173511907458305 0.18408136069774628
000690 00 00 00 e0 74 58 ac bf 00 00 00 40 e9 ec 99 bf
       -0.05536236986517906 -0.025317806750535965
0006a0 00 00 00 c0 8a 53 d0 bf 00 00 00 c0 30 8f bb bf
       -0.25509899854660034 -0.1076536625623703
0006b0 00 00 00 60 d1 17 c2 3f 00 00 00 00 f5 27 9f 3f
       0.1413518637418747 0.030425861477851868
0006c0 00 00 00 00 3f 40 5c 3f 00 00 00 00 0f a1 ba 3f
       0.0017243018373847008 0.10402005910873413
0006d0 00 00 00 a0 74 40 bb bf 00 00 00 c0 d9 e2 b0 3f
       -0.10645226389169693 0.06596146523952484
0006e0 00 00 00 00 24 69 bd bf 00 00 00 e0 55 eb 91 3f
       -0.11488556861877441 0.017499295994639397
0006f0 00 00 00 40 a4 4a c6 3f 00 00 00 80 52 06 ac bf
       0.17415288090705872 -0.054735735058784485
000700 00 00 00 40 cd e1 af bf 00 00 00 a0 ec 8f d1 bf
       -0.062269605696201324 -0.2744094431400299
000710 00 00 00 80 21 09 bd bf 00 00 00 c0 e3 27 bc 3f
       -0.11342057585716248 0.1099836677312851
000720 00 00 00 80 cb a0 85 bf 00 00 00 20 eb fc 9d 3f
       -0.010560598224401474 0.029285119846463203
000730 00 00 00 20 68 03 c1 3f 00 00 00 40 0b 32 be bf
       0.13291646540164948 -0.11795111000537872
000740 00 00 00 40 fe c2 b1 3f 00 00 00 60 2b db c1 bf
       0.06938160955905914 -0.13950102031230927
000750 00 00 00 80 85 bf 91 3f 00 00 00 40 82 6c c2 3f
       0.017332158982753754 0.143936425447464
000760 00 00 00 e0 0b f7 9b bf 00 00 00 20 04 e0 a7 bf
       -0.027309594675898552 -0.04663098230957985
000770 00 00 00 20 e3 67 cf bf 00 00 00 40 ff 6c c4 bf
       -0.24535788595676422 -0.15957632660865784
000780 00 00 00 a0 9c d5 c2 3f 00 00 00 20 55 a2 63 3f
       0.1471439152956009 0.0023967421147972345
000790 00 00 00 a0 c9 fc 9a 3f 00 00 00 40 78 1e bb 3f
       0.02635493315756321 0.10593368113040924
0007a0 00 00 00 20 5b ea bc bf 00 00 00 00 ad d7 b2 3f
       -0.11295098811388016 0.07360345125198364
0007b0 00 00 00 e0 2d 95 bc bf 00 00 00 c0 81 4e a7 3f
       -0.11165129393339157 0.0455208346247673
0007c0 00 00 00 00 de 2e c0 3f 00 00 00 a0 43 eb b6 bf
       0.12643027305603027 -0.08952734619379044
0007d0 00 00 00 a0 2e f7 a1 bf 00 00 00 e0 42 f2 cb bf
       -0.035088974982500076 -0.2183307260274887
0007e0 00 00 00 00 da ae c6 bf 00 00 00 e0 4c 0c c2 3f
       -0.17721104621887207 0.14100037515163422
0007f0 00 00 00 e0 4b f1 8b bf 00 00 00 60 91 e7 ad 3f
       -0.013643830083310604 0.05840734764933586
