results/weights/weights_sequence_zo_adamm_0.1111111119389534_fc2.bias_6.npy (npy, 4208 bytes, 1 tensors)

array f8 [51, 10]
000000 00 00 00 40 e1 7a 84 3f 00 00 00 40 e1 7a 84 3f
       0.009999999776482582 0.009999999776482582
000010 00 00 00 40 e1 7a 84 3f 00 00 00 40 e1 7a 84 3f
       0.009999999776482582 0.009999999776482582
000020 00 00 00 40 e1 7a 84 3f 00 00 00 40 e1 7a 84 3f
       0.009999999776482582 0.009999999776482582
000030 00 00 00 40 e1 7a 84 3f 00 00 00 40 e1 7a 84 3f
       0.009999999776482582 0.009999999776482582
000040 00 00 00 40 e1 7a 84 3f 00 00 00 40 e1 7a 84 3f
       0.009999999776482582 0.009999999776482582
000050 00 00 00 00 3a 9c 95 3f 00 00 00 e0 39 db bf 3f
       0.021103769540786743 0.12443887442350388
000060 00 00 00 20 af 5a be 3f 00 00 00 20 f2 1e 5d 3f
       0.11857122927904129 0.0017773975851014256
000070 00 00 00 60 e1 0b b6 3f 00 00 00 20 66 a9 93 3f
       0.08611878007650375 0.019200893118977547
000080 00 00 00 a0 6e 25 c5 bf 00 00 00 e0 f6 f1 a3 3f
       -0.16520483791828156 0.03895541653037071
000090 00 00 00 00 fa 67 b7 3f 00 00 00 20 04 88 aa 3f
       0.09143030643463135 0.05181897059082985
0000a0 00 00 00 80 6d 05 8e 3f 00 00 00 80 61 3c b9 3f
       0.014658790081739426 0.0985775887966156
0000b0 00 00 00 e0 92 1c c1 3f 00 00 00 00 b3 f8 83 bf
       0.13368450105190277 -0.00975169986486435
0000c0 00 00 00 00 a0 ea c8 3f 00 00 00 e0 41 ba b5 3f
       0.19466018676757812 0.08487331122159958
0000d0 00 00 00 20 14 68 c2 bf 00 00 00 60 8c 60 82 3f
       -0.1438012272119522 0.008973213844001293
0000e0 00 00 00 40 1f 1c 9d 3f 00 00 00 a0 da 91 b3 3f
       0.028427589684724808 0.07644430547952652
0000f0 00 00 00 e0 a3 e8 93 bf 00 00 00 20 e1 36 b2 3f
       -0.019442139193415642 0.07114989310503006
000100 00 00 00 40 30 f3 c6 3f 00 00 00 60 d2 4a 97 bf
       0.17929652333259583 -0.022746359929442406
000110 00 00 00 e0 1e d0 ce 3f 00 00 00 20 38 2d b6 3f
       0.24072633683681488 0.08662749081850052
000120 00 00 00 80 2c 8c c3 bf 00 00 00 60 74 6c b4 3f
       -0.152715265750885 0.07977988570928574
000130 00 00 00 40 52 8e 91 bf 00 00 00 60 59 e9 ba 3f
       -0.017144475132226944 0.1051231250166893
000140 00 00 00 40 39 26 96 bf 00 00 00 c0 6c b9 b4 3f
       -0.021630186587572098 0.08095435798168182
000150 00 00 00 a0 69 e4 c7 3f 00 00 00 20 70 0e a4 bf
       0.1866580992937088 -0.03917265310883522
000160 00 00 00 00 9c 84 ce 3f 00 00 00 c0 ec 34 af 3f
       0.23842191696166992 0.06095065921545029
000170 00 00 00 c0 b9 cb c0 bf 00 00 00 60 5b 18 b4 3f
       -0.13121721148490906 0.07849665731191635
000180 00 00 00 00 cc 46 a4 bf 00 00 00 60 8b 38 c0 3f
       -0.03960263729095459 0.12672559916973114
000190 00 00 00 c0 b1 66 94 3f 00 00 00 e0 8c 5c a4 3f
       0.019922997802495956 0.03976860269904137
0001a0 00 00 00 80 f0 bc cd 3f 00 00 00 60 76 23 9b bf
       0.23232847452163696 -0.026502465829253197
0001b0 00 00 00 a0 f6 75 c9 3f 00 00 00 e0 94 9d 6f bf
       0.19891245663166046 -0.0038593204226344824
0001c0 00 00 00 c0 d4 84 c1 bf 00 00 00 e0 c1 b8 a6 3f
       -0.13686618208885193 0.044378336519002914
0001d0 00 00 00 80 7d 4e 9a bf 00 00 00 80 16 54 bc 3f
       -0.025690041482448578 0.11065807938575745
0001e0 00 00 00 00 c5 ab 94 bf 00 00 00 40 38 80 a1 3f
       -0.020186498761177063 0.03418136388063431
0001f0 00 00 00 80 e8 1a cd 3f 00 00 00 40 db be 8c bf
       0.22738367319107056 -0.01403590478003025
000200 00 00 00 60 d9 df c9 3f 00 00 00 40 a5 0a 87 bf
       0.2021438330411911 -0.011250773444771767
000210 00 00 00 a0 9c 6a c5 bf 00 00 00 80 d4 7c b1 3f
       -0.1673160344362259 0.06831100583076477
000220 00 00 00 80 2b 2a 99 bf 00 00 00 40 2d 64 c0 3f
       -0.024574927985668182 0.12805715203285217
000230 00 00 00 a0 3b 42 58 3f 00 00 00 40 f4 a1 a6 3f
       0.0014806349063292146 0.044204361736774445
000240 00 00 00 a0 32 cc ce 3f 00 00 00 20 36 c3 9a 3f
       0.2406066209077835 0.026135297492146492
000250 00 00 00 20 56 94 c6 3f 00 00 00 e0 2d 9e 73 bf
       0.17640186846256256 -0.0047895233146846294
000260 00 00 00 a0 52 f4 ca bf 00 00 00 60 a3 43 ac 3f
       -0.21058113873004913 0.05520353838801384
000270 00 00 00 c0 27 58 a0 bf 00 00 00 e0 9d 68 c0 3f
       -0.03192257136106491 0.12819264829158783
000280 00 00 00 e0 e5 ec 77 bf 00 00 00 80 06 ec a2 3f
       -0.005841157864779234 0.03695698082447052
000290 00 00 00 60 b4 66 d0 3f 00 00 00 60 e7 fc 85 bf
       0.25626859068870544 -0.010736281983554363
0002a0 00 00 00 60 64 49 c8 3f 00 00 00 40 ca 92 7a 3f
       0.18973974883556366 0.006487646140158176
0002b0 00 00 00 e0 1d 86 cc bf 00 00 00 e0 38 a8 b0 3f
       -0.22284291684627533 0.0650668665766716
0002c0 00 00 00 40 89 ce a7 bf 00 00 00 40 7f 19 bc 3f
       -0.04649762064218521 0.10976405441761017
0002d0 00 00 00 c0 07 2b 8c bf 00 00 00 60 90 10 8f 3f
       -0.013753948733210564 0.015168312005698681
0002e0 00 00 00 e0 32 c1 d2 3f 00 00 00 a0 c9 87 7b bf
       0.2930419147014618 -0.006721294019371271
0002f0 00 00 00 60 47 a5 c3 3f 00 00 00 80 e5 75 9b bf
       0.1534814089536667 -0.026816926896572113
000300 00 00 00 00 26 bf cf bf 00 00 00 e0 0b 41 ac 3f
       -0.24802088737487793 0.055183764547109604
000310 00 00 00 40 51 fc a2 bf 00 00 00 40 82 4c c1 3f
       -0.037081278860569 0.135147362947464
000320 00 00 00 40 c1 3a a9 3f 00 00 00 e0 4c 4b b1 3f
       0.04927638918161392 0.06755524128675461
000330 00 00 00 40 c2 1c cf 3f 00 00 00 e0 c0 24 6f bf
       0.24306514859199524 -0.0038017050828784704
000340 00 00 00 00 6f 00 bc 3f 00 00 00 c0 4d 92 a8 bf
       0.10938161611557007 -0.04799120873212814
000350 00 00 00 40 1d 66 c8 bf 00 00 00 80 6f 48 b3 3f
       -0.19061627984046936 0.07532402873039246
000360 00 00 00 c0 ce 68 96 bf 00 00 00 c0 7a 78 b7 3f
       -0.021884184330701828 0.09168212115764618
000370 00 00 00 80 79 f6 ab 3f 00 00 00 a0 51 85 ab 3f
       0.054614827036857605 0.053751517087221146
000380 00 00 00 a0 90 84 d2 3f 00 00 00 40 2a cc a4 3f
       0.28934112191200256 0.04062015563249588
000390 00 00 00 60 5a 70 bf 3f 00 00 00 80 39 d7 a0 bf
       0.12280812114477158 -0.03289203345775604
0003a0 00 00 00 80 38 5e c4 bf 00 00 00 c0 59 3c b9 3f
       -0.15912538766860962 0.09857712686061859
0003b0 00 00 00 20 62 59 9c bf 00 00 00 e0 b0 09 b6 3f
       -0.02768472023308277 0.08608537167310715
0003c0 00 00 00 60 53 32 b1 3f 00 00 00 a0 31 c6 ba 3f
       0.06717415899038315 0.10458669811487198
0003d0 00 00 00 a0 84 c0 d0 3f 00 00 00 e0 5e 57 b1 3f
       0.26175037026405334 0.06773941963911057
0003e0 00 00 00 80 30 33 ba 3f 00 00 00 60 3d f3 a9 bf
       0.1023435890674591 -0.050683896988630295
0003f0 00 00 00 00 52 7b c6 bf 00 00 00 00 8e d9 ba 3f
       -0.17563843727111816 0.1048821210861206
000400 00 00 00 80 7f 50 7a bf 00 00 00 00 3d cc a8 3f
       -0.006424425169825554 0.04843321442604065
000410 00 00 00 e0 37 07 b3 3f 00 00 00 a0 45 c7 bf 3f
       0.07432889193296432 0.12413439899682999
000420 00 00 00 e0 d0 8f ce 3f 00 00 00 20 d9 45 b0 3f
       0.23876391351222992 0.06356579810380936
000430 00 00 00 60 bc 82 c1 3f 00 00 00 60 1b ad b0 bf
       0.13680224120616913 -0.06514140218496323
000440 00 00 00 a0 83 1d c9 bf 00 00 00 40 88 85 bf 3f
       -0.19621320068836212 0.12313129007816315
000450 00 00 00 40 3d bd 87 bf 00 00 00 20 a3 17 96 3f
       -0.011591413989663124 0.02157454378902912
000460 00 00 00 c0 14 88 ba 3f 00 00 00 20 6f b6 b9 3f
       0.10363893210887909 0.10043997317552567
000470 00 00 00 80 2f d5 d1 3f 00 00 00 00 87 1b b6 3f
       0.2786368131637573 0.08635753393173218
000480 00 00 00 c0 10 5f c0 3f 00 00 00 00 d2 d7 ad bf
       0.12790116667747498 -0.058287203311920166
000490 00 00 00 00 af 62 c7 bf 00 00 00 a0 8f ce c4 3f
       -0.1826990842819214 0.16255374252796173
0004a0 00 00 00 40 cd 87 6e bf 00 00 00 e0 9c 2d 42 bf
       -0.0037268646992743015 -0.0005547538748942316
0004b0 00 00 00 80 5a 5c c3 3f 00 00 00 60 d5 11 b9 3f
       0.15125590562820435 0.09792836755514145
0004c0 00 00 00 80 7d c2 d2 3f 00 00 00 00 1f 12 b3 3f
       0.29312074184417725 0.07449525594711304
0004d0 00 00 00 a0 0c 04 bc 3f 00 00 00 80 29 7c be bf
       0.10943678766489029 -0.11908206343650818
0004e0 00 00 00 40 04 f8 cb bf 00 00 00 00 54 88 c5 3f
       -0.2185063660144806 0.16822290420532227
0004f0 00 00 00 60 f8 12 9a bf 00 00 00 20 3c 9b 88 3f
       -0.025462990626692772 0.012014837004244328
000500 00 00 00 00 8f 69 bf 3f 00 00 00 80 fa 90 c0 3f
       0.12270444631576538 0.12942439317703247
000510 00 00 00 e0 e5 15 d2 3f 00 00 00 20 1f b6 b2 3f
       0.28258654475212097 0.07309145480394363
000520 00 00 00 c0 87 4d bf 3f 00 00 00 c0 d4 45 bf bf
       0.12227676808834076 -0.12215928733348846
000530 00 00 00 40 69 0b cd bf 00 00 00 00 eb 16 c3 3f
       -0.22691074013710022 0.14913690090179443
000540 00 00 00 e0 85 a6 b3 bf 00 00 00 20 82 75 5b 3f
       -0.0767596885561943 0.0016759653808549047
000550 00 00 00 20 c0 d2 bb 3f 00 00 00 20 48 c7 c3 3f
       0.10868454724550247 0.15451909601688385
000560 00 00 00 00 f0 15 d5 3f 00 00 00 a0 2d a8 bc 3f
       0.3294639587402344 0.11194119602441788
000570 00 00 00 20 bc 72 c5 3f 00 00 00 00 9b c8 c0 bf
       0.16756393015384674 -0.13112199306488037
000580 00 00 00 c0 bd 44 ca bf 00 00 00 20 84 25 c2 3f
       -0.20522281527519226 0.1417699009180069
000590 00 00 00 80 2e 09 a4 bf 00 00 00 20 e2 52 8e 3f
       -0.03913255035877228 0.014806524850428104
0005a0 00 00 00 80 9a 53 bb 3f 00 00 00 00 6a 8e c5 3f
       0.1067444384098053 0.16840863227844238
0005b0 00 00 00 20 2c 26 d6 3f 00 00 00 80 44 de b7 3f
       0.34607985615730286 0.09323528409004211
0005c0 00 00 00 60 b4 31 c3 3f 00 00 00 00 b8 f5 c0 bf
       0.14995436370372772 -0.13249874114990234
0005d0 00 00 00 80 ea b3 cf bf 00 00 00 c0 c4 12 bf 3f
       -0.24767810106277466 0.12138013541698456
0005e0 00 00 00 a0 63 2d 8e bf 00 00 00 40 b8 c1 8e 3f
       -0.014735010452568531 0.015017928555607796
0005f0 00 00 00 20 d9 bd ba 3f 00 00 00 40 91 27 c5 3f
       0.10445935279130936 0.16527000069618225
000600 00 00 00 80 d2 73 d5 3f 00 00 00 80 56 5e b9 3f
       0.3351942300796509 0.09909573197364807
000610 00 00 00 e0 1f 59 c2 3f 00 00 00 60 54 38 c1 bf
       0.14334486424922943 -0.13453154265880585
000620 00 00 00 40 0f 09 d1 bf 00 00 00 20 51 46 be 3f
       -0.2661779522895813 0.1182604506611824
000630 00 00 00 20 e6 0c 89 bf 00 00 00 c0 cf 3a a1 3f
       -0.012231633998453617 0.033651821315288544
000640 00 00 00 a0 f9 67 b5 3f 00 00 00 60 d5 dc c7 3f
       0.08361778408288956 0.1864268034696579
000650 00 00 00 e0 51 db d7 3f 00 00 00 20 d8 7b b9 3f
       0.37276121973991394 0.09954596310853958
000660 00 00 00 60 3e 42 be 3f 00 00 00 c0 7c 4b bf bf
       0.11819829791784286 -0.12224559485912323
000670 00 00 00 20 b8 d0 cb bf 00 00 00 60 ec ee c1 3f
       -0.21730710566043854 0.14010386168956757
000680 00 00 00 e0 1b a1 ac bf 00 00 00 60 c8 0f b0 3f
       -0.05591666325926781 0.06274082511663437
000690 00 00 00 80 bc 35 a9 3f 00 00 00 80 62 a6 c6 3f
       0.04923810064792633 0.17695266008377075
0006a0 00 00 00 20 af 00 d6 3f 00 00 00 e0 4b 50 c1 3f
       0.34379175305366516 0.13526295125484467
0006b0 00 00 00 a0 7a 40 bf 3f 00 00 00 60 25 1f bc bf
       0.12207762151956558 -0.10985025018453598
0006c0 00 00 00 40 ff 62 cc bf 00 00 00 60 76 d4 c3 3f
       -0.22177115082740784 0.15492133796215057
0006d0 00 00 00 40 84 9a a7 bf 00 00 00 60 e9 45 ae 3f
       -0.04610074311494827 0.05912713333964348
0006e0 00 00 00 c0 f7 e2 85 3f 00 00 00 40 be e6 c5 3f
       0.010686812922358513 0.17110422253608704
0006f0 00 00 00 00 97 af d6 3f 00 00 00 80 38 17 c5 3f
       0.35446715354919434 0.16477113962173462
000700 00 00 00 c0 66 a6 c5 3f 00 00 00 a0 83 51 b6 bf
       0.16914066672325134 -0.08718130737543106
000710 00 00 00 60 1a c3 cb bf 00 00 00 a0 22 ff c3 3f
       -0.2168915718793869 0.1562236100435257
000720 00 00 00 20 75 df ad bf 00 00 00 80 f3 47 b6 3f
       -0.05834547057747841 0.08703538775444031
000730 00 00 00 20 48 8c 67 bf 00 00 00 20 d1 88 c4 3f
       -0.0028745087329298258 0.1604253202676773
000740 00 00 00 80 21 5e d4 3f 00 00 00 00 e6 26 c8 3f
       0.3182452917098999 0.18868708610534668
000750 00 00 00 e0 e9 49 c0 3f 00 00 00 20 eb ce b5 bf
       0.1272556632757187 -0.08518857508897781
000760 00 00 00 60 16 fd cd bf 00 00 00 80 fd 30 c8 3f
       -0.2342861145734787 0.18899506330490112
000770 00 00 00 80 7b d1 8e bf 00 00 00 a0 9d ed ae 3f
       -0.015047993510961533 0.06040661409497261
000780 00 00 00 60 25 50 4e 3f 00 00 00 a0 13 17 ca 3f
       0.0009250814910046756 0.20382924377918243
000790 00 00 00 40 9b 79 d3 3f 00 00 00 40 ad 1e cb 3f
       0.3042972683906555 0.21187368035316467
0007a0 00 00 00 40 20 f9 c1 3f 00 00 00 40 ef a1 bb bf
       0.140415221452713 -0.10793967545032501
0007b0 00 00 00 80 d3 a9 cb bf 00 00 00 20 69 00 c4 3f
       -0.216120183467865 0.15626253187656403
0007c0 00 00 00 80 aa 24 9e bf 00 00 00 60 39 25 ba 3f
       -0.02943674474954605 0.10213049501180649
0007d0 00 00 00 20 09 09 9b 3f 00 00 00 80 d7 d4 cb 3f
       0.02640165574848652 0.2174329161643982
0007e0 00 00 00 60 25 21 d5 3f 00 00 00 c0 ce b0 ca 3f
       0.3301480710506439 0.20852074027061462
0007f0 00 00 00 20 e5 4b c6 3f 00 00 00 20 a5 c3 ba bf
       0.17419113218784332 -0.10454780608415604
