results/weights/weights_sequence_zo_adamm_12.333333015441895_conv2.weight_5.npy (npy, 33176 bytes, 1 tensors)

array f8 [51, 81]
000000 00 00 00 60 da 38 cf 3f 00 00 00 40 cb ce a2 3f
       0.24392251670360565 0.0367339625954628
000010 00 00 00 20 d2 d1 cc bf 00 00 00 40 48 39 c4 bf
       -0.22515322268009186 -0.15799811482429504
000020 00 00 00 20 ea 39 b6 3f 00 00 00 20 59 8c d1 3f
       0.08682120591402054 0.2741911709308624
000030 00 00 00 20 9d 05 8c 3f 00 00 00 60 35 76 a5 3f
       0.013682582415640354 0.04191748425364494
000040 00 00 00 00 a3 27 b3 3f 00 00 00 a0 3a 54 db bf
       0.07482355833053589 -0.42701593041419983
000050 00 00 00 40 d1 1e 22 bf 00 00 00 40 5b b9 aa bf
       -0.00013824753114022315 -0.05219540745019913
000060 00 00 00 e0 14 9a ba 3f 00 00 00 a0 70 08 ae bf
       0.10391359776258469 -0.058658141642808914
000070 00 00 00 80 3f 49 d5 3f 00 00 00 20 ac 71 df bf
       0.33259570598602295 -0.49131301045417786
000080 00 00 00 20 c1 6a c5 3f 00 00 00 c0 cf 89 d0 bf
       0.1673203855752945 -0.25841134786605835
000090 00 00 00 c0 63 7f ce bf 00 00 00 c0 c4 46 b3 bf
       -0.2382626235485077 -0.07529859244823456
0000a0 00 00 00 60 52 ef b0 bf 00 00 00 80 89 76 b6 3f
       -0.06615176051855087 0.08774623274803162
0000b0 00 00 00 40 82 54 bb 3f 00 00 00 40 ba a8 9f 3f
       0.106758251786232 0.030917081981897354
0000c0 00 00 00 e0 86 85 c0 bf 00 00 00 60 5f 82 b4 bf
       -0.12907491624355316 -0.08011432737112045
0000d0 00 00 00 c0 6b 34 cc bf 00 00 00 60 f3 55 ca bf
       -0.2203497588634491 -0.20574800670146942
0000e0 00 00 00 40 28 29 b9 bf 00 00 00 60 ae cc bb 3f
       -0.09828425943851471 0.10859193652868271
0000f0 00 00 00 20 83 15 d0 bf 00 00 00 c0 8f 8f c5 3f
       -0.2513130009174347 0.16844365000724792
000100 00 00 00 00 a0 2d b9 bf 00 00 00 e0 67 d3 9b bf
       -0.09835243225097656 -0.027173636481165886
000110 00 00 00 60 35 af c2 bf 00 00 00 60 a7 84 70 3f
       -0.14597193896770477 0.00403275853022933
000120 00 00 00 c0 83 ec b6 3f 00 00 00 20 dc 9d d2 3f
       0.08954642713069916 0.29088500142097473
000130 00 00 00 a0 ff 97 c9 bf 00 00 00 00 24 20 c1 3f
       -0.19995112717151642 0.13379335403442383
000140 00 00 00 a0 4a b8 d1 bf 00 00 00 80 b5 90 ab bf
       -0.27687326073646545 -0.05383841693401337
000150 00 00 00 a0 0e 16 d0 bf 00 00 00 00 7e c1 90 bf
       -0.25134626030921936 -0.01636311411857605
000160 00 00 00 60 e0 0a c1 bf 00 00 00 e0 86 be be 3f
       -0.13314442336559296 0.12009470909833908
000170 00 00 00 00 a8 70 b8 bf 00 00 00 e0 af 80 c8 bf
       -0.09546899795532227 -0.19142721593379974
000180 00 00 00 60 c0 b7 d3 bf 00 00 00 20 87 eb de 3f
       -0.30809029936790466 0.4831254780292511
000190 00 00 00 c0 ee d0 c1 3f 00 00 00 20 58 f7 c1 3f
       0.13918861746788025 0.14036084711551666
0001a0 00 00 00 40 a8 22 bb 3f 00 00 00 00 3b ec b7 3f
       0.10599757730960846 0.09344834089279175
0001b0 00 00 00 80 94 e7 62 3f 00 00 00 80 8c 0d d0 3f
       0.0023076916113495827 0.25082695484161377
0001c0 00 00 00 80 ac 88 d1 bf 00 00 00 00 57 7d e0 3f
       -0.273966908454895 0.5153002738952637
0001d0 00 00 00 a0 91 09 cc 3f 00 00 00 00 d1 ea c5 bf
       0.21904201805591583 -0.1712285280227661
0001e0 00 00 00 a0 97 bf ba 3f 00 00 00 40 77 4a d2 3f
       0.10448596626520157 0.28579503297805786
0001f0 00 00 00 c0 83 5f c2 bf 00 00 00 60 3d 22 d8 3f
       -0.14353987574577332 0.37708982825279236
000200 00 00 00 c0 c1 1c 88 bf 00 00 00 60 b9 3c d4 bf
       -0.011773599311709404 -0.31620630621910095
000210 00 00 00 a0 90 66 b2 3f 00 00 00 80 0c 40 bd bf
       0.07187751680612564 -0.11425855755805969
000220 00 00 00 60 9c 54 d8 bf 00 00 00 80 99 ad c0 bf
       -0.380164235830307 -0.13029783964157104
000230 00 00 00 e0 28 53 b9 3f 00 00 00 e0 20 72 a4 3f
       0.0989251658320427 0.039933230727910995
000240 00 00 00 a0 1d 2b d2 bf 00 00 00 40 f5 9e b6 3f
       -0.2838815748691559 0.08836300671100616
000250 00 00 00 c0 63 68 bf 3f 00 00 00 20 02 05 94 bf
       0.12268660962581635 -0.019550355151295662
000260 00 00 00 e0 78 08 b0 3f 00 00 00 e0 58 ce d1 bf
       0.06262927502393723 -0.27821943163871765
000270 00 00 00 a0 7b 73 ab bf 00 00 00 c0 96 81 b9 3f
       -0.05361543968319893 0.09963361918926239
000280 00 00 00 00 9b 8d b7 bf 00 00 00 20 cb 6c d3 3f
       -0.09200447797775269 0.30351522564888
000290 00 00 00 20 07 27 85 bf 00 00 00 a0 cb 23 cd bf
       -0.01032834593206644 -0.22765488922595978
0002a0 00 00 00 e0 c0 64 ce bf 00 00 00 c0 f8 a5 b5 3f
       -0.2374497503042221 0.08456377685070038
0002b0 00 00 00 20 b7 0e d2 3f 00 00 00 40 3c c2 a2 3f
       0.282148152589798 0.03663814812898636
0002c0 00 00 00 a0 ee bd b7 3f 00 00 00 c0 44 92 cd 3f
       0.09274188429117203 0.23102626204490662
0002d0 00 00 00 20 ff 69 dd bf 00 00 00 c0 a7 9b c7 bf
       -0.4595945179462433 -0.18443772196769714
0002e0 00 00 00 e0 05 81 b7 3f 00 00 00 20 b5 5b b6 3f
       0.09181248396635056 0.08733684569597244
0002f0 00 00 00 60 b6 06 c6 bf 00 00 00 60 88 07 d3 3f
       -0.17207984626293182 0.297334760427475
000300 00 00 00 60 8a 96 dd bf 00 00 00 20 60 15 a1 bf
       -0.4623132646083832 -0.03336620703339577
000310 00 00 00 00 09 aa cd bf 00 00 00 60 5b e2 c7 bf
       -0.23175156116485596 -0.1865953654050827
000320 00 00 00 60 65 e1 95 3f 00 00 00 80 70 c1 ac bf
       0.02136762998998165 -0.056163325905799866
000330 00 00 00 a0 5b 92 8e bf 00 00 00 00 98 63 cf 3f
       -0.014927593059837818 0.24522686004638672
000340 00 00 00 00 7f 88 b4 3f 00 00 00 20 e4 d6 c4 bf
       0.08020776510238647 -0.16280795633792877
000350 00 00 00 20 b1 91 bc bf 00 00 00 e0 dd 5b d0 bf
       -0.11159808188676834 -0.25560709834098816
000360 00 00 00 40 8d f6 a8 bf 00 00 00 00 a9 48 b8 bf
       -0.04875604063272476 -0.09485870599746704
000370 00 00 00 00 5a 3c c6 3f 00 00 00 40 7b 7b d0 bf
       0.17371678352355957 -0.25753670930862427
000380 00 00 00 40 6c 5a c7 3f 00 00 00 20 13 a5 a2 bf
       0.18244698643684387 -0.036415670067071915
000390 00 00 00 60 70 6e 9a bf 00 00 00 e0 85 c2 cc bf
       -0.02581191621720791 -0.2246863692998886
0003a0 00 00 00 c0 98 e6 73 bf 00 00 00 20 36 2b 9a bf
       -0.0048585860058665276 -0.025555463507771492
0003b0 00 00 00 00 d7 ef d1 3f 00 00 00 40 a8 2f ca bf
       0.28026366233825684 -0.20457938313484192
0003c0 00 00 00 80 3d a7 bd 3f 00 00 00 80 25 3d bb bf
       0.11583313345909119 -0.10640177130699158
0003d0 00 00 00 40 a6 3d c1 bf 00 00 00 00 e8 57 d2 bf
       -0.13469389081001282 -0.28661537170410156
0003e0 00 00 00 20 5b 5a a0 3f 00 00 00 40 ba aa c8 bf
       0.03193936124444008 -0.19271019101142883
0003f0 00 00 00 00 fb be 97 3f 00 00 00 c0 8d 10 b9 bf
       0.023189470171928406 -0.09790883958339691
000400 00 00 00 40 78 65 c8 bf 00 00 00 80 de c3 d7 bf
       -0.19059661030769348 -0.3713299036026001
000410 00 00 00 e0 5a 73 e1 3f 00 00 00 a0 59 43 ad bf
       0.5453314185142517 -0.05715446546673775
000420 00 00 00 a0 fa a4 ca 3f 00 00 00 c0 00 38 c5 3f
       0.20815975964069366 0.16577157378196716
000430 00 00 00 60 55 42 a9 bf 00 00 00 c0 f9 cc c9 3f
       -0.04933420941233635 0.2015678584575653
000440 00 00 00 a0 42 49 d1 3f 00 00 00 40 55 50 ce bf
       0.27009645104408264 -0.2368265688419342
000450 00 00 00 80 47 38 e2 3f 00 00 00 80 c6 2d cd 3f
       0.5693700313568115 0.22795945405960083
000460 00 00 00 a0 31 4b d0 bf 00 00 00 c0 23 fc cd 3f
       -0.2545894682407379 0.23425719141960144
000470 00 00 00 40 32 74 d4 3f 00 00 00 a0 a9 a0 a1 bf
       0.31959205865859985 -0.03442888334393501
000480 00 00 00 a0 7c 1b de 3f 00 00 00 00 96 fc c2 bf
       0.47042766213417053 -0.14833331108093262
000490 00 00 00 00 db 66 d3 bf 00 00 00 80 10 78 cc 3f
       -0.30315279960632324 0.2224140763282776
0004a0 00 00 00 60 b5 3e ba bf 00 00 00 00 c2 36 d7 bf
       -0.10251935571432114 -0.3627171516418457
0004b0 00 00 00 60 c7 5c ca bf 00 00 00 a0 88 a9 bf 3f
       -0.2059563845396042 0.12368062883615494
0004c0 00 00 00 a0 a4 6d 71 3f 00 00 00 20 c3 fe d0 bf
       0.0042549544014036655 -0.2655494511127472
0004d0 00 00 00 80 de 9b a4 bf 00 00 00 20 30 7e b8 3f
       -0.04025168716907501 0.09567547589540482
0004e0 00 00 00 e0 7c 14 c5 bf 00 00 00 a0 eb aa bb 3f
       -0.16468773782253265 0.1080767884850502
0004f0 00 00 00 60 6d 5a cc bf 00 00 00 00 d5 10 b2 bf
       -0.22150962054729462 -0.07056933641433716
000500 00 00 00 00 ae 2e c5 3f 00 00 00 00 25 e1 b9 bf
       0.16548705101013184 -0.10109168291091919
000510 00 00 00 c0 e2 90 d7 3f 00 00 00 60 5d 26 9c 3f
       0.3682181239128113 0.027490099892020226
000520 00 00 00 20 92 d8 d0 bf 00 00 00 00 e5 dd d2 bf
       -0.2632184326648712 -0.29479336738586426
000530 00 00 00 20 aa 65 bd 3f 00 00 00 c0 7d 06 d3 3f
       0.11483252793550491 0.297271192073822
000540 00 00 00 00 27 c3 ae 3f 00 00 00 e0 a6 29 b3 3f
       0.06008264422416687 0.0748543068766594
000550 00 00 00 00 41 7b c8 3f 00 00 00 e0 c9 86 d7 bf
       0.1912614107131958 -0.36760184168815613
000560 00 00 00 60 32 99 c7 bf 00 00 00 20 2f 4b b8 3f
       -0.18436269462108612 0.09489721804857254
000570 00 00 00 c0 3a 74 aa 3f 00 00 00 80 58 c7 c6 bf
       0.05166801065206528 -0.17795854806900024
000580 00 00 00 40 a5 b4 d3 3f 00 00 00 a0 0a 26 e1 bf
       0.30790072679519653 -0.5358937382698059
000590 00 00 00 a0 23 71 a0 3f 00 00 00 e0 9f 12 c1 bf
       0.03211318328976631 -0.13338087499141693
0005a0 00 00 00 80 13 87 bd bf 00 00 00 e0 e4 60 ad 3f
       -0.11534234881401062 0.057379867881536484
0005b0 00 00 00 40 7d 88 a0 bf 00 00 00 80 98 f6 a6 bf
       -0.03229133039712906 -0.044850125908851624
0005c0 00 00 00 a0 37 54 c8 3f 00 00 00 40 95 bd 9e 3f
       0.19007010757923126 0.030020076781511307
0005d0 00 00 00 e0 f4 a3 c3 bf 00 00 00 c0 cc 21 9c bf
       -0.15344105660915375 -0.027472686022520065
0005e0 00 00 00 80 3d 83 c6 bf 00 00 00 e0 81 d4 bc bf
       -0.17588013410568237 -0.1126176044344902
0005f0 00 00 00 a0 7a 4f bb bf 00 00 00 c0 b6 8d c7 3f
       -0.10668150335550308 0.1840122640132904
000600 00 00 00 40 ca 3c d2 bf 00 00 00 a0 95 b4 c6 3f
       -0.2849603295326233 0.17738600075244904
000610 00 00 00 c0 0e 26 b9 bf 00 00 00 80 2d f2 a0 bf
       -0.09823696315288544 -0.03309766948223114
000620 00 00 00 00 1c 70 c9 bf 00 00 00 60 43 84 a5 bf
       -0.19873380661010742 -0.04202471300959587
000630 00 00 00 a0 56 aa bc bf 00 00 00 a0 48 88 d4 3f
       -0.11197415739297867 0.32081809639930725
000640 00 00 00 60 5d cc ce bf 00 00 00 c0 67 0e c0 3f
       -0.2406117171049118 0.1254396140575409
000650 00 00 00 a0 d5 99 ba bf 00 00 00 20 07 33 c4 bf
       -0.10390982776880264 -0.15780724585056305
000660 00 00 00 a0 ee 98 c9 bf 00 00 00 20 f7 2f 91 bf
       -0.19997961819171906 -0.016784535720944405
000670 00 00 00 20 44 5e ca bf 00 00 00 60 d6 e2 9a 3f
       -0.20600177347660065 0.02625594101846218
000680 00 00 00 80 86 7d b6 bf 00 00 00 80 9e fa cd bf
       -0.08785286545753479 -0.2342107892036438
000690 00 00 00 20 77 94 da bf 00 00 00 40 40 dd e2 3f
       -0.4153116047382355 0.5895081758499146
0006a0 00 00 00 60 ef 8f a2 bf 00 00 00 40 41 fa c6 3f
       -0.036254387348890305 0.1795121729373932
0006b0 00 00 00 60 8a 8a c6 3f 00 00 00 c0 ca 50 a0 bf
       0.1761029213666916 -0.031866393983364105
0006c0 00 00 00 00 de 6f ce 3f 00 00 00 e0 43 b3 d6 3f
       0.23778891563415527 0.3546914756298065
0006d0 00 00 00 20 09 8c d2 bf 00 00 00 00 15 1a e5 3f
       -0.2897970974445343 0.6594338417053223
0006e0 00 00 00 20 bc e8 d0 3f 00 00 00 80 15 f3 cf bf
       0.2642050087451935 -0.24960583448410034
0006f0 00 00 00 00 21 9a d2 3f 00 00 00 60 b9 48 da 3f
       0.29065728187561035 0.41068872809410095
000700 00 00 00 40 62 77 8c bf 00 00 00 20 8b 7c e1 3f
       -0.013899581506848335 0.546453058719635
000710 00 00 00 00 e0 14 bc bf 00 00 00 80 37 1e d5 bf
       -0.10969352722167969 -0.32996928691864014
000720 00 00 00 80 a8 7e c9 3f 00 00 00 80 35 de c0 bf
       0.1991778016090393 -0.13178128004074097
000730 00 00 00 a0 05 a0 d6 bf 00 00 00 60 7b 33 d0 bf
       -0.35351696610450745 -0.25314220786094666
000740 00 00 00 a0 3d 12 c1 3f 00 00 00 a0 37 6f c1 3f
       0.13336916267871857 0.13620658218860626
000750 00 00 00 20 07 07 d5 bf 00 00 00 00 d5 aa c3 bf
       -0.3285539448261261 -0.15365087985992432
000760 00 00 00 20 0b 04 a2 3f 00 00 00 40 14 63 c7 bf
       0.03518709912896156 -0.1827111542224884
000770 00 00 00 20 2e 66 bf 3f 00 00 00 80 19 73 cf bf
       0.12265289574861526 -0.24570006132125854
000780 00 00 00 00 6d a3 8f 3f 00 00 00 40 aa 9b c4 3f
       0.015448428690433502 0.16100051999092102
000790 00 00 00 60 80 e6 ba bf 00 00 00 80 7e 20 da 3f
       -0.10507967323064804 0.40823328495025635
0007a0 00 00 00 60 cd 3a 9d 3f 00 00 00 00 93 51 cf bf
       0.028544625267386436 -0.24467694759368896
0007b0 00 00 00 20 06 ee d5 bf 00 00 00 20 b8 1f b0 3f
       -0.342652827501297 0.06298399716615677
0007c0 00 00 00 60 97 99 d5 3f 00 00 00 40 3c 52 b6 3f
       0.3374994695186615 0.08719231188297272
0007d0 00 00 00 c0 85 0e c1 3f 00 00 00 a0 d3 2f ce 3f
       0.13325569033622742 0.23583455383777618
0007e0 00 00 00 80 b4 2e d9 bf 00 00 00 00 8c 1a c7 bf
       -0.39347565174102783 -0.1804976463317871
0007f0 00 00 00 40 0a 82 c1 3f 00 00 00 c0 21 2d 89 bf
       0.1367810070514679 -0.012293113395571709
