results/weights/weights_sequence_zo_adamm_0.1111111119389534_conv2.bias_0.npy (npy, 1352 bytes, 1 tensors)

array f8 [51, 3]
00000000: 0000 0040 e17a 843f 0000 0040 e17a 843f
00000010: 0000 0040 e17a 843f 0000 00c0 41dd bdbf
00000020: 0000 00c0 5a20 b63f 0000 0040 0f3a 9a3f
00000030: 0000 00a0 100e c1bf 0000 0080 8353 bb3f
00000040: 0000 0060 07a4 b13f 0000 00c0 222b c1bf
00000050: 0000 0040 2d3d b03f 0000 00c0 4e28 a33f
00000060: 0000 00a0 7c0e c3bf 0000 0040 7de1 b63f
00000070: 0000 0080 6971 b03f 0000 00a0 b37f c3bf
00000080: 0000 00e0 cf74 bc3f 0000 00e0 9b10 b23f
00000090: 0000 0060 d8f0 c1bf 0000 0040 ed43 c43f
000000a0: 0000 0000 7afa b13f 0000 0000 c562 b8bf
000000b0: 0000 0000 686d c03f 0000 0000 aa70 b43f
000000c0: 0000 00e0 d8a4 b1bf 0000 0000 0433 be3f
000000d0: 0000 0060 8702 b63f 0000 0060 5de1 aebf
000000e0: 0000 0060 3ccb c03f 0000 0040 2c07 b43f
000000f0: 0000 00c0 47c9 b1bf 0000 0020 0158 c53f
00000100: 0000 0060 c77e b53f 0000 0020 6a31 b1bf
00000110: 0000 00a0 0dce c53f 0000 0000 873d bd3f
00000120: 0000 00e0 9aa3 afbf 0000 0080 c6d9 c43f
00000130: 0000 00e0 0c5b c33f 0000 00a0 ca0d b8bf
00000140: 0000 0000 ccc0 c93f 0000 0000 aff5 c13f
00000150: 0000 00c0 fe78 b0bf 0000 0040 dc47 cb3f
00000160: 0000 0060 fe96 c23f 0000 00a0 b4a3 b7bf
00000170: 0000 00c0 698f cd3f 0000 0040 6c67 c23f
00000180: 0000 00a0 332c b6bf 0000 0040 8702 cc3f
00000190: 0000 0060 5259 c33f 0000 00c0 664d b3bf
000001a0: 0000 0020 1729 ca3f 0000 0080 eff7 c23f
000001b0: 0000 0040 f958 b5bf 0000 0080 a53c cd3f
000001c0: 0000 0060 22ee c53f 0000 00a0 7b44 c0bf
000001d0: 0000 0000 861f cc3f 0000 00c0 1c52 c73f
000001e0: 0000 00a0 8a01 b8bf 0000 00c0 7534 cb3f
000001f0: 0000 0080 3b6b c53f 0000 00c0 3c25 bcbf
00000200: 0000 00e0 d77a cb3f 0000 0060 b602 c43f
00000210: 0000 0080 bc49 b2bf 0000 0040 eee2 cb3f
00000220: 0000 0040 8c20 c73f 0000 00a0 1a07 b3bf
00000230: 0000 0000 9249 ca3f 0000 0020 a691 c73f
00000240: 0000 00a0 c1fe b3bf 0000 00e0 543b ca3f
00000250: 0000 0060 ce9a c93f 0000 00a0 85ec b1bf
00000260: 0000 0060 e283 c73f 0000 0040 c689 cc3f
00000270: 0000 00c0 f061 b5bf 0000 00c0 1c65 ca3f
00000280: 0000 00c0 5fbc c83f 0000 00a0 c58f b9bf
00000290: 0000 0080 7815 ce3f 0000 0020 2917 cb3f
000002a0: 0000 0000 8ed9 bdbf 0000 0040 95b8 d03f
000002b0: 0000 0040 4412 d03f 0000 0080 4aca c0bf
000002c0: 0000 00c0 a27d cf3f 0000 0000 5003 d03f
000002d0: 0000 00a0 94a5 c0bf 0000 0060 2628 ce3f
000002e0: 0000 00e0 73e0 d03f 0000 0020 395f bbbf
000002f0: 0000 0060 0ab0 cf3f 0000 0080 8b91 d23f
00000300: 0000 0000 ac51 b5bf 0000 0020 5774 ce3f
00000310: 0000 00c0 fd6e d03f 0000 0080 35b4 b5bf
00000320: 0000 00a0 d508 cf3f 0000 00e0 b6f3 cf3f
00000330: 0000 0060 daf9 bcbf 0000 00c0 106f cf3f
00000340: 0000 0040 9749 d03f 0000 0080 0fa0 b8bf
00000350: 0000 00e0 8065 ce3f 0000 0060 dbb4 d13f
00000360: 0000 00e0 275c c1bf 0000 0020 46c8 cf3f
00000370: 0000 00e0 058b d33f 0000 00a0 4d5d bcbf
00000380: 0000 00a0 43c4 cd3f 0000 0020 81f9 d13f
00000390: 0000 0080 9af1 acbf 0000 00c0 5781 cf3f
000003a0: 0000 00c0 6fff d33f 0000 0000 dfe9 a4bf
000003b0: 0000 00a0 86f7 cf3f 0000 00a0 4b06 d33f
000003c0: 0000 0060 63ba a6bf 0000 0040 f7f1 cc3f
000003d0: 0000 0040 46af d33f 0000 00e0 9d61 b0bf
000003e0: 0000 0040 63e7 cc3f 0000 00e0 f076 d33f
000003f0: 0000 0080 87e5 b0bf 0000 00a0 0844 cf3f
00000400: 0000 0060 ca0f d53f 0000 0060 2f55 b0bf
00000410: 0000 0020 d59f d23f 0000 0020 f065 d43f
00000420: 0000 0060 a407 b1bf 0000 0080 4746 d33f
00000430: 0000 00c0 207e d53f 0000 00e0 06ad 98bf
00000440: 0000 0060 b5d1 d43f 0000 00a0 77f6 d63f
00000450: 0000 0040 32ea a0bf 0000 0080 5833 d13f
00000460: 0000 00c0 50c8 d63f 0000 00a0 67cf a6bf
00000470: 0000 0000 2e7a d33f 0000 00e0 e00d d63f
00000480: 0000 00a0 3431 9cbf 0000 0040 2029 d43f
00000490: 0000 00a0 7f41 d53f 0000 0060 5f0b 97bf
000004a0: 0000 00e0 2c7b d53f 0000 0000 9cb1 d33f
000004b0: 0000 0020 0b97 a3bf 0000 0080 cef4 d53f
000004c0: 0000 00a0 369b d53f
0.009999999776482582 0.009999999776482582 0.009999999776482582 -0.11665736138820648 0.08643119037151337 0.025612104684114456 -0.13324172794818878 0.10674306750297546
0.06890913099050522 -0.1341288983821869 0.06343348324298859 0.03741689771413803 -0.14887960255146027 0.08937819302082062 0.0642305314540863 -0.15233464539051056
0.11115740984678268 0.07056593149900436 -0.14016251266002655 0.15832296013832092 0.0702282190322876 -0.09525710344314575 0.12833881378173828 0.07984411716461182
-0.06892161816358566 0.1179659366607666 0.08597608655691147 -0.0603131465613842 0.13120226562023163 0.07823444902896881 -0.06947754323482513 0.16674818098545074
0.0839657410979271 -0.06716025620698929 0.17035074532032013 0.11422008275985718 -0.061795081943273544 0.16289597749710083 0.15121613442897797 -0.09396044164896011
0.20119619369506836 0.1403101682662964 -0.06434623897075653 0.21313050389289856 0.14523296058177948 -0.09234169870615005 0.230939120054245 0.14378121495246887
-0.08661196380853653 0.21882715821266174 0.15116338431835175 -0.07539980113506317 0.20437897741794586 0.1481913924217224 -0.08338887989521027 0.22841328382492065
0.1713297814130783 -0.12708993256092072 0.2197120189666748 0.18219336867332458 -0.09377352148294449 0.2125384509563446 0.16733497381210327 -0.1099431961774826
0.21468637883663177 0.15633277595043182 -0.07143762707710266 0.21786287426948547 0.1806807816028595 -0.07432714849710464 0.20537018775939941 0.18413235247135162
-0.07810602337121964 0.20493565499782562 0.20003680884838104 -0.07001528888940811 0.18371228873729706 0.22295454144477844 -0.08352570235729218 0.20621070265769958
0.1932487189769745 -0.09985003620386124 0.23503023386001587 0.21164430677890778 -0.1166008710861206 0.2612660527229309 0.2511149048805237 -0.13117343187332153
0.2460215985774994 0.2502021789550781 -0.13005311787128448 0.2356002777814865 0.2636995017528534 -0.1069217398762703 0.2475598305463791 0.29013335704803467
-0.08327746391296387 0.2379254251718521 0.256774365901947 -0.08478102087974548 0.24245710670948029 0.2496250718832016 -0.11318745464086533 0.24557694792747498
0.2544916272163391 -0.09619233012199402 0.23747263848781586 0.2766636312007904 -0.13562487065792084 0.24829937517642975 0.3053602874279022 -0.11079869419336319
0.23255200684070587 0.2808535397052765 -0.05653078854084015 0.24613472819328308 0.3124656081199646 -0.040846794843673706 0.24974139034748077 0.29725924134254456
-0.04439077898859978 0.22613421082496643 0.3075729012489319 -0.06398951262235641 0.22581139206886292 0.3041345775127411 -0.06600233912467957 0.24426372349262238
0.3290887773036957 -0.06379982084035873 0.291005402803421 0.31872180104255676 -0.06652285903692245 0.30116450786590576 0.3358232378959656 -0.024097545072436333
0.32529959082603455 0.358793169260025 -0.03303677588701248 0.2687588930130005 0.35597628355026245 -0.044551122933626175 0.30433225631713867 0.34459707140922546
-0.02753145433962345 0.315010130405426 0.33212271332740784 -0.022504320368170738 0.3356430232524872 0.30771541595458984 -0.03826174512505531 0.3430668115615845
0.3375984728336334
