results/weights/weights_sequence_adamm_0.1111111119389534_fc3.weight_5.npy (npy, 40928 bytes, 1 tensors)

array f8 [51, 100]
-0.0876554623246193 0.32263264060020447 -0.2191234529018402 0.24034321308135986 -0.010028976015746593 0.3662666380405426 0.015073568560183048 -0.2856113016605377
0.49231281876564026 0.06639330834150314 0.17476786673069 0.12530303001403809 -0.12857531011104584 0.5839594602584839 0.5061606764793396 0.06646726280450821
-0.1294369399547577 -0.11728475987911224 0.2055170089006424 0.4572596848011017 0.27392706274986267 -0.3997320532798767 -0.1329321265220642 0.6842322945594788
0.3039674460887909 0.3491787314414978 0.05976131930947304 0.14754384756088257 0.14156492054462433 -0.20390240848064423 0.3152434229850769 -0.09331684559583664
-0.2519541084766388 -0.3476949632167816 -0.6779340505599976 -0.5042616724967957 -0.1810758262872696 -0.2162809669971466 0.08599770069122314 -0.04791425168514252
-0.24303819239139557 -0.3720402419567108 0.4332374334335327 0.6597245335578918 0.35317766666412354 0.29266244173049927 0.218766987323761 0.21234525740146637
-0.5167983174324036 0.003583316458389163 -0.268620103597641 -0.071685791015625 -0.42199835181236267 0.1157156378030777 0.6255291700363159 -0.23587070405483246
-0.0788077563047409 0.1893356293439865 -0.43219467997550964 0.22408069670200348 0.6011400818824768 -0.38297438621520996 0.0018382832640781999 0.04383421689271927
-0.05739205703139305 0.15909305214881897 -0.088580422103405 -0.20486973226070404 0.10793031752109528 -0.19721619784832 -0.05716422572731972 0.14953240752220154
0.4237194061279297 -0.0607336051762104 0.38822442293167114 -0.03752583637833595 -0.12868157029151917 0.26937711238861084 0.08666269481182098 0.1599465310573578
-0.18750615417957306 0.057860180735588074 -0.07325027883052826 -0.48834434151649475 0.22942639887332916 0.15323078632354736 -0.20070303976535797 0.44077926874160767
0.09601499140262604 0.49439823627471924 0.32292720675468445 -0.2767426371574402 0.7125208973884583 0.06566451489925385 -0.027561582624912262 0.5999345779418945
-0.5276179313659668 -0.3679865896701813 -0.5071938633918762 -0.1739230901002884 -0.2916257083415985 0.23819716274738312 -0.2679974436759949 -0.019441718235611916
-0.359012633562088 0.5268063545227051 -0.04503907635807991 -0.3786375820636749 0.45774781703948975 -0.09200967103242874 0.24957312643527985 -0.09351861476898193
-0.06843876093626022 0.7987339496612549 0.528211236000061 -0.10633082687854767 -0.2588634788990021 -0.44071468710899353 0.05600519850850105 0.4113331735134125
0.2270917445421219 -0.49176478385925293 -0.11570800840854645 0.531488299369812 0.051393236964941025 0.2744942307472229 0.17187409102916718 -0.25885963439941406
0.25605669617652893 -0.23136773705482483 0.40851694345474243 0.15057437121868134 -0.26354220509529114 -0.28867778182029724 -0.7340787053108215 -0.5822238326072693
-0.016330262646079063 -0.12770585715770721 0.1910470426082611 -0.07166726887226105 -0.19873696565628052 -0.5608586072921753 0.3821300268173218 0.9006009697914124
0.5089184045791626 0.4286385774612427 0.19718746840953827 0.33605578541755676 -0.7536295652389526 0.10392799228429794 -0.24858789145946503 -0.008709892630577087
-0.4842001795768738 -0.17087911069393158 0.6228065490722656 -0.3782684803009033 0.07094317674636841 0.5331349968910217 -0.34151142835617065 0.08260150998830795
0.7084399461746216 -0.7113304138183594 -0.004374425858259201 -0.11877153068780899 -0.10346081852912903 0.15940125286579132 -0.0887482613325119 -0.13883015513420105
-0.17551599442958832 -0.20715653896331787 -0.31994205713272095 0.34688490629196167 0.3766135275363922 -0.0870070680975914 0.4796338379383087 0.09320636838674545
-0.3420747220516205 0.0030389626044780016 0.034632608294487 0.22983235120773315 -0.04185034707188606 -0.08331114798784256 -0.08357501775026321 -0.5900762677192688
0.4237644076347351 -0.10709584504365921 -0.29679015278816223 0.40141087770462036 0.22276730835437775 0.3312745690345764 0.3032892048358917 0.0014871242456138134
0.6671913266181946 0.20969626307487488 0.16977007687091827 0.7445220947265625 -0.6061352491378784 -0.20693302154541016 -0.6829829812049866 -0.21468523144721985
-0.29133638739585876 0.1316501498222351 -0.2679974436759949 -0.1288507580757141 -0.44131290912628174 0.5692092180252075 -0.047905925661325455 -0.29015493392944336
0.39516496658325195 -0.25482177734375 0.2510465681552887 -0.16226333379745483 -0.07209689170122147 0.9353531002998352 0.5391973853111267 -0.10287099331617355
-0.22514939308166504 -0.45113542675971985 0.0005244825151748955 0.3519786298274994 0.2229534536600113 -0.39662227034568787 -0.10400015115737915 0.5365672707557678
0.06904075294733047 0.214252769947052 0.143694207072258 -0.31194669008255005 0.3237868547439575 -0.21207141876220703 0.40545782446861267 0.19075560569763184
-0.26354777812957764 -0.15153133869171143 -0.7259711027145386 -0.6331068277359009 -0.00014387094415724277 -0.15740805864334106 0.21064762771129608 -0.07855583727359772
-0.20868098735809326 -0.5492064356803894 0.38211798667907715 0.9106084108352661 0.5571821331977844 0.43200626969337463 0.1598583608865738 0.3132772147655487
-0.7123579382896423 0.11927475780248642 -0.26064416766166687 -0.017810633406043053 -0.4842001795768738 -0.25918278098106384 0.5819873809814453 -0.40167227387428284
00000000: 0000 00a0 9670 b6bf 0000 0060 03a6 d43f
00000010: 0000 00c0 3c0c ccbf 0000 0000 91c3 ce3f
00000020: 0000 0060 128a 84bf 0000 00a0 e970 d73f
00000030: 0000 0020 e4de 8e3f 0000 00a0 7447 d2bf
00000040: 0000 00a0 0d82 df3f 0000 00e0 26ff b03f
00000050: 0000 0020 cb5e c63f 0000 0000 ee09 c03f
00000060: 0000 00e0 2775 c0bf 0000 00c0 cbaf e23f
00000070: 0000 00e0 7732 e03f 0000 00a0 ff03 b13f
00000080: 0000 00c0 6391 c0bf 0000 00c0 5f06 bebf
00000090: 0000 00a0 614e ca3f 0000 0020 be43 dd3f
000000a0: 0000 0060 0588 d13f 0000 00c0 3595 d9bf
000000b0: 0000 0080 eb03 c1bf 0000 0020 3be5 e53f
000000c0: 0000 00e0 3374 d33f 0000 00c0 f158 d63f
000000d0: 0000 0020 0999 ae3f 0000 0080 b7e2 c23f
000000e0: 0000 00a0 cc1e c23f 0000 0060 7919 cabf
000000f0: 0000 00c0 f22c d43f 0000 00e0 9ce3 b7bf
00000100: 0000 0020 0420 d0bf 0000 0060 a240 d6bf
00000110: 0000 00c0 a2b1 e5bf 0000 0060 e922 e0bf
00000120: 0000 0020 7e2d c7bf 0000 0040 18af cbbf
00000130: 0000 0000 f203 b63f 0000 0080 3788 a8bf
00000140: 0000 0020 e01b cfbf 0000 00e0 81cf d7bf
00000150: 0000 0080 29ba db3f 0000 00a0 761c e53f
00000160: 0000 0080 769a d63f 0000 0040 fbba d23f
00000170: 0000 0080 8e00 cc3f 0000 0020 212e cb3f
00000180: 0000 00a0 9c89 e0bf 0000 0060 c25a 6d3f
00000190: 0000 0060 1231 d1bf 0000 0000 005a b2bf
000001a0: 0000 0060 0502 dbbf 0000 0040 8a9f bd3f
000001b0: 0000 00c0 5504 e43f 0000 00e0 0231 cebf
000001c0: 0000 00c0 be2c b4bf 0000 0060 263c c83f
000001d0: 0000 00e0 13a9 dbbf 0000 0020 adae cc3f
000001e0: 0000 0020 8a3c e33f 0000 0000 a782 d8bf
000001f0: 0000 00a0 511e 5e3f 0000 0040 7071 a63f
00000200: 0000 00e0 7d62 adbf 0000 0040 295d c43f
00000210: 0000 00e0 34ad b6bf 0000 00e0 2b39 cabf
00000220: 0000 0040 52a1 bb3f 0000 0060 613e c9bf
00000230: 0000 0020 a144 adbf 0000 00c0 e023 c33f
00000240: 0000 0000 381e db3f 0000 00a0 7918 afbf
00000250: 0000 0040 abd8 d83f 0000 0020 9636 a3bf
00000260: 0000 0040 a378 c0bf 0000 0080 793d d13f
00000270: 0000 00c0 862f b63f 0000 00c0 2079 c43f
00000280: 0000 00a0 3300 c8bf 0000 0080 d99f ad3f
00000290: 0000 00c0 87c0 b2bf 0000 00a0 0841 dfbf
000002a0: 0000 0020 d85d cd3f 0000 0000 119d c33f
000002b0: 0000 0020 a3b0 c9bf 0000 0040 ba35 dc3f
000002c0: 0000 0040 7094 b83f 0000 0080 38a4 df3f
000002d0: 0000 00e0 d6aa d43f 0000 00c0 26b6 d1bf
000002e0: 0000 00a0 f8cc e63f 0000 00c0 63cf b03f
000002f0: 0000 0080 1a39 9cbf 0000 0000 aa32 e33f
00000300: 0000 0000 3fe2 e0bf 0000 00a0 178d d7bf
00000310: 0000 00a0 ee3a e0bf 0000 00a0 1c43 c6bf
00000320: 0000 00e0 fea9 d2bf 0000 00a0 3e7d ce3f
00000330: 0000 00c0 de26 d1bf 0000 00a0 87e8 93bf
00000340: 0000 0020 10fa d6bf 0000 0000 99db e03f
00000350: 0000 00a0 5c0f a7bf 0000 0020 993b d8bf
00000360: 0000 0080 bd4b dd3f 0000 0020 f28d b7bf
00000370: 0000 0020 03f2 cf3f 0000 0000 d6f0 b7bf
00000380: 0000 00e0 3385 b1bf 0000 0080 3a8f e93f
00000390: 0000 0040 1be7 e03f 0000 0040 7f38 bbbf
000003a0: 0000 0020 3891 d0bf 0000 0060 ab34 dcbf
000003b0: 0000 00a0 b6ac ac3f 0000 0060 4853 da3f
000003c0: 0000 00a0 5711 cd3f 0000 0000 1379 dfbf
000003d0: 0000 0040 0a9f bdbf 0000 00c0 f301 e13f
000003e0: 0000 00e0 3650 aa3f 0000 0040 5091 d13f
000003f0: 0000 0060 f8ff c53f 0000 0000 2891 d0bf
00000400: 0000 00a0 3b63 d03f 0000 0040 759d cdbf
00000410: 0000 0040 2425 da3f 0000 0060 0546 c33f
00000420: 0000 0020 e0dd d0bf 0000 0060 b279 d2bf
00000430: 0000 00a0 927d e7bf 0000 00e0 93a1 e2bf
00000440: 0000 0060 e1b8 90bf 0000 0060 aa58 c0bf
00000450: 0000 00c0 3a74 c83f 0000 0040 c958 b2bf
00000460: 0000 0080 3670 c9bf 0000 00c0 8df2 e1bf
00000470: 0000 0080 d174 d83f 0000 0020 b9d1 ec3f
00000480: 0000 0040 0f49 e03f 0000 0080 d06e db3f
00000490: 0000 0060 703d c93f 0000 0020 f081 d53f
000004a0: 0000 00c0 bb1d e8bf 0000 0060 069b ba3f
000004b0: 0000 0060 bad1 cfbf 0000 0000 7ed6 81bf
000004c0: 0000 00c0 22fd debf 0000 00e0 5ddf c5bf
000004d0: 0000 0000 08ee e33f 0000 0000 8d35 d8bf
000004e0: 0000 0000 5529 b23f 0000 0020 710f e13f
000004f0: 0000 00c0 52db d5bf 0000 0060 5f25 b53f
00000500: 0000 0040 8aab e63f 0000 0000 38c3 e6bf
00000510: 0000 0000 ebea 71bf 0000 00a0 cf67 bebf
00000520: 0000 0080 687c babf 0000 00a0 4267 c43f
00000530: 0000 00c0 34b8 b6bf 0000 00c0 2fc5 c1bf
00000540: 0000 00e0 4e77 c6bf 0000 0000 1b84 cabf
00000550: 0000 0040 ee79 d4bf 0000 00c0 5c33 d63f
00000560: 0000 00a0 6f1a d83f 0000 0060 1846 b6bf
00000570: 0000 0020 52b2 de3f 0000 0060 5fdc b73f
00000580: 0000 0060 8de4 d5bf 0000 00a0 2ae5 683f
00000590: 0000 0080 5dbb a13f 0000 0080 256b cd3f
000005a0: 0000 00a0 686d a5bf 0000 0020 e153 b5bf
000005b0: 0000 0020 2c65 b5bf 0000 00a0 e7e1 e2bf
000005c0: 0000 00c0 f41e db3f 0000 0020 a26a bbbf
000005d0: 0000 0020 9cfe d2bf 0000 0040 b7b0 d93f
000005e0: 0000 00a0 a383 cc3f 0000 0040 9a33 d53f
000005f0: 0000 0020 1769 d33f 0000 0080 735d 583f
00000600: 0000 00a0 a159 e53f 0000 00c0 53d7 ca3f
00000610: 0000 00a0 06bb c53f 0000 0000 20d3 e73f
00000620: 0000 00c0 7565 e3bf 0000 0000 c87c cabf
00000630: 0000 0020 ffda e5bf 0000 0040 ce7a cbbf
00000640: 0000 0060 41a5 d2bf 0000 0080 e9d9 c03f
00000650: 0000 00c0 de26 d1bf 0000 0080 2e7e c0bf
00000660: 0000 0080 783e dcbf 0000 0040 f636 e23f
00000670: 0000 0020 2087 a8bf 0000 0000 e691 d2bf
00000680: 0000 0000 624a d93f 0000 0000 004f d0bf
00000690: 0000 00a0 2511 d03f 0000 0080 0bc5 c4bf
000006a0: 0000 0020 f174 b2bf 0000 00a0 69ee ed3f
000006b0: 0000 00e0 1a41 e13f 0000 00e0 c055 babf
000006c0: 0000 0000 b2d1 ccbf 0000 0020 67df dcbf
000006d0: 0000 00a0 ad2f 413f 0000 0060 d186 d63f
000006e0: 0000 0020 bd89 cc3f 0000 0060 4262 d9bf
000006f0: 0000 0000 c19f babf 0000 0020 8f2b e13f
00000700: 0000 00a0 a7ac b13f 0000 0080 a26c cb3f
00000710: 0000 0060 9264 c23f 0000 0040 eff6 d3bf
00000720: 0000 0080 ecb8 d43f 0000 0000 2825 cbbf
00000730: 0000 0060 05f3 d93f 0000 0000 ae6a c83f
00000740: 0000 0080 f7dd d0bf 0000 0000 6165 c3bf
00000750: 0000 00c0 273b e7bf 0000 0040 6942 e4bf
00000760: 0000 0000 82db 22bf 0000 0080 f225 c4bf
00000770: 0000 0060 80f6 ca3f 0000 0040 3c1c b4bf
00000780: 0000 0000 0fb6 cabf 0000 0060 1993 e1bf
00000790: 0000 0000 9f74 d83f 0000 0040 b423 ed3f
000007a0: 0000 00a0 6fd4 e13f 0000 00a0 fda5 db3f
000007b0: 0000 0020 3d76 c43f 0000 00e0 bb0c d43f
000007c0: 0000 00e0 a2cb e6bf 0000 0060 ca88 be3f
000007d0: 0000 00e0 64ae d0bf 0000 0060 f33c 92bf
000007e0: 0000 00c0 22fd debf 0000 0060 7396 d0bf
000007f0: 0000 0000 a49f e23f 0000 00a0 ffb4 d9bf
