results/weights/weights_sequence_adamm_12.333333015441895_conv1.weight_5.npy (npy, 30728 bytes, 1 tensors)

array f8 [51, 75]
0	0xbfa6425940000000	-0.0434749498963356
1	0xbfae771e80000000	-0.059502556920051575
2	0xbfad923600000000	-0.057756125926971436
3	0xbfa4da85e0000000	-0.04072969779372215
4	0x3fc16a3c80000000	0.13605457544326782
5	0x3fb81465c0000000	0.0940612405538559
6	0x3fd17c7a40000000	0.27322250604629517
7	0xbfc1499e60000000	-0.1350591629743576
8	0x3fc8556cc0000000	0.19010695815086365
9	0x3fa44de060000000	0.03965665027499199
10	0xbf9251c8a0000000	-0.01789010502398014
11	0x3fa5b41300000000	0.042389482259750366
12	0xbfc703d020000000	-0.17980386316776276
13	0x3fbf270a80000000	0.12168946862220764
14	0xbfda4d7440000000	-0.41097742319107056
15	0xbf7a3fe300000000	-0.006408583372831345
16	0x3f76304ae0000000	0.005417149048298597
17	0x3fda2d4100000000	0.4090120792388916
18	0xbfc4167400000000	-0.1569352149963379
19	0xbfc9cc8e80000000	-0.201555073261261
20	0xbfcb09e260000000	-0.21123914420604706
21	0x3fb5ebaec0000000	0.085627481341362
22	0xbfa3f604c0000000	-0.03898634761571884
23	0xbfb36f8180000000	-0.07592019438743591
24	0xbfa7a04dc0000000	-0.04614489525556564
25	0x3fd0036cc0000000	0.2502090334892273
26	0xbfb63f5d40000000	-0.0869043618440628
27	0xbfb0a2f760000000	-0.06498666852712631
28	0xbf76aa72c0000000	-0.005533645860850811
29	0xbfc111dd80000000	-0.1333577036857605
30	0xbf82a4dd60000000	-0.009103517048060894
31	0x3fa7afc840000000	0.046262986958026886
32	0x3fc06d7940000000	0.12834087014198303
33	0x3fc473b7c0000000	0.15978142619132996
34	0x3f94eba780000000	0.020430199801921844
35	0x3fc25cd440000000	0.14345791935920715
36	0x3f7f0d1e60000000	0.007580870296806097
37	0xbfa4082220000000	-0.03912455216050148
38	0x3fabc61560000000	0.05424563214182854
39	0x3f9f86e900000000	0.030788078904151917
40	0xbfc0f3eba0000000	-0.1324438601732254
41	0xbfc9cafdc0000000	-0.2015073001384735
42	0xbfb394cd00000000	-0.07648926973342896
43	0xbfb0549460000000	-0.06379058212041855
44	0xbfb7118c40000000	-0.09011150896549225
45	0xbfc3838060000000	-0.15245060622692108
46	0x3fcf375d40000000	0.2438770830631256
47	0x3fb5a2e4c0000000	0.08451680839061737
48	0xbfc64887c0000000	-0.17408844828605652
49	0x3fbf36e980000000	0.12193164229393005
50	0x3fc5d7e420000000	0.17065097391605377
51	0xbfb16f1ea0000000	-0.06810180097818375
52	0xbfa7c9fe00000000	-0.046462953090667725
53	0x3f8f74d580000000	0.015359561890363693
54	0xbfc07a7ea0000000	-0.12873823940753937
55	0xbfbf6f8c00000000	-0.12279582023620605
56	0xbfbfb1de40000000	-0.12380780279636383
57	0x3fb4efc080000000	0.08178332448005676
58	0xbfa6cbe600000000	-0.04452437162399292
59	0x3f9be33d00000000	0.0272340327501297
60	0xbfb400ec00000000	-0.07813906669616699
61	0x3fa611e680000000	0.043105319142341614
62	0xbfc9a3c020000000	-0.20030976831912994
63	0x3fab027f80000000	0.05275343358516693
64	0xbfb754cc00000000	-0.09113764762878418
65	0xbfb1ba5e40000000	-0.06925000250339508
66	0x3fb3ae7160000000	0.07688053697347641
67	0xbfa0739be0000000	-0.03213202580809593
68	0xbfa071d2a0000000	-0.03211839869618416
69	0xbfc6294040000000	-0.17313387989997864
70	0x3fa854db20000000	0.047522399574518204
71	0x3fcd71a0e0000000	0.23003016412258148
72	0xbfc8e96500000000	-0.19462263584136963
73	0xbfc26cd260000000	-0.14394597709178925
74	0x3fadb67040000000	0.05803252011537552
75	0x3fa8ddc940000000	0.048567093908786774
76	0x3f8fea7cc0000000	0.015583967790007591
77	0xbf3a60ba00000000	-0.0004024938680231571
78	0x3f8f479e00000000	0.015273317694664001
79	0x3fc99cab40000000	0.20009365677833557
80	0x3fc519c560000000	0.16484896838665009
81	0x3fd674cd20000000	0.3508789837360382
82	0xbfb02a6020000000	-0.06314659863710403
83	0x3fcebef6e0000000	0.24020276963710785
84	0x3fb231b980000000	0.07107123732566833
85	0x3fa68e7660000000	0.04405565187335014
86	0x3fc125fe80000000	0.13397198915481567
87	0xbfb7ad7c00000000	-0.09249091148376465
88	0x3fc7362de0000000	0.18134091794490814
89	0xbfd938a720000000	-0.39408281445503235
90	0x3fa39ffb80000000	0.038329944014549255
91	0x3fb4cd4440000000	0.08125711977481842
92	0x3fdf0edf60000000	0.4852827489376068
93	0xbfb6a1ed60000000	-0.08840831369161606
94	0xbfc3043120000000	-0.14856542646884918
95	0xbfc7917060000000	-0.18412594497203827
96	0x3fc2034140000000	0.1407243311405182
97	0x3fa2f905c0000000	0.03705614060163498
98	0x3f94c43900000000	0.02027978003025055
99	0x3f9e993fc0000000	0.029881473630666733
100	0x3fd57fedc0000000	0.3359331488609314
101	0x3f961cc0a0000000	0.021594056859612465
102	0x3f6b5bdda0000000	0.0033397034276276827
103	0x3faf0e9400000000	0.06065809726715088
104	0x3f9146d760000000	0.016871800646185875
105	0x3fb2b349e0000000	0.07304822653532028
106	0x3fc7a86540000000	0.18482652306556702
107	0x3fd0a0fb40000000	0.25982552766799927
108	0x3fd26cf8c0000000	0.2879011034965515
109	0x3fc8f71c20000000	0.19504119455814362
110	0x3fc728d640000000	0.18093374371528625
111	0x3fc0607280000000	0.12794333696365356
112	0x3fb5167c80000000	0.08237436413764954
113	0x3fc49440c0000000	0.1607743203639984
114	0x3fc5e39100000000	0.17100727558135986
115	0xbfc581f8a0000000	-0.16802890598773956
116	0xbfc3cc5a40000000	-0.15467384457588196
117	0xbfaf100260000000	-0.06066901609301567
118	0xbfb3565fc0000000	-0.07553671300411224
119	0xbfc18cb180000000	-0.13710612058639526
120	0xbfcee3f040000000	-0.24133113026618958
121	0x3fc666e300000000	0.17501485347747803
122	0x3f7ac6bb60000000	0.006537181790918112
123	0xbfcfd097c0000000	-0.24855324625968933
124	0xbf73764340000000	-0.004751455970108509
125	0x3fb6333820000000	0.08671904355287552
126	0xbfa7de0140000000	-0.046615637838840485
127	0x3f83919160000000	0.00955499242991209
128	0x3fb71d3880000000	0.09028962254524231
129	0xbfbcb850e0000000	-0.11218743771314621
130	0xbfd3ca6f40000000	-0.30923062562942505
131	0xbfd178bca0000000	-0.27299419045448303
132	0xbfa5d43a60000000	-0.04263479635119438
133	0xbfbda53120000000	-0.11580187827348709
134	0xbf81d6e120000000	-0.008710631169378757
135	0xbfc0b98200000000	-0.1306612491607666
136	0xbfb28025e0000000	-0.07226788252592087
137	0xbfd3192660000000	-0.298410028219223
138	0xbfa4c733c0000000	-0.04058229178190231
139	0xbfc5ec0180000000	-0.17126482725143433
140	0x3f93fa9340000000	0.019510556012392044
141	0x3fb8575ca0000000	0.09508303552865982
142	0xbfa34625c0000000	-0.037644557654857635
143	0xbfad5cdfe0000000	-0.057349201291799545
144	0xbfcc547640000000	-0.22132757306098938
145	0x3fc30ce740000000	0.14883127808570862
146	0x3fd3ae1b60000000	0.3075016438961029
147	0xbfbbef67c0000000	-0.10912178456783295
148	0xbfb72e50c0000000	-0.09055046737194061
149	0x3fa76b3260000000	0.04573972150683403
150	0x3fb0e75a40000000	0.06603015959262848
151	0x3f96d5e640000000	0.02230033650994301
152	0xbf6af04660000000	-0.003288400126621127
153	0x3f8d8c5d80000000	0.014427881687879562
154	0x3fca24be20000000	0.20424629747867584
155	0x3fc570a0a0000000	0.1674996167421341
156	0x3fd768fde0000000	0.3657831847667694
157	0xbfa90f3740000000	-0.04894421249628067
158	0x3fce7c8860000000	0.2381754368543625
159	0x3fad842f60000000	0.05764911696314812
160	0x3fa63a4e00000000	0.04341357946395874
161	0x3fc5475120000000	0.1662389189004898
162	0xbfb0dacfa0000000	-0.06583879142999649
163	0x3fc6fc05a0000000	0.17956610023975372
164	0xbfdb019540000000	-0.4219716191291809
165	0x3fa2538800000000	0.03579354286193848
166	0x3fbb13e340000000	0.10577221214771271
167	0x3fe0030e00000000	0.5003728866577148
168	0xbfb738b7c0000000	-0.09070919454097748
169	0xbfc54dc9a0000000	-0.16643638908863068
170	0xbfc9435fc0000000	-0.1973685920238495
171	0x3fc2bf6e20000000	0.14646698534488678
172	0x3fa76650e0000000	0.045702483505010605
173	0x3f9e2aaf00000000	0.029459699988365173
174	0x3f9942ca40000000	0.024668846279382706
175	0x3fd6892320000000	0.35212019085884094
176	0x3fa3ee38a0000000	0.0389268584549427
177	0xbf887ab160000000	-0.011952768079936504
178	0x3fa5d32000000000	0.042626380920410156
179	0x3fa5427f00000000	0.04152294993400574
180	0x3fb2f17fc0000000	0.07399748265743256
181	0x3fc9ce6f00000000	0.20161235332489014
182	0x3fd104ec00000000	0.26592540740966797
183	0x3fd29f2520000000	0.29096344113349915
184	0x3fcd6f0fa0000000	0.22995181381702423
185	0x3fc56df780000000	0.16741842031478882
186	0x3fc33a6440000000	0.15021947026252747
187	0x3fbd5f9880000000	0.11473992466926575
188	0x3fc61c2560000000	0.17273394763469696
189	0x3fc9ed3520000000	0.20255149900913239
190	0xbfc6191c20000000	-0.17264129221439362
191	0xbfc25452c0000000	-0.14319834113121033
192	0xbfb08662e0000000	-0.06455057114362717
193	0xbfb3c03bc0000000	-0.07715199887752533
194	0xbfc0fc85c0000000	-0.13270637392997742
195	0xbfd01c7960000000	-0.25173792243003845
196	0x3fc206be20000000	0.14083077013492584
197	0xbfa9dc63a0000000	-0.050509560853242874
198	0xbfd1be68c0000000	-0.2772466540336609
199	0xbfa1b37820000000	-0.03457236662507057
200	0x3fad102de0000000	0.056764062494039536
201	0x3f526ff6e0000000	0.0011253271950408816
202	0x3fbb528aa0000000	0.10672823339700699
203	0x3fc85df040000000	0.19036677479743958
204	0xbfade56660000000	-0.05839080736041069
205	0xbfd8058b80000000	-0.37533843517303467
206	0xbfd4be99a0000000	-0.3241333067417145
207	0xbfb5703d40000000	-0.08374388515949249
208	0xbfbd31acc0000000	-0.11403922736644745
209	0xbfb8a41fa0000000	-0.09625432640314102
210	0xbfbc5ae420000000	-0.11076188832521439
211	0xbfc27fff20000000	-0.14453114569187164
212	0xbfd8852cc0000000	-0.3831283450126648
213	0xbfb59ec740000000	-0.0844540148973465
214	0xbfc93fd660000000	-0.19726066291332245
215	0x3facc04dc0000000	0.05615466088056564
216	0x3fb6dfc240000000	0.08935178816318512
217	0xbfa58f3920000000	-0.04210833087563515
218	0xbfa4990540000000	-0.040229953825473785
219	0xbfc83df320000000	-0.18939055502414703
220	0x3fc5702360000000	0.16748468577861786
221	0x3fd4044040000000	0.3127594590187073
222	0xbfb574f020000000	-0.08381558209657669
223	0xbfa9bfd0a0000000	-0.05029155686497688
224	0x3fb263be20000000	0.07183445245027542
225	0x3fb467d400000000	0.07970929145812988
226	0x3f9a7b0040000000	0.025859836488962173
227	0xbf85d46480000000	-0.01065901294350624
228	0x3f8275aa60000000	0.009013491682708263
229	0x3fca5427c0000000	0.20569321513175964
230	0x3fc59d2aa0000000	0.1688588410615921
231	0x3fd7dafe40000000	0.3727412819862366
232	0xbfa61bea40000000	-0.04318172484636307
233	0x3fcd755ac0000000	0.23014387488365173
234	0x3fa60c97c0000000	0.04306482523679733
235	0x3fa4c6c3c0000000	0.04057895392179489
236	0x3fc805efc0000000	0.1876811683177948
237	0xbfa8801e80000000	-0.047852471470832825
238	0x3fc670b700000000	0.1753147840499878
239	0xbfdcaf2c00000000	-0.44819164276123047
240	0x3fa073b540000000	0.03213278204202652
241	0x3fbf6e3100000000	0.122775137424469
242	0x3fe066f6a0000000	0.5125687718391418
243	0xbfb7b12f20000000	-0.09254736453294754
244	0xbfc78790e0000000	-0.18382464349269867
245	0xbfca60ddc0000000	-0.20608112215995789
246	0x3fc3b9e820000000	0.15411092340946198
247	0x3facc05440000000	0.05615485459566116
248	0x3fa45b1580000000	0.039757415652275085
249	0x3f96714f60000000	0.021916618570685387
250	0x3fd7845060000000	0.3674508035182953
251	0x3faaa32260000000	0.05202586576342583
252	0xbf95f49080000000	-0.02144075185060501
253	0x3fa0d7c580000000	0.03289620578289032
254	0x3fae6d83c0000000	0.05942928045988083
255	0x3fb28f0620000000	0.07249487191438675
