results/weights/weights_sequence_adamm_0.1111111119389534_fc2.bias_0.npy (npy, 4208 bytes, 1 tensors)

array f8 [51, 10]
00000000: 0000 0040 e17a 843f 0000 0040 e17a 843f
00000010: 0000 0040 e17a 843f 0000 0040 e17a 843f
00000020: 0000 0040 e17a 843f 0000 0040 e17a 843f
00000030: 0000 0040 e17a 843f 0000 0040 e17a 843f
00000040: 0000 0040 e17a 843f 0000 0040 e17a 843f
00000050: 0000 00e0 9431 b83f 0000 00c0 9210 bf3f
00000060: 0000 00a0 5a3d bd3f 0000 0000 b9c9 bc3f
00000070: 0000 00e0 6d63 ad3f 0000 0060 6fa8 9bbf
00000080: 0000 00c0 7341 c43f 0000 0040 04f0 aabf
00000090: 0000 0080 edc6 a0bf 0000 00c0 2218 bf3f
000000a0: 0000 00c0 4573 bf3f 0000 0060 d6d1 bb3f
000000b0: 0000 0000 169f c23f 0000 0060 792b bc3f
000000c0: 0000 0000 21e2 9a3f 0000 00a0 eac0 a2bf
000000d0: 0000 00a0 9f99 c93f 0000 0080 3bb0 b7bf
000000e0: 0000 00a0 3a2d 94bf 0000 0040 213f ba3f
000000f0: 0000 00e0 d9b5 c23f 0000 0040 7a1d b93f
00000100: 0000 0020 312c c53f 0000 0060 1404 bb3f
00000110: 0000 0060 d034 703f 0000 0020 6929 a0bf
00000120: 0000 0020 178f cc3f 0000 00c0 1f87 bdbf
00000130: 0000 0060 7273 8cbf 0000 0000 1cdc b53f
00000140: 0000 0080 2e52 c53f 0000 0000 71ac b63f
00000150: 0000 0080 1a45 c63f 0000 0020 79ab ba3f
00000160: 0000 0060 98f5 85bf 0000 00e0 5859 9bbf
00000170: 0000 00c0 f5f1 cd3f 0000 0060 ed24 c0bf
00000180: 0000 00e0 4d5b 8abf 0000 0060 a09c b23f
00000190: 0000 0040 21aa c73f 0000 00c0 f8a3 b43f
000001a0: 0000 0060 9bde c63f 0000 00a0 64fb ba3f
000001b0: 0000 0000 3173 98bf 0000 0000 7427 99bf
000001c0: 0000 00e0 aec0 ce3f 0000 00e0 fe04 c1bf
000001d0: 0000 0080 a573 8dbf 0000 0080 becf af3f
000001e0: 0000 0040 2e91 c93f 0000 00e0 4afa b23f
000001f0: 0000 0020 3021 c73f 0000 0080 5d91 bb3f
00000200: 0000 0080 252d a2bf 0000 0060 5768 97bf
00000210: 0000 0040 3434 cf3f 0000 00e0 05a4 c1bf
00000220: 0000 0000 da2e 8bbf 0000 00e0 c06f ab3f
00000230: 0000 0040 191b cb3f 0000 0060 f7a2 b13f
00000240: 0000 00a0 e465 c73f 0000 00a0 9b0e bc3f
00000250: 0000 00a0 ec55 a7bf 0000 0000 8f76 94bf
00000260: 0000 00e0 d079 cf3f 0000 0060 e225 c2bf
00000270: 0000 0060 1532 86bf 0000 0000 ed50 a73f
00000280: 0000 0080 2575 cc3f 0000 0060 2076 b03f
00000290: 0000 00e0 6fb1 c73f 0000 0020 157c bc3f
000002a0: 0000 00c0 d69a abbf 0000 00a0 c00e 91bf
000002b0: 0000 0040 15b0 cf3f 0000 0020 a28a c2bf
000002c0: 0000 0060 3ac4 80bf 0000 0060 fa83 a33f
000002d0: 0000 00a0 d89e cd3f 0000 00e0 bed3 ae3f
000002e0: 0000 0000 2df5 c73f 0000 00c0 f8c4 bc3f
000002f0: 0000 0020 2e49 afbf 0000 00c0 00dd 8abf
00000300: 0000 0080 1ae5 cf3f 0000 0080 28e2 c2bf
00000310: 0000 0040 6574 74bf 0000 0020 8f1e a03f
00000320: 0000 0060 cbab ce3f 0000 0000 3965 ac3f
00000330: 0000 00e0 8c53 c83f 0000 0000 3ad5 bc3f
00000340: 0000 00e0 3b5b b1bf 0000 00c0 b6de 83bf
00000350: 0000 00c0 c50f d03f 0000 0000 8d19 c3bf
00000360: 0000 0060 3288 57bf 0000 0080 6919 9a3f
00000370: 0000 0080 ab97 cf3f 0000 0020 80b8 a93f
00000380: 0000 0060 e6b7 c83f 0000 00a0 a9e4 bc3f
00000390: 0000 0040 a003 b3bf 0000 0000 ba4c 78bf
000003a0: 0000 0040 9a2d d03f 0000 00e0 3d3c c3bf
000003b0: 0000 00a0 d175 683f 0000 0080 8f77 943f
000003c0: 0000 0020 6936 d03f 0000 00c0 ea24 a73f
000003d0: 0000 0000 5f0d c93f 0000 0060 f8ea bc3f
000003e0: 0000 00e0 1661 b4bf 0000 0080 35b0 60bf
000003f0: 0000 0000 1f4d d03f 0000 0060 d951 c3bf
00000400: 0000 0040 bb6c 7d3f 0000 00a0 fc65 8f3f
00000410: 0000 0000 0f9d d03f 0000 0080 80ba a43f
00000420: 0000 00c0 b169 c93f 0000 00c0 07f0 bc3f
00000430: 0000 0020 b486 b5bf 0000 00e0 c096 523f
00000440: 0000 00a0 4871 d03f 0000 0000 9c4b c3bf
00000450: 0000 00e0 ad56 873f 0000 0040 989a 863f
00000460: 0000 00e0 9ffd d03f 0000 0080 581e a23f
00000470: 0000 00e0 49e0 c93f 0000 0000 50f0 bc3f
00000480: 0000 00e0 bf85 b6bf 0000 0020 83bd 713f
00000490: 0000 0000 8d91 d03f 0000 0000 2422 c3bf
000004a0: 0000 0000 0646 903f 0000 0080 52bd 7b3f
000004b0: 0000 0060 9955 d13f 0000 0020 5165 9f3f
000004c0: 0000 0020 415f ca3f 0000 0040 16ec bc3f
000004d0: 0000 0080 776f b7bf 0000 0060 2772 7e3f
000004e0: 0000 0020 aaae d03f 0000 00a0 ddec c2bf
000004f0: 0000 0000 60ad 943f 0000 0080 1f64 663f
00000500: 0000 00a0 3f9f d13f 0000 00c0 049b 9a3f
00000510: 0000 00c0 9ee4 ca3f 0000 0060 b0e7 bc3f
00000520: 0000 0000 7635 b8bf 0000 0040 c919 853f
00000530: 0000 0020 5fc8 d03f 0000 0020 0aad c2bf
00000540: 0000 0020 9537 993f 0000 0060 7367 4fbf
00000550: 0000 0040 b5de d13f 0000 0020 567e 953f
00000560: 0000 0020 fb70 cb3f 0000 0040 c4df bc3f
00000570: 0000 0040 67de b8bf 0000 0080 7d70 8a3f
00000580: 0000 00a0 64de d03f 0000 0040 5e5f c2bf
00000590: 0000 00e0 cb68 9d3f 0000 0020 2cf5 71bf
000005a0: 0000 0000 f218 d23f 0000 0020 07ab 903f
000005b0: 0000 0040 eef2 cb3f 0000 00c0 44d3 bc3f
000005c0: 0000 0020 fa8c b9bf 0000 00c0 e4e7 8e3f
000005d0: 0000 00e0 b3ef d03f 0000 00c0 470b c2bf
000005e0: 0000 00e0 ebc7 a03f 0000 0080 837e 7ebf
000005f0: 0000 0000 674f d23f 0000 00a0 88dc 873f
00000600: 0000 0040 f57d cc3f 0000 0040 8ec3 bc3f
00000610: 0000 0060 2b30 babf 0000 0080 c4db 913f
00000620: 0000 0060 ce01 d13f 0000 00e0 afbd c1bf
00000630: 0000 00a0 2db9 a23f 0000 0040 c37d 85bf
00000640: 0000 0000 967f d23f 0000 0060 2d0e 7d3f
00000650: 0000 00a0 110b cd3f 0000 0000 7fb9 bc3f
00000660: 0000 00e0 6cc4 babf 0000 00c0 b2a4 943f
00000670: 0000 0000 2218 d13f 0000 0060 626a c1bf
00000680: 0000 0040 5cad a43f 0000 00e0 8aa7 8bbf
00000690: 0000 00e0 15af d23f 0000 00e0 57f9 643f
000006a0: 0000 00c0 bd99 cd3f 0000 0000 7aab bc3f
000006b0: 0000 00c0 6a52 bbbf 0000 0020 d4f6 963f
000006c0: 0000 0040 0429 d13f 0000 0040 2614 c1bf
000006d0: 0000 0040 c775 a63f 0000 0060 45cf 90bf
000006e0: 0000 00c0 1ad8 d23f 0000 0000 ce32 61bf
000006f0: 0000 00c0 8320 ce3f 0000 0020 eca5 bc3f
00000700: 0000 0040 59d3 bbbf 0000 00e0 0a7d 993f
00000710: 0000 00a0 ee3c d13f 0000 00e0 14bb c0bf
00000720: 0000 0020 8d43 a83f 0000 00a0 107d 93bf
00000730: 0000 00c0 27ff d23f 0000 0060 8d3f 7bbf
00000740: 0000 0000 369e ce3f 0000 0040 3098 bc3f
00000750: 0000 0040 6d5e bcbf 0000 0040 dfd8 9b3f
00000760: 0000 0000 9f4f d13f 0000 0060 7667 c0bf
00000770: 0000 0080 4005 aa3f 0000 0080 f1ec 95bf
00000780: 0000 00c0 2c25 d33f 0000 00a0 dbf3 86bf
00000790: 0000 0060 7319 cf3f 0000 00c0 ba86 bc3f
000007a0: 0000 0000 73c5 bcbf 0000 0040 d9ca 9d3f
000007b0: 0000 0060 9063 d13f 0000 0000 f90c c0bf
000007c0: 0000 00c0 5ed7 ab3f 0000 0060 bf22 98bf
000007d0: 0000 00c0 714c d33f 0000 0000 ed47 90bf
000007e0: 0000 00a0 1a9a cf3f 0000 0020 bc6e bc3f
000007f0: 0000 0080 a02e bdbf 0000 00c0 dcad 9f3f
0.009999999776482582 0.009999999776482582 0.009999999776482582 0.009999999776482582 0.009999999776482582 0.009999999776482582 0.009999999776482582 0.009999999776482582
0.009999999776482582 0.009999999776482582 0.09450655430555344 0.12134663760662079 0.11421743780374527 0.11245304346084595 0.0573992095887661 -0.027009716257452965
0.1582474410533905 -0.05261243134737015 -0.03276769816875458 0.12146203219890594 0.12285266816616058 0.10867061465978622 0.14547991752624512 0.11003836244344711
0.026253238320350647 -0.03662808611989021 0.20000071823596954 -0.09253284335136414 -0.019703784957528114 0.10252578556537628 0.14617465436458588 0.09810604155063629
0.16541112959384918 0.1055309996008873 0.003956617321819067 -0.031565938144922256 0.22311677038669586 -0.11534307897090912 -0.01389207225292921 0.08538985252380371
0.1665704846382141 0.08856874704360962 0.1739838719367981 0.10417897254228592 -0.010722341947257519 -0.026708019897341728 0.2339465320110321 -0.12612693011760712
-0.012869461439549923 0.07270243018865585 0.18487945199012756 0.08062700927257538 0.17866842448711395 0.10539845377206802 -0.023876920342445374 -0.02456456422805786
0.2402552217245102 -0.13296495378017426 -0.014380734413862228 0.062131837010383606 0.19974306225776672 0.07413166016340256 0.18070031702518463 0.107686847448349
-0.03550069034099579 -0.022858968004584312 0.24378064274787903 -0.1378180831670761 -0.013272956013679504 0.05358698591589928 0.21176448464393616 0.06889291852712631
0.18279702961444855 0.10959789901971817 -0.04557742550969124 -0.01998351514339447 0.24590502679347992 -0.14178113639354706 -0.010837714187800884 0.045539289712905884
0.22232502698898315 0.0643024668097496 0.1851024478673935 0.11126834899187088 -0.05391570180654526 -0.016657838597893715 0.24756112694740295 -0.14485575258731842
-0.008186775259673595 0.03811628744006157 0.23141010105609894 0.0602092407643795 0.18716967105865479 0.11238054931163788 -0.06110519543290138 -0.01311684213578701
0.2491791844367981 -0.1475268006324768 -0.004993815906345844 0.03148314729332924 0.2396177500486374 0.05545976758003235 0.19004975259304047 0.11262857913970947
-0.06779836863279343 -0.009702136740088463 0.25096267461776733 -0.14921724796295166 -0.0014362804358825088 0.025487564504146576 0.24681609869003296 0.05023575201630592
0.19311217963695526 0.11286411434412003 -0.07427407801151276 -0.005932547152042389 0.2527833580970764 -0.15027593076229095 0.002985867904499173 0.019987337291240692
0.25332096219062805 0.04520352929830551 0.19572055339813232 0.11296036094427109 -0.07960646599531174 -0.002037147991359234 0.25470709800720215 -0.1509353369474411
0.007183772511780262 0.01533124316483736 0.2595860958099365 0.04048539698123932 0.19853803515434265 0.11303757131099701 -0.08408666402101517 0.0011345752282068133
0.25691428780555725 -0.15074491500854492 0.011395796202123165 0.011037053540349007 0.26548001170158386 0.03538776934146881 0.20215724408626556 0.11304187774658203
-0.08797835558652878 0.004331123549491167 0.2588837146759033 -0.14947938919067383 0.015892118215560913 0.006772348657250404 0.2708495557308197 0.030659930780529976
0.206031933426857 0.11297740042209625 -0.09154459834098816 0.0074330843053758144 0.26066067814826965 -0.1478535681962967 0.020192623138427734 0.0027332892641425133
0.27534475922584534 0.025981973856687546 0.2101019322872162 0.11291029304265976 -0.094565749168396 0.010303089395165443 0.26222971081733704 -0.1459057480096817
0.024626092985272408 -0.0009583772043697536 0.27921801805496216 0.02098974771797657 0.21438540518283844 0.11278940737247467 -0.09714360535144806 0.012909870594739914
0.2635737955570221 -0.14353540539741516 0.028720078989863396 -0.004384205210953951 0.2827725410461426 0.01627741940319538 0.21835115551948547 0.11259870231151581
-0.09980738908052444 0.015090739354491234 0.2646302878856659 -0.14096924662590027 0.03277527913451195 -0.007444871589541435 0.28609633445739746 0.011651103384792805
0.22259393334388733 0.1123589426279068 -0.10229750722646713 0.017439909279346466 0.2657352387905121 -0.13860128819942474 0.03656904771924019 -0.010493779554963112
0.28903722763061523 0.00709359860047698 0.22690029442310333 0.11220544576644897 -0.10455971211194992 0.0201595239341259 0.26709794998168945 -0.13605909049510956
0.040385134518146515 -0.013503155671060085 0.29193636775016785 0.002560302382335067 0.23125430941581726 0.1119915246963501 -0.10672633349895477 0.022425951436161995
0.2681284546852112 -0.13342741131782532 0.043867327272892 -0.016415676102042198 0.29443997144699097 -0.002099420875310898 0.23536726832389832 0.11190677434206009
-0.1086936742067337 0.024891061708331108 0.2693440020084381 -0.13070927560329437 0.047390375286340714 -0.019031772390007973 0.2968234419822693 -0.006652405019849539
0.23920321464538574 0.11169721186161041 -0.11081583797931671 0.027194488793611526 0.27048468589782715 -0.12815742194652557 0.050821319222450256 -0.021411679685115814
0.2991439700126648 -0.011207309551537037 0.24296419322490692 0.1114308089017868 -0.11238783597946167 0.029094118624925613 0.2717019021511078 -0.12539589405059814
0.054377518594264984 -0.023570051416754723 0.3015407919883728 -0.015899375081062317 0.2468903809785843 0.11106467992067337 -0.11399272084236145 0.030936669558286667
