results/weights/weights_sequence_adamm_12.333333015441895_conv2.bias_0.npy (npy, 1352 bytes, 1 tensors)

array f8 [51, 3]
00000000: 0000 0040 e17a 843f 0000 0040 e17a 843f
00000010: 0000 0040 e17a 843f 0000 0060 5297 81bf
00000020: 0000 0060 e61d ab3f 0000 00e0 7948 b2bf
00000030: 0000 0080 535b 73bf 0000 00c0 ebf8 a63f
00000040: 0000 00c0 5d02 b8bf 0000 00c0 502e 67bf
00000050: 0000 0080 d758 a43f 0000 00a0 3332 bbbf
00000060: 0000 0040 eed0 5fbf 0000 00c0 ec76 a23f
00000070: 0000 0040 283a bebf 0000 0060 e5ab 65bf
00000080: 0000 0020 a710 a13f 0000 0000 7061 c0bf
00000090: 0000 0060 d28c 72bf 0000 0060 7f9c 9f3f
000000a0: 0000 00e0 2c82 c1bf 0000 0080 9d99 77bf
000000b0: 0000 00a0 a727 9c3f 0000 00a0 6b9f c2bf
000000c0: 0000 0060 63cf 81bf 0000 0060 e920 983f
000000d0: 0000 0020 cc99 c3bf 0000 00e0 a7d8 83bf
000000e0: 0000 0000 df2f 953f 0000 0040 876c c4bf
000000f0: 0000 00c0 57a1 87bf 0000 00a0 3f9a 923f
00000100: 0000 00a0 f02a c5bf 0000 0040 030c 87bf
00000110: 0000 00a0 7cf0 903f 0000 00a0 04de c5bf
00000120: 0000 00a0 7553 85bf 0000 0040 a6bc 8f3f
00000130: 0000 0080 8be2 c5bf 0000 00a0 c8de 82bf
00000140: 0000 0020 553a 903f 0000 0020 dee0 c5bf
00000150: 0000 0060 dad7 7fbf 0000 00c0 f582 903f
00000160: 0000 00a0 deda c5bf 0000 00c0 be65 7cbf
00000170: 0000 00a0 f498 903f 0000 0000 cac9 c5bf
00000180: 0000 00e0 24cd 79bf 0000 0080 bbdf 903f
00000190: 0000 00c0 b3ad c5bf 0000 00e0 444e 78bf
000001a0: 0000 0020 722a 913f 0000 0060 d7a0 c5bf
000001b0: 0000 0040 e3dc 76bf 0000 0080 4874 913f
000001c0: 0000 00a0 4995 c5bf 0000 0000 5560 76bf
000001d0: 0000 0060 f6b7 913f 0000 0080 a891 c5bf
000001e0: 0000 00c0 0d7f 75bf 0000 0040 daea 913f
000001f0: 0000 0000 5d8b c5bf 0000 00c0 5096 74bf
00000200: 0000 00c0 a50d 923f 0000 00a0 1985 c5bf
00000210: 0000 0080 ace1 73bf 0000 00a0 2729 923f
00000220: 0000 0000 0d80 c5bf 0000 0060 0b96 73bf
00000230: 0000 00a0 6034 923f 0000 0080 8f7b c5bf
00000240: 0000 0040 d735 73bf 0000 0020 2145 923f
00000250: 0000 00a0 4d78 c5bf 0000 0020 fec8 72bf
00000260: 0000 0040 b153 923f 0000 00e0 6d74 c5bf
00000270: 0000 0020 a06a 72bf 0000 00c0 ea64 923f
00000280: 0000 00c0 e270 c5bf 0000 0080 9d2c 72bf
00000290: 0000 00e0 f269 923f 0000 0060 fd6e c5bf
000002a0: 0000 0020 0000 72bf 0000 0000 e771 923f
000002b0: 0000 0040 776d c5bf 0000 0020 a3cd 71bf
000002c0: 0000 0040 b178 923f 0000 00a0 e06b c5bf
000002d0: 0000 0040 a7b0 71bf 0000 0060 327d 923f
000002e0: 0000 0080 536b c5bf 0000 0060 1099 71bf
000002f0: 0000 0040 6380 923f 0000 0020 af6a c5bf
00000300: 0000 0060 ae7c 71bf 0000 00a0 7f83 923f
00000310: 0000 00e0 f369 c5bf 0000 0040 5770 71bf
00000320: 0000 00a0 9685 923f 0000 0060 cf69 c5bf
00000330: 0000 00a0 9e63 71bf 0000 0040 7687 923f
00000340: 0000 0020 8469 c5bf 0000 0040 1956 71bf
00000350: 0000 0020 c788 923f 0000 0020 2b69 c5bf
00000360: 0000 00c0 524f 71bf 0000 00a0 c189 923f
00000370: 0000 0040 1469 c5bf 0000 0020 1749 71bf
00000380: 0000 0000 998a 923f 0000 0040 f368 c5bf
00000390: 0000 0020 5f42 71bf 0000 0080 828b 923f
000003a0: 0000 00a0 c968 c5bf 0000 0040 fe3e 71bf
000003b0: 0000 00c0 e48b 923f 0000 0040 bd68 c5bf
000003c0: 0000 0020 ca3b 71bf 0000 0020 568c 923f
000003d0: 0000 0080 ad68 c5bf 0000 00c0 4c38 71bf
000003e0: 0000 0060 b48c 923f 0000 00c0 9b68 c5bf
000003f0: 0000 0000 8936 71bf 0000 0020 e38c 923f
00000400: 0000 00a0 9568 c5bf 0000 0000 bb34 71bf
00000410: 0000 00e0 198d 923f 0000 0020 8e68 c5bf
00000420: 0000 0020 0233 71bf 0000 0060 548d 923f
00000430: 0000 0040 8468 c5bf 0000 0060 5031 71bf
00000440: 0000 0080 7d8d 923f 0000 00a0 7b68 c5bf
00000450: 0000 0060 7b2f 71bf 0000 0080 ae8d 923f
00000460: 0000 0020 7168 c5bf 0000 0000 7e2d 71bf
00000470: 0000 0060 d98d 923f 0000 00c0 6768 c5bf
00000480: 0000 00a0 df2b 71bf 0000 00e0 0a8e 923f
00000490: 0000 00e0 5c68 c5bf 0000 00c0 f029 71bf
000004a0: 0000 00a0 3a8e 923f 0000 0020 5268 c5bf
000004b0: 0000 0040 3e28 71bf 0000 0080 6c8e 923f
000004c0: 0000 0060 4868 c5bf
0.009999999776482582 0.009999999776482582 0.009999999776482582 -0.008589404635131359 0.052962493151426315 -0.071418397128582 -0.00472576729953289 0.0448678657412529
-0.09378610551357269 -0.002829702105373144 0.03974030911922455 -0.10623476654291153 -0.0019419027958065271 0.03606357425451279 -0.11807490885257721 -0.0026454429607838392
0.033330176025629044 -0.1279735565185547 -0.004528829362243414 0.030870428308844566 -0.1367851346731186 -0.005761733278632164 0.027495021000504494 -0.1454901248216629
-0.008696342818439007 0.023563047870993614 -0.15313102304935455 -0.009690581820905209 0.020690426230430603 -0.15956202149391174 -0.011538205668330193 0.01816653646528721
-0.16537292301654816 -0.01125338114798069 0.016542384400963783 -0.17083795368671417 -0.01041309256106615 0.015496538951992989 -0.17097610235214233 -0.009213988669216633
0.015847520902752876 -0.17092491686344147 -0.00777421286329627 0.016124572604894638 -0.17074187099933624 -0.006932969205081463 0.016208479180932045 -0.17022061347961426
-0.006299156229943037 0.01647847145795822 -0.16936346888542175 -0.005934018176048994 0.016763480380177498 -0.168970987200737 -0.0055817486718297005 0.017045147716999054
-0.16861839592456818 -0.005462963134050369 0.01730332337319851 -0.1685076355934143 -0.005248120985925198 0.017497453838586807 -0.16831552982330322 -0.005026164464652538
0.017630185931921005 -0.16812439262866974 -0.004853891208767891 0.01773511804640293 -0.16797029972076416 -0.0047817653976380825 0.017777929082512856 -0.16783326864242554
-0.004690018482506275 0.01784183271229267 -0.16773386299610138 -0.004586212802678347 0.017897386103868484 -0.1676156371831894 -0.004496217239648104 0.017963092774152756
-0.16750749945640564 -0.004437079653143883 0.01798228733241558 -0.16744963824748993 -0.004394531715661287 0.018012627959251404 -0.16740313172340393 -0.004346501547843218
0.01803852990269661 -0.16735465824604034 -0.004318860359489918 0.018055712804198265 -0.1673378348350525 -0.0042963637970387936 0.01806788519024849 -0.16731823980808258
-0.004269295837730169 0.01807975210249424 -0.1672959178686142 -0.004257527180016041 0.01808772422373295 -0.1672915667295456 -0.004245395306497812 0.018094871193170547
-0.1672825962305069 -0.004232500679790974 0.018099891021847725 -0.16727198660373688 -0.0042260391637682915 0.018103623762726784 -0.1672692596912384 -0.004220094997435808
0.01810683310031891 -0.16726532578468323 -0.004213687498122454 0.018110312521457672 -0.16726036369800568 -0.0042104655876755714 0.018111776560544968 -0.16725888848304749
-0.004207410383969545 0.01811346597969532 -0.16725701093673706 -0.004204082302749157 0.01811487041413784 -0.16725489497184753 -0.004202399402856827 0.018115567043423653
-0.16725416481494904 -0.004200678318738937 0.018116382881999016 -0.1672532707452774 -0.004199035931378603 0.018117254599928856 -0.1672520935535431 -0.004197420086711645
0.018117867410182953 -0.16725106537342072 -0.0041956729255616665 0.01811859756708145 -0.16724981367588043 -0.0041937753558158875 0.018119236454367638 -0.1672486960887909
-0.004192231688648462 0.018119974061846733 -0.16724739968776703 -0.004190388135612011 0.01812068559229374 -0.16724611818790436 -0.004188769496977329 0.018121428787708282
-0.16724495589733124
