results/weights/weights_sequence_zo_adamm_12.333333015441895_conv2.weight_8.npy (npy, 33176 bytes, 1 tensors)

array f8 [51, 81]
000000 00 00 00 80 a4 8b bc bf 00 00 00 a0 af 5c c3 3f
       -0.11150577664375305 0.15126605331897736
000010 00 00 00 20 df 5c 78 bf 00 00 00 a0 3b 4c cb bf
       -0.005947944242507219 -0.21326394379138947
000020 00 00 00 60 65 78 b4 bf 00 00 00 80 40 f2 aa bf
       -0.0799620971083641 -0.052629485726356506
000030 00 00 00 60 5c 60 cc 3f 00 00 00 40 97 6d d1 bf
       0.22169069945812225 -0.2723138928413391
000040 00 00 00 40 01 a3 c0 bf 00 00 00 40 33 f5 b2 3f
       -0.12997451424598694 0.07405395805835724
000050 00 00 00 20 bc a2 c0 3f 00 00 00 40 63 22 c0 bf
       0.12996627390384674 -0.12604942917823792
000060 00 00 00 a0 bd 1c c7 bf 00 00 00 c0 b0 47 c9 3f
       -0.18056459724903107 0.1975003182888031
000070 00 00 00 20 6d d9 7f bf 00 00 00 00 ef 26 a0 3f
       -0.007775713223963976 0.03154703974723816
000080 00 00 00 60 f9 db d0 3f 00 00 00 e0 c0 7b cc 3f
       0.26342615485191345 0.2225266546010971
000090 00 00 00 c0 f7 40 d0 3f 00 00 00 80 d8 24 cd bf
       0.2539653182029724 -0.22768694162368774
0000a0 00 00 00 80 a3 60 ba bf 00 00 00 60 4c 89 e6 bf
       -0.10303708910942078 -0.7042600512504578
0000b0 00 00 00 40 c6 57 77 3f 00 00 00 a0 5d 2d b8 bf
       0.005698942579329014 -0.0944422259926796
0000c0 00 00 00 00 4e d9 cf bf 00 00 00 20 52 69 d5 bf
       -0.24881911277770996 -0.3345532715320587
0000d0 00 00 00 40 7f 57 c7 3f 00 00 00 a0 3b ec a3 3f
       0.18235769867897034 0.038911689072847366
0000e0 00 00 00 40 04 5b ac 3f 00 00 00 60 27 01 c0 3f
       0.0553819015622139 0.12503521144390106
0000f0 00 00 00 a0 e6 ae c4 3f 00 00 00 e0 f6 3d cc 3f
       0.16158755123615265 0.22064100205898285
000100 00 00 00 e0 bb 24 b0 bf 00 00 00 80 cd 38 aa bf
       -0.06306051462888718 -0.05121462047100067
000110 00 00 00 80 a7 80 d3 3f 00 00 00 c0 10 40 d0 bf
       0.3047274351119995 -0.25391024351119995
000120 00 00 00 c0 a3 82 be bf 00 00 00 00 40 97 d2 3f
       -0.11918090283870697 0.2904815673828125
000130 00 00 00 20 6c fb c0 3f 00 00 00 00 ca 23 db bf
       0.13267280161380768 -0.4240593910217285
000140 00 00 00 20 a4 4b c1 3f 00 00 00 a0 d5 ff b7 3f
       0.13512088358402252 0.09374747425317764
000150 00 00 00 80 ef e5 af bf 00 00 00 60 24 9f b8 bf
       -0.0623011440038681 -0.0961783155798912
000160 00 00 00 20 fa 96 b9 3f 00 00 00 a0 a6 f9 63 bf
       0.09995997697114944 -0.0024383787531405687
000170 00 00 00 40 d3 46 8f 3f 00 00 00 60 cb 39 ac 3f
       0.015271807089447975 0.05512843653559685
000180 00 00 00 80 91 9f a8 3f 00 00 00 00 5d fa bf 3f
       0.04809240996837616 0.12491399049758911
000190 00 00 00 20 9b 98 ce 3f 00 00 00 00 72 c5 e1 3f
       0.23903216421604156 0.5553522109985352
0001a0 00 00 00 e0 68 7c cc bf 00 00 00 c0 b8 a6 c8 3f
       -0.22254668176174164 0.1925879418849945
0001b0 00 00 00 a0 24 f9 ca 3f 00 00 00 a0 3d db b1 3f
       0.2107282429933548 0.06975159794092178
0001c0 00 00 00 e0 e1 ae d1 bf 00 00 00 20 3b 32 84 bf
       -0.27629896998405457 -0.009861432947218418
0001d0 00 00 00 80 97 ea bd 3f 00 00 00 20 15 ba b1 bf
       0.11686083674430847 -0.06924564391374588
0001e0 00 00 00 40 89 13 c2 bf 00 00 00 e0 c7 ab e1 3f
       -0.14122119545936584 0.5522193312644958
0001f0 00 00 00 00 34 4c cc bf 00 00 00 c0 67 8e de bf
       -0.22107553482055664 -0.4774417281150818
000200 00 00 00 00 3d 59 b6 3f 00 00 00 60 a6 eb c6 3f
       0.0872991681098938 0.179066464304924
000210 00 00 00 00 2b f5 a4 bf 00 00 00 80 bb 9b be 3f
       -0.04093298316001892 0.11956378817558289
000220 00 00 00 20 41 8a 9b bf 00 00 00 40 7e b5 d1 3f
       -0.026894586160779 0.2767024636268616
000230 00 00 00 a0 66 71 d1 3f 00 00 00 80 b1 3c a1 3f
       0.2725464403629303 0.033666178584098816
000240 00 00 00 60 38 47 c9 3f 00 00 00 a0 da d3 d3 bf
       0.19748596847057343 -0.3098055422306061
000250 00 00 00 60 5d 0d d2 bf 00 00 00 80 31 53 bd 3f
       -0.2820657193660736 0.11455067992210388
000260 00 00 00 c0 a3 77 ce 3f 00 00 00 a0 30 7e a8 bf
       0.23802611231803894 -0.0478377528488636
000270 00 00 00 a0 70 e3 9e bf 00 00 00 40 bc 4e c3 3f
       -0.030164489522576332 0.15084031224250793
000280 00 00 00 a0 fb 64 bc 3f 00 00 00 20 4d 37 94 bf
       0.11091587692499161 -0.01974220760166645
000290 00 00 00 e0 74 c6 d0 3f 00 00 00 e0 13 23 b3 3f
       0.2621128261089325 0.07475399225950241
0002a0 00 00 00 60 6d cd d0 bf 00 00 00 e0 ca db b7 bf
       -0.26253828406333923 -0.09319751709699631
0002b0 00 00 00 80 f5 d2 ad bf 00 00 00 80 a2 53 c3 3f
       -0.05825011432170868 0.150989830493927
0002c0 00 00 00 00 ad ef d9 bf 00 00 00 00 bf ae d0 bf
       -0.40525364875793457 -0.2606656551361084
0002d0 00 00 00 a0 2c 76 c9 3f 00 00 00 60 64 66 c0 3f
       0.1989188939332962 0.12812475860118866
0002e0 00 00 00 a0 be 3c c0 bf 00 00 00 e0 e6 cb c0 bf
       -0.12685377895832062 -0.13122259080410004
0002f0 00 00 00 c0 ae e0 cf 3f 00 00 00 a0 f7 a8 bf bf
       0.249044269323349 -0.1236719861626625
000300 00 00 00 80 66 41 b9 3f 00 00 00 80 e6 ce ce 3f
       0.09865418076515198 0.24068909883499146
000310 00 00 00 80 b0 c6 c7 3f 00 00 00 a0 a2 42 d4 3f
       0.1857510209083557 0.3165670931339264
000320 00 00 00 e0 ff 6f a3 bf 00 00 00 40 74 1b c9 bf
       -0.0379638634622097 -0.19615033268928528
000330 00 00 00 00 f3 0f e2 bf 00 00 00 e0 94 5f b0 bf
       -0.5644469261169434 -0.06395845860242844
000340 00 00 00 c0 28 5a c5 bf 00 00 00 e0 75 55 d3 bf
       -0.1668139398097992 -0.3020910918712616
000350 00 00 00 40 71 60 de bf 00 00 00 60 c6 36 d2 3f
       -0.47463637590408325 0.2845931947231293
000360 00 00 00 a0 a0 03 bd 3f 00 00 00 60 8e 61 c2 3f
       0.11333660036325455 0.1436021775007248
000370 00 00 00 20 6a 9f c1 3f 00 00 00 80 11 64 c4 3f
       0.13767744600772858 0.15930384397506714
000380 00 00 00 a0 f5 24 d1 3f 00 00 00 e0 fc 05 c5 bf
       0.2678808271884918 -0.16424523293972015
000390 00 00 00 00 a1 f7 89 3f 00 00 00 e0 d1 57 dc 3f
       0.012679345905780792 0.44286009669303894
0003a0 00 00 00 40 22 99 d7 bf 00 00 00 40 ae 76 b0 3f
       -0.36872154474258423 0.06431092321872711
0003b0 00 00 00 60 1d 0b d4 3f 00 00 00 60 25 3b ad 3f
       0.3131783902645111 0.05709187313914299
0003c0 00 00 00 20 16 29 d6 bf 00 00 00 a0 56 af cd 3f
       -0.3462577164173126 0.23191340267658234
0003d0 00 00 00 40 42 01 b7 3f 00 00 00 e0 76 ef ab bf
       0.08986295759677887 -0.05456134304404259
0003e0 00 00 00 00 f2 11 b0 3f 00 00 00 80 be 3e c2 3f
       0.06277382373809814 0.14253979921340942
0003f0 00 00 00 a0 7b 0e b6 bf 00 00 00 c0 67 39 ba bf
       -0.08615849167108536 -0.10243843495845795
000400 00 00 00 20 59 f5 89 3f 00 00 00 c0 ab 1a ab 3f
       0.012674995698034763 0.05293785780668259
000410 00 00 00 a0 fe be cf 3f 00 00 00 c0 e2 53 d3 3f
       0.24801619350910187 0.3019949793815613
000420 00 00 00 a0 e9 10 ea 3f 00 00 00 e0 a2 50 d0 bf
       0.8145645260810852 -0.25492164492607117
000430 00 00 00 60 87 9f c6 3f 00 00 00 c0 ab 0b d1 3f
       0.17674343287944794 0.2663373351097107
000440 00 00 00 20 f3 cf b8 3f 00 00 00 a0 b4 23 c8 bf
       0.09692306071519852 -0.1885896474123001
000450 00 00 00 80 fd 42 d0 bf 00 00 00 e0 a4 78 9d bf
       -0.25408875942230225 -0.028780533000826836
000460 00 00 00 60 0b a3 8c bf 00 00 00 80 ca c1 c5 bf
       -0.013982857577502728 -0.16997653245925903
000470 00 00 00 e0 a4 92 da 3f 00 00 00 c0 3f 36 d4 bf
       0.41520044207572937 -0.3158110976219177
000480 00 00 00 00 a4 cd db bf 00 00 00 80 bc ae ba 3f
       -0.43442630767822266 0.10422876477241516
000490 00 00 00 00 63 80 db 3f 00 00 00 a0 51 8e 9e bf
       0.42971110343933105 -0.029839778319001198
0004a0 00 00 00 a0 0b ae c5 3f 00 00 00 c0 c7 23 c4 bf
       0.16937394440174103 -0.15734192728996277
0004b0 00 00 00 20 29 95 c6 3f 00 00 00 c0 7e 69 d4 3f
       0.17642702162265778 0.3189389109611511
0004c0 00 00 00 00 40 64 b4 bf 00 00 00 e0 69 cb d4 3f
       -0.07965469360351562 0.3249153792858124
0004d0 00 00 00 a0 1b b6 d4 bf 00 00 00 60 1f 36 c3 bf
       -0.3236149847507477 -0.15008918941020966
0004e0 00 00 00 40 28 a7 c2 3f 00 00 00 20 90 c3 cd 3f
       0.14572623372077942 0.2325306087732315
0004f0 00 00 00 20 af 7a 94 bf 00 00 00 a0 69 f7 7b 3f
       -0.019999252632260323 0.006827747914940119
000500 00 00 00 80 23 41 c8 3f 00 00 00 20 22 93 b4 3f
       0.18948787450790405 0.08037007600069046
000510 00 00 00 a0 98 57 39 bf 00 00 00 c0 88 1a ce 3f
       -0.00038669086643494666 0.23518475890159607
000520 00 00 00 20 78 78 be 3f 00 00 00 80 6e 16 cd bf
       0.11902571469545364 -0.22724705934524536
000530 00 00 00 60 bd 9d b8 bf 00 00 00 60 51 c8 a4 bf
       -0.09615691751241684 -0.0405908040702343
000540 00 00 00 c0 58 00 c2 3f 00 00 00 80 75 02 dc bf
       0.14063557982444763 -0.43765008449554443
000550 00 00 00 e0 4b e6 d0 bf 00 00 00 80 70 fa c9 3f
       -0.26405617594718933 0.20295530557632446
000560 00 00 00 a0 3c 3b c1 3f 00 00 00 a0 33 1a c4 bf
       0.13462026417255402 -0.15704961121082306
000570 00 00 00 c0 15 2c c3 bf 00 00 00 e0 90 86 cb 3f
       -0.14978286623954773 0.21504412591457367
000580 00 00 00 00 80 5c c0 bf 00 00 00 a0 62 9b 98 3f
       -0.1278228759765625 0.024030247703194618
000590 00 00 00 80 f4 eb ca 3f 00 00 00 00 42 2d c8 3f
       0.21032577753067017 0.18888115882873535
0005a0 00 00 00 60 b5 cb cc 3f 00 00 00 80 84 9d bc bf
       0.22496668994426727 -0.11177852749824524
0005b0 00 00 00 60 de 47 cf bf 00 00 00 c0 31 c2 e3 bf
       -0.24438075721263885 -0.6174553632736206
0005c0 00 00 00 00 77 b7 b5 bf 00 00 00 20 b2 14 c7 bf
       -0.08483070135116577 -0.18031908571720123
0005d0 00 00 00 c0 95 45 d3 bf 00 00 00 40 e8 8d d7 bf
       -0.30112212896347046 -0.36803632974624634
0005e0 00 00 00 40 ff 1d d3 3f 00 00 00 40 0e c5 b5 3f
       0.2987058758735657 0.08503808081150055
0005f0 00 00 00 00 f6 ea bc 3f 00 00 00 c0 c7 c1 c3 3f
       0.11296021938323975 0.15435120463371277
000600 00 00 00 c0 e1 03 c7 3f 00 00 00 e0 6f 8e d1 3f
       0.1798059642314911 0.274318665266037
000610 00 00 00 40 ba 33 bc bf 00 00 00 a0 83 29 a6 3f
       -0.11016429960727692 0.04328547790646553
000620 00 00 00 00 ff 12 e1 3f 00 00 00 20 04 b6 d9 bf
       0.5335688591003418 -0.4017343819141388
000630 00 00 00 20 b1 e9 b3 3f 00 00 00 c0 44 b9 d3 3f
       0.07778460532426834 0.30818289518356323
000640 00 00 00 80 80 97 ba 3f 00 00 00 20 07 ac d5 bf
       0.10387423634529114 -0.3386247456073761
000650 00 00 00 40 ba ab ca 3f 00 00 00 c0 6d 1d a1 3f
       0.20836570858955383 0.0334276482462883
000660 00 00 00 60 62 4f c1 bf 00 00 00 e0 cc 0f 96 3f
       -0.13523511588573456 0.021544648334383965
000670 00 00 00 80 fb f0 c5 3f 00 00 00 a0 b8 0b ae bf
       0.17141669988632202 -0.05868317559361458
000680 00 00 00 c0 6b 6b bc bf 00 00 00 20 d5 59 b6 3f
       -0.11101411283016205 0.08730823546648026
000690 00 00 00 80 69 a0 9c bf 00 00 00 e0 bb e9 d1 3f
       -0.02795567363500595 0.2798909842967987
0006a0 00 00 00 e0 c8 4d d2 3f 00 00 00 40 d0 50 ea 3f
       0.285997599363327 0.8223649263381958
0006b0 00 00 00 20 54 37 cc bf 00 00 00 00 2b 82 ca 3f
       -0.22043849527835846 0.20709741115570068
0006c0 00 00 00 40 05 4f c6 3f 00 00 00 20 27 ea a9 3f
       0.17428651452064514 0.05061456933617592
0006d0 00 00 00 a0 b7 73 cd bf 00 00 00 e0 3d d1 ca bf
       -0.23009391129016876 -0.20951054990291595
0006e0 00 00 00 00 1a 25 8a bf 00 00 00 20 f6 bb 89 bf
       -0.012766078114509583 -0.012565539218485355
0006f0 00 00 00 e0 5a 8d c1 bf 00 00 00 20 c7 7b db 3f
       -0.13712631165981293 0.4294297993183136
000700 00 00 00 e0 86 00 d5 bf 00 00 00 e0 d5 e8 da bf
       -0.3281571567058563 -0.42046114802360535
000710 00 00 00 20 8a ae b9 3f 00 00 00 c0 97 51 de 3f
       0.1003195121884346 0.47373002767562866
000720 00 00 00 c0 b2 f0 99 bf 00 00 00 c0 56 25 ca 3f
       -0.0253322534263134 0.20426449179649353
000730 00 00 00 80 a5 3d c3 bf 00 00 00 60 a6 68 c7 3f
       -0.15031880140304565 0.182881161570549
000740 00 00 00 e0 24 ba d5 3f 00 00 00 80 87 ab a1 bf
       0.33948633074760437 -0.03451178967952728
000750 00 00 00 c0 ba 22 d6 3f 00 00 00 40 b6 9c d2 bf
       0.3458697199821472 -0.29081493616104126
000760 00 00 00 e0 86 5e bd bf 00 00 00 00 52 7d c4 3f
       -0.11472361534833908 0.16007447242736816
000770 00 00 00 c0 e5 b2 d2 3f 00 00 00 20 c0 6c a7 3f
       0.2921690344810486 0.045751575380563736
000780 00 00 00 00 7e 56 5d bf 00 00 00 80 bf a6 c0 3f
       -0.001790640875697136 0.13008874654769897
000790 00 00 00 00 ce 9f b9 3f 00 00 00 60 db 62 6b 3f
       0.10009467601776123 0.003343037096783519
0007a0 00 00 00 e0 b4 b2 c7 3f 00 00 00 00 ce 93 b1 3f
       0.1851411908864975 0.06866157054901123
0007b0 00 00 00 c0 bf c5 c8 bf 00 00 00 40 39 98 af bf
       -0.19353482127189636 -0.061708249151706696
0007c0 00 00 00 00 5b 03 b7 bf 00 00 00 e0 ca d6 c4 3f
       -0.08989495038986206 0.16280494630336761
0007d0 00 00 00 a0 2c 06 d8 bf 00 00 00 c0 0d 72 cc bf
       -0.3753768503665924 -0.22223064303398132
0007e0 00 00 00 40 c0 2c cb 3f 00 00 00 c0 7c 4c c7 3f
       0.21230319142341614 0.18202170729637146
0007f0 00 00 00 c0 70 96 c5 bf 00 00 00 40 b0 f9 c4 bf
       -0.16865357756614685 -0.16386988759040833
