results/weights/weights_sequence_zo_adamm_12.333333015441895_fc2.bias_8.npy (npy, 15632 bytes, 1 tensors)

array f8 [51, 38]
0.009999999776482582 0.009999999776482582 0.009999999776482582 0.009999999776482582 0.009999999776482582 0.009999999776482582 0.009999999776482582 0.009999999776482582
0.009999999776482582 0.009999999776482582 0.009999999776482582 0.009999999776482582 0.009999999776482582 0.009999999776482582 0.009999999776482582 0.009999999776482582
0.009999999776482582 0.009999999776482582 0.009999999776482582 0.009999999776482582 0.009999999776482582 0.009999999776482582 0.009999999776482582 0.009999999776482582
0.009999999776482582 0.009999999776482582 0.009999999776482582 0.009999999776482582 0.009999999776482582 0.009999999776482582 0.009999999776482582 0.009999999776482582
0.009999999776482582 0.009999999776482582 0.009999999776482582 0.009999999776482582 0.009999999776482582 0.009999999776482582 -0.06887252628803253 0.09344937652349472
0.02532016672194004 -0.17524048686027527 -0.08566267788410187 0.02346491999924183 -0.18512406945228577 -0.11711166799068451 0.04810134693980217 -0.0962677001953125
0.00033089908538386226 0.01754848286509514 -0.07827272266149521 0.08999887853860855 -0.1863616555929184 -0.023606205359101295 0.01310800202190876 0.06462077796459198
-0.08924087882041931 -0.03645710274577141 0.1502939760684967 0.19901946187019348 -0.03726169466972351 0.10537675023078918 0.07690605521202087 0.1642242968082428
0.033435285091400146 -0.13490863144397736 -0.010758038610219955 -0.11207111924886703 0.029148494824767113 -0.03185052424669266 0.11062891781330109 0.03468300402164459
0.09513241052627563 -0.07773560285568237 -0.005734429694712162 0.07470966875553131 -0.05364896357059479 0.10222107917070389 -0.018968068063259125 -0.12681591510772705
-0.09562884271144867 0.02810734324157238 -0.21879403293132782 -0.06920651346445084 0.10156378149986267 -0.08773162961006165 0.04764508455991745 0.012090540491044521
-0.053426261991262436 0.11080583184957504 -0.2614421248435974 0.023424586281180382 0.09327372163534164 0.05343344062566757 -0.14318856596946716 0.012988319620490074
0.18457280099391937 0.2373371124267578 -0.004667965695261955 0.05994769558310509 0.09017141908407211 0.1384458690881729 0.04928633198142052 -0.18850155174732208
-0.08720025420188904 -0.15428653359413147 -0.052582670003175735 -0.0384192131459713 0.15631841123104095 -0.03304881229996681 0.14530408382415771 0.035642288625240326
-0.0022590248845517635 -0.0381690189242363 -0.03544546663761139 0.11694197356700897 -0.00349975423887372 -0.0978432297706604 -0.09473706781864166 0.02398853749036789
-0.24986368417739868 -0.055850572884082794 0.10176463425159454 -0.1260889321565628 0.058471281081438065 0.06510450690984726 -0.0735103115439415 0.18802782893180847
-0.27140292525291443 -0.0027733352035284042 0.09395194798707962 0.10178373008966446 -0.10082703828811646 -0.008853800594806671 0.13786646723747253 0.23680931329727173
-0.00995577685534954 0.03413425758481026 0.09931734949350357 0.16302870213985443 0.06430406123399734 -0.20273205637931824 -0.08393191546201706 -0.1489429473876953
-0.05309291556477547 -0.053166039288043976 0.1711764931678772 -0.0552474781870842 0.150860995054245 0.07283008098602295 -0.045957088470458984 -0.053420618176460266
-0.023426955565810204 0.14435803890228271 0.037635475397109985 -0.08170369267463684 -0.12274730950593948 -0.0011869637528434396 -0.25190407037734985 -0.07475269585847855
0.06670872867107391 -0.078684002161026 0.030114833265542984 0.05972461402416229 -0.07438238710165024 0.24163535237312317 -0.2532215416431427 0.0070948549546301365
0.0849653035402298 0.1262872815132141 -0.11200949549674988 -0.003922939766198397 0.15126600861549377 0.23696941137313843 -0.017819572240114212 0.03294530138373375
0.08935222774744034 0.13972006738185883 0.09322693943977356 -0.2158944010734558 -0.07976261526346207 -0.1394699215888977 -0.03372879698872566 -0.04693504050374031
0.1232227236032486 -0.09526374936103821 0.1658613383769989 0.06975270062685013 -0.074211485683918 -0.03502371162176132 -0.013191313482820988 0.12478574365377426
0.040921349078416824 -0.07225818186998367 -0.1262427419424057 0.0006331074982881546 -0.2581802308559418 -0.05195998400449753 0.06712769716978073 -0.09877161681652069
0.040823422372341156 0.04413995519280434 -0.10322137176990509 0.23441347479820251 -0.2800197899341583 -0.022531917318701744 0.07381737977266312 0.11297418177127838
-0.10019243508577347 -0.01891033723950386 0.18549783527851105 0.26952967047691345 -0.02039647102355957 0.036799851804971695 0.08965468406677246 0.1348380744457245
0.11358122527599335 -0.24277792870998383 -0.09021278470754623 -0.1361798197031021 -0.023284021764993668 -0.06252820789813995 0.1415918469429016 -0.10133515298366547
0.17510753870010376 0.06480181962251663 -0.09886521846055984 -0.049724824726581573 0.015942689031362534 0.18991680443286896 0.043040681630373 -0.10231311619281769
-0.12628504633903503 -0.023394852876663208 -0.24108649790287018 -0.014936452731490135 0.09393633902072906 -0.0899902805685997 -0.005292954389005899 0.0009286227286793292
-0.1065782681107521 0.2318786382675171 -0.32742953300476074 0.013198300264775753 0.10314302146434784 0.08564922213554382 -0.14468781650066376 -0.013553448021411896
0.18955013155937195 0.31104397773742676 -0.02002434805035591 0.021299542859196663 0.08042015880346298 0.12671704590320587 0.09558158367872238 -0.23983778059482574
00000000: 0000 0040 e17a 843f 0000 0040 e17a 843f
00000010: 0000 0040 e17a 843f 0000 0040 e17a 843f
00000020: 0000 0040 e17a 843f 0000 0040 e17a 843f
00000030: 0000 0040 e17a 843f 0000 0040 e17a 843f
00000040: 0000 0040 e17a 843f 0000 0040 e17a 843f
00000050: 0000 0040 e17a 843f 0000 0040 e17a 843f
00000060: 0000 0040 e17a 843f 0000 0040 e17a 843f
00000070: 0000 0040 e17a 843f 0000 0040 e17a 843f
00000080: 0000 0040 e17a 843f 0000 0040 e17a 843f
00000090: 0000 0040 e17a 843f 0000 0040 e17a 843f
000000a0: 0000 0040 e17a 843f 0000 0040 e17a 843f
000000b0: 0000 0040 e17a 843f 0000 0040 e17a 843f
000000c0: 0000 0040 e17a 843f 0000 0040 e17a 843f
000000d0: 0000 0040 e17a 843f 0000 0040 e17a 843f
000000e0: 0000 0040 e17a 843f 0000 0040 e17a 843f
000000f0: 0000 0040 e17a 843f 0000 0040 e17a 843f
00000100: 0000 0040 e17a 843f 0000 0040 e17a 843f
00000110: 0000 0040 e17a 843f 0000 0040 e17a 843f
00000120: 0000 0040 e17a 843f 0000 0040 e17a 843f
00000130: 0000 0040 a1a1 b1bf 0000 0060 4cec b73f
00000140: 0000 00a0 87ed 993f 0000 00c0 476e c6bf
00000150: 0000 0040 fded b5bf 0000 0020 3007 983f
00000160: 0000 0040 25b2 c7bf 0000 00c0 07fb bdbf
00000170: 0000 0060 bda0 a83f 0000 0000 00a5 b8bf
00000180: 0000 00c0 90af 353f 0000 00c0 3af8 913f
00000190: 0000 0060 ae09 b4bf 0000 00a0 2a0a b73f
000001a0: 0000 00e0 b2da c7bf 0000 00a0 392c 98bf
000001b0: 0000 0040 5ed8 8a3f 0000 00c0 fc8a b03f
000001c0: 0000 0080 7dd8 b6bf 0000 0060 81aa a2bf
000001d0: 0000 0040 d53c c33f 0000 0040 7879 c93f
000001e0: 0000 0000 f713 a3bf 0000 0080 f8f9 ba3f
000001f0: 0000 0080 1db0 b33f 0000 0040 4d05 c53f
00000200: 0000 0000 6e1e a13f 0000 00a0 af44 c1bf
00000210: 0000 0080 4f08 86bf 0000 0060 b1b0 bcbf
00000220: 0000 0060 1ad9 9d3f 0000 0040 b64e a0bf
00000230: 0000 0040 2d52 bc3f 0000 0080 f8c1 a13f
00000240: 0000 0000 995a b83f 0000 0000 7be6 b3bf
00000250: 0000 0040 fc7c 77bf 0000 0040 2c20 b33f
00000260: 0000 0080 e077 abbf 0000 0020 292b ba3f
00000270: 0000 0080 5d6c 93bf 0000 0000 813b c0bf
00000280: 0000 00c0 217b b8bf 0000 00e0 2bc8 9c3f
00000290: 0000 0060 7101 ccbf 0000 00a0 84b7 b1bf
000002a0: 0000 0080 1500 ba3f 0000 0080 9475 b6bf
000002b0: 0000 00c0 ef64 a83f 0000 00e0 ecc2 883f
000002c0: 0000 00e0 af5a abbf 0000 0060 c55d bc3f
000002d0: 0000 00c0 77bb d0bf 0000 0060 9dfc 973f
000002e0: 0000 0060 c9e0 b73f 0000 00c0 a05b ab3f
000002f0: 0000 00c0 0054 c2bf 0000 00c0 9e99 8a3f
00000300: 0000 00e0 14a0 c73f 0000 0000 1061 ce3f
00000310: 0000 0080 b71e 73bf 0000 00e0 76b1 ae3f
00000320: 0000 0060 7915 b73f 0000 0020 98b8 c13f
00000330: 0000 00e0 0e3c a93f 0000 00a0 d120 c8bf
00000340: 0000 0080 c152 b6bf 0000 0040 a9bf c3bf
00000350: 0000 00a0 1dec aabf 0000 00e0 aeab a3bf
00000360: 0000 00e0 3d02 c43f 0000 0020 c6eb a0bf
00000370: 0000 0000 5399 c23f 0000 00c0 b43f a23f
00000380: 0000 00c0 8481 62bf 0000 00c0 e38a a3bf
00000390: 0000 0080 e825 a2bf 0000 00c0 e8ef bd3f
000003a0: 0000 0040 84ab 6cbf 0000 0000 410c b9bf
000003b0: 0000 0040 b040 b8bf 0000 0080 7390 983f
000003c0: 0000 0080 88fb cfbf 0000 0040 7298 acbf
000003d0: 0000 0040 3f0d ba3f 0000 00a0 ae23 c0bf
000003e0: 0000 00a0 f2ef ad3f 0000 0060 b0aa b03f
000003f0: 0000 0060 92d1 b2bf 0000 00c0 4b11 c83f
00000400: 0000 0060 aa5e d1bf 0000 0000 1bb8 66bf
00000410: 0000 0020 3c0d b83f 0000 00a0 7f0e ba3f
00000420: 0000 0000 cdcf b9bf 0000 0000 f121 82bf
00000430: 0000 00c0 9ba5 c13f 0000 0080 c44f ce3f
00000440: 0000 00c0 b163 84bf 0000 00a0 0b7a a13f
00000450: 0000 00a0 dc6c b93f 0000 00e0 1fde c43f
00000460: 0000 0020 3b76 b03f 0000 00c0 1ff3 c9bf
00000470: 0000 00e0 8f7c b5bf 0000 0000 9010 c3bf
00000480: 0000 00a0 fe2e abbf 0000 0040 9438 abbf
00000490: 0000 0080 1ce9 c53f 0000 00c0 6549 acbf
000004a0: 0000 00c0 694f c33f 0000 0000 fea4 b23f
000004b0: 0000 0000 b087 a7bf 0000 0080 f259 abbf
000004c0: 0000 0060 3cfd 97bf 0000 0000 537a c23f
000004d0: 0000 0000 f544 a33f 0000 0080 88ea b4bf
000004e0: 0000 0020 5e6c bfbf 0000 00a0 7c72 53bf
000004f0: 0000 0040 321f d0bf 0000 0020 fe22 b3bf
00000500: 0000 00c0 d213 b13f 0000 0080 a224 b4bf
00000510: 0000 0040 6cd6 9e3f 0000 0080 3994 ae3f
00000520: 0000 0060 b90a b3bf 0000 0040 e8ed ce3f
00000530: 0000 0020 c834 d0bf 0000 00a0 7e0f 7d3f
00000540: 0000 0040 49c0 b53f 0000 0080 2e2a c03f
00000550: 0000 0080 a7ac bcbf 0000 0020 8011 70bf
00000560: 0000 0040 af5c c33f 0000 0080 0355 ce3f
00000570: 0000 0040 4b3f 92bf 0000 00e0 34de a03f
00000580: 0000 00a0 c9df b63f 0000 00e0 58e2 c13f
00000590: 0000 0080 b8dd b73f 0000 0080 6da2 cbbf
000005a0: 0000 00a0 526b b4bf 0000 0080 26da c1bf
000005b0: 0000 00a0 e644 a1bf 0000 00a0 de07 a8bf
000005c0: 0000 0040 868b bf3f 0000 0080 3463 b8bf
000005d0: 0000 00c0 f13a c53f 0000 0020 50db b13f
000005e0: 0000 0020 86ff b2bf 0000 00c0 a0ee a1bf
000005f0: 0000 0020 0c04 8bbf 0000 0060 f5f1 bf3f
00000600: 0000 00a0 a4f3 a43f 0000 0020 837f b2bf
00000610: 0000 00e0 b828 c0bf 0000 0000 e4be 443f
00000620: 0000 0060 0686 d0bf 0000 00c0 7f9a aabf
00000630: 0000 00e0 472f b13f 0000 00c0 1849 b9bf
00000640: 0000 00c0 cee6 a43f 0000 0020 8399 a63f
00000650: 0000 0040 b76c babf 0000 00c0 4201 ce3f
00000660: 0000 0020 d8eb d1bf 0000 0060 9b12 97bf
00000670: 0000 0020 b2e5 b23f 0000 0040 e0eb bc3f
00000680: 0000 0020 36a6 b9bf 0000 0040 3b5d 93bf
00000690: 0000 00a0 64be c73f 0000 0060 f93f d13f
000006a0: 0000 0000 d0e2 94bf 0000 0020 6ed7 a23f
000006b0: 0000 0000 9cf3 b63f 0000 00c0 5f42 c13f
000006c0: 0000 00c0 a813 bd3f 0000 00e0 5813 cfbf
000006d0: 0000 0060 2f18 b7bf 0000 0020 576e c1bf
000006e0: 0000 0040 c4d7 97bf 0000 0040 d901 b0bf
000006f0: 0000 0080 ae1f c23f 0000 00c0 19f1 b9bf
00000700: 0000 0080 ec69 c63f 0000 0020 da96 b03f
00000710: 0000 0020 3b4f b9bf 0000 0040 8875 a9bf
00000720: 0000 00c0 4753 903f 0000 00a0 314f c83f
00000730: 0000 00a0 6d09 a63f 0000 0040 3131 babf
00000740: 0000 00c0 1b2a c0bf 0000 0000 d2f4 97bf
00000750: 0000 0020 ecdb cebf 0000 00c0 0097 8ebf
00000760: 0000 0040 360c b83f 0000 0060 9a09 b7bf
00000770: 0000 00a0 10ae 75bf 0000 0020 da6d 4e3f
00000780: 0000 00a0 b648 bbbf 0000 0000 33ae cd3f
00000790: 0000 0000 9bf4 d4bf 0000 00e0 b507 8b3f
000007a0: 0000 00c0 9467 ba3f 0000 0080 1bed b53f
000007b0: 0000 0060 2185 c2bf 0000 0000 e9c1 8bbf
000007c0: 0000 00c0 2d43 c83f 0000 0000 25e8 d33f
000007d0: 0000 0040 4381 94bf 0000 0020 8ccf 953f
000007e0: 0000 0060 6a96 b43f 0000 00a0 4338 c03f
000007f0: 0000 00e0 0878 b83f 0000 0020 01b3 cebf
