results/weights/weights_sequence_adamm_12.333333015441895_fc3.weight_4.npy (npy, 155168 bytes, 1 tensors)

array f8 [51, 380]
00000000: 0000 0040 dd91 c23f 0000 0000 f323 cf3f
00000010: 0000 00e0 8278 d3bf 0000 0060 dacc a53f
00000020: 0000 0000 85c6 c5bf 0000 0080 811d b23f
00000030: 0000 0020 8024 ac3f 0000 0020 3c41 b2bf
00000040: 0000 0020 4531 adbf 0000 0080 9819 793f
00000050: 0000 0020 5cc6 b93f 0000 0040 9143 ce3f
00000060: 0000 00c0 0767 cb3f 0000 0020 22e4 ac3f
00000070: 0000 0060 0526 b63f 0000 0080 f656 d83f
00000080: 0000 0060 f6eb a8bf 0000 00a0 0251 d4bf
00000090: 0000 0020 97ae c1bf 0000 0040 92cd 9abf
000000a0: 0000 0000 4454 ca3f 0000 0080 439f 8c3f
000000b0: 0000 0000 e359 d53f 0000 00a0 51bb 9a3f
000000c0: 0000 00e0 5831 8bbf 0000 0080 4fba c8bf
000000d0: 0000 0060 14eb d2bf 0000 0020 5190 c1bf
000000e0: 0000 0040 3f83 85bf 0000 0020 50e9 c4bf
000000f0: 0000 00c0 d5ff da3f 0000 00e0 7cad c43f
00000100: 0000 0080 0a8d d63f 0000 0040 cf8b b5bf
00000110: 0000 0040 43ce 983f 0000 00c0 b9ef 633f
00000120: 0000 0040 1ad4 dd3f 0000 00a0 b4bb acbf
00000130: 0000 0080 833b c23f 0000 0000 5393 c3bf
00000140: 0000 0080 86a2 b63f 0000 0020 cc14 c93f
00000150: 0000 00c0 0d80 c3bf 0000 00c0 79bb 84bf
00000160: 0000 00a0 a483 b6bf 0000 0040 48c6 cb3f
00000170: 0000 00c0 f8bb cabf 0000 0080 0189 913f
00000180: 0000 0000 e2ce a6bf 0000 00a0 efc8 7cbf
00000190: 0000 0080 5ec0 db3f 0000 0080 48cd d4bf
000001a0: 0000 0000 680c bb3f 0000 0020 0fc2 a73f
000001b0: 0000 0020 46bc 723f 0000 00e0 ee11 a23f
000001c0: 0000 00a0 81a3 93bf 0000 0060 c1d5 ccbf
000001d0: 0000 0000 6a0e b33f 0000 00a0 85c0 b33f
000001e0: 0000 00c0 dac8 8fbf 0000 0040 092d af3f
000001f0: 0000 0020 f3bb bc3f 0000 0080 0a27 5abf
00000200: 0000 00c0 1279 da3f 0000 00c0 9187 a13f
00000210: 0000 00a0 bf19 ca3f 0000 0060 d41b dabf
00000220: 0000 0040 3030 c3bf 0000 0060 c8a0 be3f
00000230: 0000 00a0 e96b c73f 0000 00e0 6f10 cabf
00000240: 0000 0080 8e04 debf 0000 00e0 feb3 b6bf
00000250: 0000 0040 7890 cd3f 0000 0000 94df c5bf
00000260: 0000 0040 8fc2 ce3f 0000 0080 5be7 d4bf
00000270: 0000 0000 3ddd cabf 0000 00e0 99cb bfbf
00000280: 0000 0040 5c3b b73f 0000 0060 d267 b2bf
00000290: 0000 0060 7c5d c03f 0000 0080 070a c53f
000002a0: 0000 00a0 5f79 bf3f 0000 0040 3f4f c3bf
000002b0: 0000 00a0 41b3 bf3f 0000 00c0 bee8 b1bf
000002c0: 0000 00a0 967c a7bf 0000 0040 d690 babf
000002d0: 0000 00e0 7ad2 b83f 0000 0080 f1bd 73bf
000002e0: 0000 00c0 24b9 6a3f 0000 00e0 5f84 dabf
000002f0: 0000 0060 6315 b93f 0000 0040 eddb b8bf
00000300: 0000 0020 391b d23f 0000 0080 0663 c7bf
00000310: 0000 0040 7ea6 8a3f 0000 0080 e34c bf3f
00000320: 0000 00a0 4aa1 a13f 0000 0080 bab7 b63f
00000330: 0000 00e0 e708 d63f 0000 00c0 1cdd d9bf
00000340: 0000 0040 3b61 d7bf 0000 0080 120b a83f
00000350: 0000 0020 6f4e 93bf 0000 00a0 fbcc abbf
00000360: 0000 0020 deb7 c33f 0000 0020 c037 acbf
00000370: 0000 0040 68fe a73f 0000 00e0 733a 93bf
00000380: 0000 0040 7466 c0bf 0000 00c0 0b4d 913f
00000390: 0000 0080 4ff8 d53f 0000 0020 6398 bebf
000003a0: 0000 00c0 59c1 c23f 0000 00c0 a993 b63f
000003b0: 0000 00c0 4bef d3bf 0000 00e0 6489 c8bf
000003c0: 0000 00e0 d261 993f 0000 00e0 f9f4 b73f
000003d0: 0000 0040 24af c53f 0000 0000 01c2 c4bf
000003e0: 0000 0080 c693 dabf 0000 0040 107a a1bf
000003f0: 0000 00a0 6fef adbf 0000 0020 ae48 c8bf
00000400: 0000 00c0 2c2d 923f 0000 0020 c7a1 c23f
00000410: 0000 0020 bcda bcbf 0000 0000 44f8 a7bf
00000420: 0000 0080 731a 9d3f 0000 0040 dcd1 ba3f
00000430: 0000 00e0 155a cc3f 0000 0020 bed2 bb3f
00000440: 0000 0020 4602 cabf 0000 0020 1cd3 df3f
00000450: 0000 0020 da41 d9bf 0000 00c0 a695 be3f
00000460: 0000 00c0 034b d2bf 0000 0080 34b9 913f
00000470: 0000 0040 29a7 d1bf 0000 00c0 233d c03f
00000480: 0000 00a0 13e3 b53f 0000 00a0 ebba b2bf
00000490: 0000 0060 2cf4 c43f 0000 00e0 a917 dabf
000004a0: 0000 0040 42f2 c53f 0000 0080 7439 d03f
000004b0: 0000 0060 cb80 c03f 0000 0040 5fbc 953f
000004c0: 0000 0020 3b71 d8bf 0000 00e0 6d80 b6bf
000004d0: 0000 00e0 faa1 c83f 0000 00c0 37ad d03f
000004e0: 0000 00a0 d9c4 cf3f 0000 0080 6b51 b0bf
000004f0: 0000 0020 2a0f d2bf 0000 0000 ba6d a23f
00000500: 0000 0000 9206 d5bf 0000 0000 939e 8b3f
00000510: 0000 00a0 4860 c7bf 0000 00c0 b867 c1bf
00000520: 0000 0080 e4a1 ca3f 0000 00c0 382b a0bf
00000530: 0000 00a0 bd7c d0bf 0000 00e0 5ac9 d3bf
00000540: 0000 00e0 f06f 703f 0000 0040 17a7 c6bf
00000550: 0000 0040 f478 db3f 0000 0040 9038 d53f
00000560: 0000 0000 4c71 9f3f 0000 0000 3638 9fbf
00000570: 0000 0000 2313 b3bf 0000 0000 bd2d b8bf
00000580: 0000 00c0 f855 bbbf 0000 0040 4ba6 a83f
00000590: 0000 00c0 17b2 a7bf 0000 00a0 1283 b03f
000005a0: 0000 00c0 06e0 d3bf 0000 00e0 463f a6bf
000005b0: 0000 0000 73c1 cd3f 0000 0060 1fa0 c13f
000005c0: 0000 00e0 5a5e b4bf 0000 00c0 ddd7 c7bf
000005d0: 0000 00c0 ef45 c9bf 0000 0020 8595 cabf
000005e0: 0000 0060 337c 903f 0000 0000 de2c c5bf
000005f0: 0000 00c0 764e c23f 0000 00c0 fa14 d23f
00000600: 0000 00c0 a175 c5bf 0000 00c0 9c1f d0bf
00000610: 0000 0000 e03c 5e3f 0000 00e0 027b a4bf
00000620: 0000 00a0 cc35 d23f 0000 0080 1eaa 9cbf
00000630: 0000 0020 c2f9 acbf 0000 00a0 dddc b63f
00000640: 0000 00e0 626a b63f 0000 0080 b656 a1bf
00000650: 0000 0040 cc28 a4bf 0000 0080 daf3 d33f
00000660: 0000 00c0 093c b33f 0000 0000 3dcd ddbf
00000670: 0000 0060 3868 d0bf 0000 00a0 4fba e13f
00000680: 0000 0060 47c4 bc3f 0000 0040 ee2a 893f
00000690: 0000 00c0 49f2 cabf 0000 0040 4629 ca3f
000006a0: 0000 0060 3d13 d3bf 0000 00c0 86f6 bf3f
000006b0: 0000 00c0 9d6a aabf 0000 0080 8cda a8bf
000006c0: 0000 0040 d4de c43f 0000 0040 eb98 c93f
000006d0: 0000 0000 0953 c6bf 0000 00e0 42cd ab3f
000006e0: 0000 00e0 6403 d03f 0000 00c0 29c7 d93f
000006f0: 0000 0080 b44e d13f 0000 0060 74ab a73f
00000700: 0000 0020 52b3 963f 0000 0040 c2a5 d7bf
00000710: 0000 0000 8c5e b1bf 0000 0000 1278 d5bf
00000720: 0000 0000 57f8 b0bf 0000 00e0 a19a c9bf
00000730: 0000 0020 3a15 bebf 0000 0040 ce8a cbbf
00000740: 0000 0060 291c c83f 0000 0000 320c a2bf
00000750: 0000 0080 7932 913f 0000 0000 d681 b23f
00000760: 0000 00e0 05d6 c13f 0000 00a0 d95d a6bf
00000770: 0000 00a0 213a cebf 0000 0040 7e1b cabf
00000780: 0000 0040 43b6 c6bf 0000 0060 6e79 b93f
00000790: 0000 0000 9e3d cebf 0000 0000 12cb cfbf
000007a0: 0000 00c0 57bc d0bf 0000 0000 1e2c a73f
000007b0: 0000 0080 f963 853f 0000 0080 c9a2 bcbf
000007c0: 0000 00e0 0956 bbbf 0000 00a0 c908 d33f
000007d0: 0000 0000 7ce6 93bf 0000 0060 c030 ba3f
000007e0: 0000 0060 378f d3bf 0000 00a0 2dc8 b1bf
000007f0: 0000 0060 b932 a7bf 0000 00e0 2eae cabf
0.1450764238834381 0.24328458309173584 -0.3042304217815399 0.04257852956652641 -0.17012083530426025 0.07076272368431091 0.05496597662568092 -0.07130790501832962
-0.0570165254175663 0.006127925589680672 0.10068298131227493 0.23643699288368225 0.21408173441886902 0.05642801895737648 0.08651765435934067 0.38030779361724854
-0.04867525026202202 -0.31744447350502014 -0.13814057409763336 -0.026174817234277725 0.20569658279418945 0.01397564634680748 0.33361124992370605 0.026105189695954323
-0.013277716003358364 -0.1931857466697693 -0.2955981194972992 -0.1372167021036148 -0.010504240170121193 -0.16337014734745026 0.42186492681503296 0.16154442727565765
0.35235846042633057 -0.0841645747423172 0.024224329739809036 0.0024336460046470165 0.4660707116127014 -0.05611957982182503 0.14244121313095093 -0.15293347835540771
0.08841744065284729 0.19594718515872955 -0.15234538912773132 -0.010123206302523613 -0.08794621378183365 0.21698859333992004 -0.20886144042015076 0.017124198377132416
-0.04454714059829712 -0.007027565035969019 0.4336162805557251 -0.32502949237823486 0.10565805435180664 0.046402428299188614 0.004574083257466555 0.03529306873679161
-0.019178414717316628 -0.22527329623699188 0.07443869113922119 0.07715640217065811 -0.015519818291068077 0.060890473425388336 0.11224288493394852 -0.0015962221659719944
0.41363972425460815 0.03423743695020676 0.20391078293323517 -0.4079485833644867 -0.14990809559822083 0.11964084953069687 0.1829807311296463 -0.2036266177892685
-0.469028115272522 -0.08868401497602463 0.23097136616706848 -0.17088556289672852 0.24031248688697815 -0.3266209363937378 -0.2098766565322876 -0.12420045584440231
0.09074951708316803 -0.07189669460058212 0.12785296142101288 0.16436856985092163 0.12294576317071915 -0.1508559286594391 0.12382898479700089 -0.0699576586484909
-0.04587240889668465 -0.10377253592014313 0.09696166962385178 -0.00481981597840786 0.0032621114514768124 -0.41432949900627136 0.09798260778188705 -0.09710581600666046
0.2829115688800812 -0.18270951509475708 0.013012873008847237 0.1222669780254364 0.03443368151783943 0.08874097466468811 0.3442935645580292 -0.40412062406539917
-0.36530953645706177 0.04695947468280792 -0.018853889778256416 -0.054298270493745804 0.15404869616031647 -0.055112842470407486 0.04686284810304642 -0.018777666613459587
-0.12812665104866028 0.016895469278097153 0.3432806730270386 -0.11951274424791336 0.14652559161186218 0.08819065988063812 -0.31148046255111694 -0.19169293344020844
0.024787230417132378 0.09358178824186325 0.16940739750862122 -0.16217052936553955 -0.41526949405670166 -0.0341343954205513 -0.058467376977205276 -0.18971802294254303
0.01775045320391655 0.1455620676279068 -0.11271262913942337 -0.04681599140167236 0.02842121571302414 0.10476471483707428 0.22149918973445892 0.10868442803621292
-0.20319439470767975 0.49726012349128723 -0.39464429020881653 0.1194709986448288 -0.28582853078842163 0.017308063805103302 -0.27582770586013794 0.12686583399772644
0.08549616485834122 -0.0731646791100502 0.16370157897472382 -0.4076943099498749 0.17145565152168274 0.25350677967071533 0.1289304941892624 0.021226394921541214
-0.3819110691547394 -0.0878971740603447 0.19244323670864105 0.2605723738670349 0.2481948882341385 -0.06374236941337585 -0.28217557072639465 0.03599339723587036
-0.32852602005004883 0.013486050069332123 -0.18262584507465363 -0.1359778344631195 0.20806556940078735 -0.03157975524663925 -0.25761356949806213 -0.30916473269462585
0.004013005178421736 -0.17697420716285706 0.42925745248794556 0.3315773606300354 0.030705630779266357 -0.030487865209579468 -0.07451075315475464 -0.09444791078567505
-0.10678057372570038 0.048143722116947174 -0.04628061503171921 0.06450001150369644 -0.31054848432540894 -0.04345151409506798 0.23246610164642334 0.13769905269145966
-0.07956474274396896 -0.18627521395683289 -0.1974467933177948 -0.20768798887729645 0.016098788008093834 -0.16543173789978027 0.14301952719688416 0.2825304865837097
-0.16765233874320984 -0.25192946195602417 0.0018455684185028076 -0.040001001209020615 0.28453364968299866 -0.027992703020572662 -0.05659300461411476 0.08930764347314835
0.08756082504987717 -0.033864691853523254 -0.03937376290559769 0.3117586374282837 0.07513485848903656 -0.4656517505645752 -0.25636109709739685 0.5539930462837219
0.11236997693777084 0.012288914993405342 -0.21051904559135437 0.20438459515571594 -0.29804930090904236 0.12485544383525848 -0.05159466713666916 -0.04854239523410797
0.16305020451545715 0.19997921586036682 -0.17440903186798096 0.05430039390921593 0.25020715594291687 0.4027809500694275 0.27042877674102783 0.04622996971011162
0.02216842956840992 -0.3694921135902405 -0.06784892082214355 -0.33545351028442383 -0.06628936529159546 -0.20003150403499603 -0.11751139909029007 -0.21517351269721985
0.18835942447185516 -0.035249292850494385 0.016794107854366302 0.07229363918304443 0.1393439620733261 -0.04368476942181587 -0.23614902794361115 -0.2039640247821808
-0.1774372160434723 0.09950914233922958 -0.23625540733337402 -0.24838471412658691 -0.26149553060531616 0.04525846242904663 0.01044459268450737 -0.11185893416404724
-0.10678159445524216 0.29741135239601135 -0.019433915615081787 0.10230638831853867 -0.30561622977256775 -0.06946072727441788 -0.04530886933207512 -0.2084406465291977
