results/weights/weights_sequence_adamm_0.1111111119389534_fc2.bias_1.npy (npy, 4208 bytes, 1 tensors)

array f8 [51, 10]
0	0x3f847ae140000000	0.009999999776482582
1	0x3f847ae140000000	0.009999999776482582
2	0x3f847ae140000000	0.009999999776482582
3	0x3f847ae140000000	0.009999999776482582
4	0x3f847ae140000000	0.009999999776482582
5	0x3f847ae140000000	0.009999999776482582
6	0x3f847ae140000000	0.009999999776482582
7	0x3f847ae140000000	0.009999999776482582
8	0x3f847ae140000000	0.009999999776482582
9	0x3f847ae140000000	0.009999999776482582
10	0xbf9348a240000000	-0.018831763416528702
11	0x3fc8fa7b20000000	0.19514407217502594
12	0x3f78106720000000	0.005875017959624529
13	0xbfaad746e0000000	-0.05242368206381798
14	0x3f847ae140000000	0.009999999776482582
15	0x3faccb8300000000	0.05624017119407654
16	0x3fa2f3dd40000000	0.03701678663492203
17	0xbf94262760000000	-0.019676795229315758
18	0xbfb571b300000000	-0.0837661623954773
19	0x3fb2401d40000000	0.07129080593585968
20	0xbf9387e380000000	-0.019073061645030975
21	0x3fcfdde0c0000000	0.24895867705345154
22	0x3f887575e0000000	0.011942788027226925
23	0xbfa70b0840000000	-0.04500604420900345
24	0x3f847ae140000000	0.009999999776482582
25	0x3fad807fc0000000	0.05762099474668503
26	0x3fa06ca540000000	0.03207889944314957
27	0xbfa4f63ea0000000	-0.04094119742512703
28	0xbfb5a24560000000	-0.08450730890035629
29	0x3fb18da560000000	0.06856759637594223
30	0xbf93c87be0000000	-0.019319472834467888
31	0x3fd2cc2b60000000	0.29371151328086853
32	0x3f8ad38a00000000	0.013098791241645813
33	0xbfa58f8ee0000000	-0.04211088642477989
34	0x3f847ae140000000	0.009999999776482582
35	0x3fabfeed60000000	0.05467931553721428
36	0x3f997519c0000000	0.024860765784978867
37	0xbfadc7f220000000	-0.05816609039902687
38	0xbfb44c0f20000000	-0.07928556948900223
39	0x3fb04ac800000000	0.06364107131958008
40	0xbf9411e2e0000000	-0.01959948055446148
41	0x3fd53606e0000000	0.3314225375652313
42	0x3f897013c0000000	0.01242080144584179
43	0xbfa3a71cc0000000	-0.038384340703487396
44	0x3f847ae140000000	0.009999999776482582
45	0x3fa9f8f400000000	0.0507274866104126
46	0x3f94307000000000	0.01971602439880371
47	0xbfb27c3140000000	-0.07220752537250519
48	0xbfb2488420000000	-0.07141900807619095
49	0x3fada4dd00000000	0.05789843201637268
50	0xbf9490dc60000000	-0.020083850249648094
51	0x3fd72aa7a0000000	0.3619784414768219
52	0x3f867c3220000000	0.01097907219082117
53	0xbfa2230080000000	-0.035423293709754944
54	0x3f847ae140000000	0.009999999776482582
55	0x3fa7522e20000000	0.04554885998368263
56	0x3f91a41b00000000	0.017227575182914734
57	0xbfb57ac340000000	-0.0839044600725174
58	0xbfafe7bb20000000	-0.06231484189629555
59	0x3faab01580000000	0.052124664187431335
60	0xbf9510cee0000000	-0.020571930333971977
61	0x3fd8c3b440000000	0.38694483041763306
62	0x3f84683ce0000000	0.009964442811906338
63	0xbfa04c9e40000000	-0.03183455020189285
64	0x3f847ae140000000	0.009999999776482582
65	0x3fa4841ba0000000	0.04007040336728096
66	0x3f91454560000000	0.016865810379385948
67	0xbfb8269900000000	-0.09433895349502563
68	0xbfaa951380000000	-0.05191861093044281
69	0x3fa8039fc0000000	0.046902649104595184
70	0xbf95809760000000	-0.02099834941327572
71	0x3fda1b2660000000	0.407907098531723
72	0x3f81f64d80000000	0.008770566433668137
73	0xbf9d17bb40000000	-0.028410840779542923
74	0x3f847ae140000000	0.009999999776482582
75	0x3fa19fefc0000000	0.0344233438372612
76	0x3f931b7c20000000	0.01865953393280506
77	0xbfba4a1020000000	-0.102692611515522
78	0xbfa4c1fde0000000	-0.040542539209127426
79	0x3fa52668e0000000	0.04130866751074791
80	0xbf95c5e940000000	-0.02126278355717659
81	0x3fdb452760000000	0.4260958135128021
82	0x3f7d95d4e0000000	0.007222968619316816
83	0xbf996d7800000000	-0.024831652641296387
84	0x3f847ae140000000	0.009999999776482582
85	0x3f9d5a83e0000000	0.02866560034453869
86	0x3f95a86740000000	0.021150220185518265
87	0xbfbc5f3840000000	-0.11082793772220612
88	0xbf9da4d980000000	-0.028949163854122162
89	0x3fa2304640000000	0.035524554550647736
90	0xbf960bf8e0000000	-0.021530045196413994
91	0x3fdc48e800000000	0.44194984436035156
92	0x3f7474d380000000	0.00499422661960125
93	0xbf964160c0000000	-0.02173377200961113
94	0x3f847ae140000000	0.009999999776482582
95	0x3f988f3980000000	0.02398385852575302
96	0x3f9966d240000000	0.024806294590234756
97	0xbfbe3f4d40000000	-0.1181534081697464
98	0xbf917f1de0000000	-0.01708647422492504
99	0x3f9e1d8ba0000000	0.029409581795334816
100	0xbf9653b5e0000000	-0.021803705021739006
101	0x3fdd313560000000	0.45612844824790955
102	0x3f5e419e80000000	0.0018466995097696781
103	0xbf93a98560000000	-0.019201358780264854
104	0x3f847ae140000000	0.009999999776482582
105	0x3f94c49080000000	0.02028108388185501
106	0x3f9dc6d160000000	0.029078742489218712
107	0xbfc0021000000000	-0.1250629425048828
108	0xbf757904c0000000	-0.005242365412414074
109	0x3f974599c0000000	0.02272644266486168
110	0xbf969a3380000000	-0.022072605788707733
111	0x3fde0c0840000000	0.4694843888282776
112	0xbf599d8980000000	-0.001563438680022955
113	0xbf91eb6e00000000	-0.017499655485153198
114	0x3f847ae140000000	0.009999999776482582
115	0x3f91856560000000	0.01711042784154415
116	0x3fa126cfe0000000	0.03349923714995384
117	0xbfc0df4180000000	-0.13181322813034058
118	0x3f79945040000000	0.006244958378374577
119	0x3f91018c60000000	0.01660746894776821
120	0xbf970fb760000000	-0.022520890459418297
121	0x3fded366e0000000	0.4816529452800751
122	0xbf7823f820000000	-0.005893677938729525
123	0xbf906d6ac0000000	-0.016042392700910568
124	0x3f847ae140000000	0.009999999776482582
125	0x3f8e778a00000000	0.014876440167427063
126	0x3fa3ad9d60000000	0.038433950394392014
127	0xbfc1b43380000000	-0.13831180334091187
128	0x3f91814c60000000	0.017094796523451805
129	0x3f84ed3dc0000000	0.010218126699328423
130	0xbf97209ba0000000	-0.022585326805710793
131	0x3fdf940a80000000	0.49341070652008057
132	0xbf854d82c0000000	-0.01040174625813961
133	0xbf8d7e8e40000000	-0.014401542022824287
134	0x3f847ae140000000	0.009999999776482582
135	0x3f8a6d4aa0000000	0.012903769500553608
136	0x3fa6018f40000000	0.04298064857721329
137	0xbfc2789ee0000000	-0.14430604875087738
138	0x3f9c3cdfc0000000	0.027575965970754623
139	0x3f6eb97360000000	0.0037505391519516706
140	0xbf977c41e0000000	-0.022934941574931145
141	0x3fe023e960000000	0.5043837428092957
142	0xbf8df22e20000000	-0.014622078277170658
143	0xbf8a7a9760000000	-0.012929136864840984
144	0x3f847ae140000000	0.009999999776482582
145	0x3f87ea6b20000000	0.01167758647352457
146	0x3fa83256a0000000	0.047259051352739334
147	0xbfc31f94c0000000	-0.14940127730369568
148	0x3fa3694d00000000	0.0379127562046051
149	0xbf6704de20000000	-0.0028099382761865854
150	0xbf97823ea0000000	-0.022957781329751015
151	0x3fe0769aa0000000	0.5144780278205872
152	0xbf93967840000000	-0.01912868395447731
153	0xbf8812dfa0000000	-0.011754748411476612
154	0x3f847ae140000000	0.009999999776482582
155	0x3f85b9bb80000000	0.010608162730932236
156	0x3faa3de440000000	0.05125344544649124
157	0xbfc3c6eb40000000	-0.15450802445411682
158	0x3fa87e5c40000000	0.047839052975177765
159	0xbf81da8160000000	-0.008717547170817852
160	0xbf97902c80000000	-0.023010917007923126
161	0x3fe0c99b80000000	0.5246102809906006
162	0xbf97d2e0a0000000	-0.023265371099114418
163	0xbf86b16b80000000	-0.011080589145421982
164	0x3f847ae140000000	0.009999999776482582
165	0x3f83f972c0000000	0.00975312851369381
166	0x3fac32e640000000	0.05507583171129227
167	0xbfc45a3840000000	-0.15900328755378723
168	0x3fad72fa20000000	0.05751783028244972
169	0xbf8d0aa360000000	-0.014180446974933147
170	0xbf979c4fa0000000	-0.02305721677839756
171	0x3fe11ac900000000	0.5345196723937988
172	0xbf9cc39800000000	-0.02808988094329834
173	0xbf852f16c0000000	-0.010343721136450768
174	0x3f847ae140000000	0.009999999776482582
175	0x3f82fb08c0000000	0.00926787219941616
176	0x3fae2e05a0000000	0.05894486978650093
177	0xbfc4f282c0000000	-0.16365084052085876
178	0x3fb11eb500000000	0.06687480211257935
179	0xbf939a3140000000	-0.019142884761095047
180	0xbf97a79060000000	-0.023100143298506737
181	0x3fe169fb40000000	0.5441871881484985
182	0xbfa0a07be0000000	-0.032474394887685776
183	0xbf84293020000000	-0.00984418485313654
184	0x3f847ae140000000	0.009999999776482582
185	0x3f81fc2340000000	0.008781695738434792
186	0x3fb00bcac0000000	0.06267993152141571
187	0xbfc589b2e0000000	-0.1682647317647934
188	0x3fb3606580000000	0.0756896436214447
189	0xbf987af7c0000000	-0.023906584829092026
190	0xbf97b26a40000000	-0.023141536861658096
191	0x3fe1b61300000000	0.5534758567810059
192	0xbfa30927e0000000	-0.03717922791838646
193	0xbf83142d20000000	-0.009315826930105686
194	0x3f847ae140000000	0.009999999776482582
195	0x3f816dbb40000000	0.008510077372193336
196	0x3fb0fa95e0000000	0.06632363051176071
197	0xbfc61f7480000000	-0.17283493280410767
198	0x3fb58dcc80000000	0.08419492840766907
199	0xbf9d068ca0000000	-0.028345296159386635
200	0xbf97bc49c0000000	-0.023179199546575546
201	0x3fe2022cc0000000	0.5627654790878296
202	0xbfa57fd600000000	-0.04199093580245972
203	0xbf8285ab20000000	-0.009044014848768711
204	0x3f847ae140000000	0.009999999776482582
205	0x3f8102f8c0000000	0.00830644927918911
206	0x3fb1d2fae0000000	0.06962554901838303
207	0xbfc6ad0640000000	-0.1771552860736847
208	0x3fb7b74f00000000	0.09264081716537476
209	0xbfa0bf3920000000	-0.03270891681313515
210	0xbf97e96a80000000	-0.02335134893655777
211	0x3fe248ef20000000	0.5714030861854553
212	0xbfa79a9900000000	-0.04610136151313782
213	0xbf81e7db60000000	-0.008743013255298138
214	0x3f847ae140000000	0.009999999776482582
215	0x3f80d36b40000000	0.008215749636292458
216	0x3fb2ae32e0000000	0.07297056168317795
217	0xbfc73ddb60000000	-0.1815752238035202
218	0x3fb9d238a0000000	0.1008639708161354
219	0xbfa2b21f00000000	-0.03651520609855652
220	0xbf97ed2060000000	-0.023365503177046776
221	0x3fe2924120000000	0.580353319644928
222	0xbfa9e5d500000000	-0.05058160424232483
223	0xbf81685540000000	-0.008499780669808388
224	0x3f847ae140000000	0.009999999776482582
225	0x3f80b85820000000	0.008164108730852604
226	0x3fb37b0da0000000	0.07609639316797256
227	0xbfc7cc8220000000	-0.1859285980463028
228	0x3fbbd66040000000	0.10873986780643463
229	0xbfa4978d40000000	-0.04021874815225601
230	0xbf9810fcc0000000	-0.023502301424741745
231	0x3fe2db4ac0000000	0.5892690420150757
232	0xbfac0ca140000000	-0.054783858358860016
233	0xbf80b603c0000000	-0.008159665390849113
234	0x3f847ae140000000	0.009999999776482582
235	0x3f80996720000000	0.00810509268194437
236	0x3fb4454180000000	0.07918176054954529
237	0xbfc84e94e0000000	-0.18989811837673187
238	0x3fbdcd0ee0000000	0.11641018837690353
239	0xbfa6541e60000000	-0.043610524386167526
240	0xbf9813f340000000	-0.02351360395550728
241	0x3fe3219b00000000	0.5978522300720215
242	0xbfae4e9780000000	-0.059193357825279236
243	0xbf7ef2fd00000000	-0.007555950433015823
244	0x3f847ae140000000	0.009999999776482582
245	0x3f805bb920000000	0.007987448014318943
246	0x3fb50c8720000000	0.08222240954637527
247	0xbfc8d25280000000	-0.19391852617263794
248	0x3fbfa527a0000000	0.12361381202936172
249	0xbfa7f7ae20000000	-0.04681152477860451
250	0xbf9816d120000000	-0.023524539545178413
251	0x3fe364bbc0000000	0.6060465574264526
252	0xbfb0438620000000	-0.063530333340168
253	0xbf7c9ef040000000	-0.006987513042986393
254	0x3f847ae140000000	0.009999999776482582
255	0x3f7f36fd00000000	0.007620800286531448
